lastfm/models/model_factors_2.npz (npz, 38267 bytes, 2 tensors)

user_factors f4 [1892, 2]
7.5297976 1.5226934 5.0277762 -0.8935651 8.1209755 1.7081168 7.9523735 1.4500302
6.7019644 4.179876 6.319573 6.573258 7.02034 6.7034225 7.001698 3.875664
7.450668 0.36604202 6.1837716 6.67832 7.876321 5.0665417 6.0228844 6.999121
6.372937 0.82735395 8.027932 -1.1308409 6.372059 5.4103246 6.981626 6.3858733
8.018902 0.89100254 7.7311263 -0.0018168818 5.6421437 6.603078 8.159035 2.1171527
7.5244884 -1.2214371 7.411477 6.0128226 6.1633167 6.512013 7.2201214 -0.092577115
8.142903 1.7604327 5.861285 0.65210176 5.2994046 7.2885695 6.6422844 6.602002
7.871253 2.7124193 8.616039 1.2021646 7.394313 -0.40591773 8.229766 -0.32990712
2.9731314 -0.31966868 7.8758984 5.1369977 7.743904 0.20488644 8.34459 4.313293
6.614245 -1.2314051 6.086658 0.8441581 6.5851126 -1.2915773 7.606769 5.4348555
8.647015 2.200281 7.838331 -0.94648844 5.7538347 6.7800264 5.5020013 7.2205753
6.3422556 6.7192864 7.7944784 5.022609 6.766874 6.653478 8.046387 1.5046552
7.9878006 -0.94280946 7.5671844 3.2712736 6.3005276 6.893207 5.812459 7.3207765
7.5926595 0.4787744 7.8290606 1.4741666 6.9078493 6.4708533 6.086241 6.9528937
7.9296293 0.57510006 6.78506 -0.9318063 7.729646 1.663587 7.6413426 1.7234893
8.1953945 -0.9180477 7.6021523 1.6631087 7.578206 6.114238 7.3496785 0.29039204
6.000354 7.155588 7.7604547 0.002747044 8.006378 1.3641003 7.681426 0.37809634
6.2890916 7.1312017 7.7148514 0.41952565 6.113917 5.056035 6.0540323 7.069299
5.8054156 4.749141 8.001536 2.0452807 7.5592656 0.23804349 6.1034307 7.074655
7.246896 3.2918684 5.9075103 1.5218939 7.6743608 -0.15753913 7.1184306 0.041966747
8.0184355 -0.085145526 7.337163 -0.63213867 8.355484 2.420614 5.668776 7.041891
7.539793 0.18176296 7.316892 6.953947 7.2010517 2.5650024 6.709115 -1.2049904
7.109828 5.8940554 8.014276 -0.51403505 5.3608685 7.728138 7.32982 4.6054792
7.7635336 0.73749423 7.7303414 5.602122 8.679654 1.6590109 8.047532 1.9580381
9.002647 2.8352187 7.6880016 0.4078664 8.49417 0.79054254 7.9908757 3.941241
6.563811 -0.6268618 6.8741193 0.38698143 7.603693 0.98172945 6.6187787 -1.3254776
6.9449444 1.2697159 5.691773 6.9128356 7.5858903 -1.3569193 0.0 0.0
7.683862 1.5561711 7.565502 -1.4303789 2.7299733 -0.35939178 6.397649 1.8565922
7.799462 2.4029336 7.8438272 3.9885583 7.302489 -1.004153 6.7950306 7.222903
5.983287 7.1026993 6.7647204 -0.0576858 8.418683 2.2010736 7.7644887 2.497215
8.72906 3.3362794 7.561345 6.3285875 7.5225515 1.7772478 7.4693403 1.0585693
6.7575274 6.4645414 6.2508116 6.8434496 6.875792 -0.9660346 5.3404574 7.3519225
00000000: 1af4 f040 9ee7 c23f 8be3 a040 afc0 64bf
00000010: 84ef 0141 92a3 da3f d879 fe40 979a b93f
00000020: 7e76 d640 8bc1 8540 f139 ca40 2158 d240
00000030: a0a6 e040 7082 d640 e90d e040 e10a 7840
00000040: df6b ee40 dc69 bb3e 75e1 c540 ccb4 d540
00000050: d20a fc40 1c21 a240 78bb c040 cdf8 df40
00000060: 1aef cb40 78cd 533f 6972 0041 65bf 90bf
00000070: e8e7 cb40 6121 ad40 7b69 df40 1359 cc40
00000080: 6c4d 0041 be18 643f 6365 f740 7024 eeba
00000090: 718c b440 6a4c d340 688b 0241 6e7f 0740
000000a0: 9cc8 f040 0d58 9cbf d22a ed40 0b69 c040
000000b0: e439 c540 6962 d040 3c0b e740 1299 bdbd
000000c0: 5549 0241 dc55 e13f a68f bb40 24f0 263f
000000d0: b994 a940 f63b e940 988d d440 9a43 d340
000000e0: 4ee1 fb40 4798 2d40 4cdb 0941 88e0 993f
000000f0: 369e ec40 73d4 cfbe 1fad 0341 96e9 a8be
00000100: c947 3e40 9dab a3be 5c07 fc40 4962 a440
00000110: 10ce f740 c0cd 513e 7183 0541 7f06 8a40
00000120: e5a7 d340 af9e 9dbf e7c5 c240 bf1a 583f
00000130: 3eb9 d240 6852 a5bf a76a f340 56ea ad40
00000140: 2c5a 0a41 67d1 0c40 9cd3 fa40 114d 72bf
00000150: 6a1f b840 faf5 d840 6510 b040 f40e e740
00000160: c2f3 ca40 6504 d740 5e6c f940 37b9 a040
00000170: 3b8a d840 4be9 d440 00be 0041 8b98 c03f
00000180: 109c ff40 f65b 71bf 6026 f240 8c5c 5140
00000190: ec9d c940 2795 dc40 aaff b940 cd43 ea40
000001a0: 11f7 f240 eb21 f53e aa87 fa40 7eb1 bc3f
000001b0: 1a0d dd40 3b11 cf40 7cc2 c240 1b7e de40
000001c0: 86bf fd40 c239 133f 361f d940 dc8a 6ebf
000001d0: 4359 f740 6bf0 d43f e185 f440 4c9b dc3f
000001e0: 5620 0341 2d05 6bbf d544 f340 bfe0 d43f
000001f0: aa80 f240 d6a7 c340 9130 eb40 44ae 943e
00000200: e602 c040 94fa e440 a555 f840 c007 343b
00000210: 201a 0041 d79a ae3f 3ece f540 d895 c13e
00000220: 3d40 c940 ce32 e440 10e0 f640 11cc d63e
00000230: 35a5 c340 0acb a140 a2ba c140 b337 e240
00000240: f7c5 b940 f7f8 9740 4b06 0041 e1e5 0240
00000250: 81e5 f140 acc1 733e 4e4f c340 9363 e240
00000260: 92e6 e740 f9ad 5240 530a bd40 6bcd c23f
00000270: 5d94 f540 f051 21be 2fca e340 53e5 2b3d
00000280: 834b 0041 c760 aebd 0aca ea40 d7d3 21bf
00000290: 10b0 0541 57eb 1a40 9d66 b540 2c57 e140
000002a0: fc45 f140 1220 3a3e fb23 ea40 bc86 de40
000002b0: 046f e640 0029 2440 12b1 d640 203d 9abf
000002c0: b683 e340 1a9c bc40 793a 0041 cd97 03bf
000002d0: 3c8c ab40 e84c f740 e38d ea40 1660 9340
000002e0: de6e f840 6ccc 3c3f f55e f740 9544 b340
000002f0: dddf 0a41 785a d43f b1c2 0041 fea0 fa3f
00000300: d80a 1041 3974 3540 1c04 f640 ddd3 d03e
00000310: 1fe8 0741 ff60 4a3f 41b5 ff40 4b3d 7c40
00000320: bd0a d240 047a 20bf c9f8 db40 6e22 c63e
00000330: 7451 f340 9f52 7b3f 09cd d340 40a9 a9bf
00000340: fc3c de40 0d86 a23f 0123 b640 f335 dd40
00000350: 9dbf f240 88af adbf 0000 0000 0000 0000
00000360: 33e2 f540 9d30 c73f 9818 f240 a816 b7bf
00000370: e2b7 2e40 3302 b8be 8ab9 cc40 d0a4 ed3f
00000380: 3195 f940 aac9 1940 a200 fb40 8a44 7f40
00000390: fdad e940 1688 80bf e470 d940 0522 e740
000003a0: 1677 bf40 5049 e340 9778 d840 f247 6cbd
000003b0: edb2 0641 64de 0c40 b176 f840 5fd2 1f40
000003c0: 3baa 0b41 9a85 5540 8af6 f140 ca83 ca40
000003d0: beb8 f040 db7c e33f d604 ef40 337f 873f
000003e0: aa3d d840 86dd ce40 a606 c840 8afd da40
000003f0: 7d06 dc40 0b4e 77bf 07e5 aa40 f342 eb40

item_factors f4 [2500, 2]
0.08204306 -0.01342417 0.09873706 -0.060508832 0.0980205 0.030022735 0.0771478 0.01812202
0.09314061 -0.027898418 0.07271117 -0.020822138 0.099439554 -0.05727593 0.10945654 -0.061735008
0.086337745 -0.021970568 0.09413575 -0.04129098 0.10668798 -0.03934799 0.0909931 -0.043336343
0.09545246 -0.016877737 0.08695143 -0.025808062 0.09694168 -0.0441619 0.08799589 -0.009893298
0.09858592 -0.00557983 0.097295776 0.0013100473 0.11236142 -0.022260908 0.10699079 -0.044108044
0.118682355 -0.052235648 0.09604951 -0.029441852 0.07090299 0.08039458 0.116416365 0.0011715292
0.102814674 -0.03810971 0.10860617 0.0013285954 0.11978777 -0.047594212 0.0686041 -0.015035784
0.09998724 -0.03914126 0.07710323 -0.020042323 0.10327247 -0.012174658 0.11253258 -0.027281407
0.10886828 0.030627532 0.10661316 -0.031249102 0.091030024 0.05890863 0.08872993 -0.022405863
0.09174134 0.020257533 0.1127236 -0.0062360116 0.08077733 0.04901946 0.1205523 -0.018340217
0.085505344 -0.024860622 0.09859286 -0.022253413 0.089974895 -0.020430833 0.10697185 -0.013005653
0.08121994 0.007441352 0.1183997 -0.04157918 0.08523813 -0.020197427 0.10999866 -0.04719796
0.0977982 -0.028619483 0.08619893 0.022567667 0.115791716 -0.010251349 0.09443184 0.057527266
0.07296238 0.013598079 0.08185638 -0.018511219 0.097800456 -0.033523444 0.096323125 -0.021244815
0.11099551 -0.04673088 0.058855895 0.0880543 0.09921464 -0.032163955 0.10926076 -0.042723652
0.09309228 -0.021198317 0.07741432 -0.035813227 0.08073435 -0.0013329035 0.107984476 -0.04851854
0.10058338 -0.0548829 0.08827098 -0.020053206 0.11578417 -0.05973796 0.10037282 -0.03384954
0.12537745 -0.018565094 0.089637354 0.03927715 0.09236444 -0.028231116 0.09286318 0.04989228
0.123747565 -0.032692894 0.054722022 0.08526933 0.11353426 -0.050622243 0.12621553 -0.04291339
0.113434546 -0.005608387 0.08904065 0.030603094 0.10578402 -0.02497533 0.101689436 -0.006892011
0.096534535 0.02334365 0.116225205 -0.005309028 0.10924333 -0.026741657 0.08288766 -0.007264622
0.10720563 -0.011356151 0.07475157 0.023901626 0.088116646 0.036473915 0.10401718 -0.04548205
0.106295906 0.0145251695 0.10394264 -0.012228329 0.08967996 0.039911445 0.101238616 -0.044416633
0.10434659 0.0040919306 0.11472934 -0.04965998 0.0851064 0.022043582 0.11563171 0.011872602
0.06687838 0.07654837 0.09587816 0.011883699 0.10412417 -0.02782055 0.08713724 -0.01570701
0.10544648 -0.012894517 0.11172383 -0.029475668 0.11434429 -0.06160435 0.11351661 -0.005249184
0.11495619 -0.017257567 0.101655275 -0.038731344 0.09340921 -0.03519643 0.103054434 -0.020832557
0.11983527 -0.0356162 0.09276749 0.017345855 0.10898394 -0.051315207 0.119439185 -0.052252546
0.10630998 0.025558537 0.10416056 -0.020453302 0.087080516 0.054235563 0.11419598 -0.016741524
0.101482615 -0.049181297 0.11924426 -0.049163587 0.11266338 -0.048906855 0.09626362 -0.05448844
0.1071582 -0.000173335 0.091694534 -0.04411769 0.113260895 0.0022456283 0.09988226 0.0058312905
0.11665809 -0.046250544 0.10291204 -0.011128528 0.11932667 -0.043231532 0.11831919 -0.047549773
00000000: 3106 a83d 0df1 5bbc a836 ca3d 1cd8 77bd
00000010: f9be c83d 3df2 f53c aaff 9d3d a174 943c
00000020: 81c0 be3d 398b e4bc 98e9 943d 3093 aabc
00000030: f7a6 cb3d 2a9a 6abd c02a e03d d9dd 7cbd
00000040: d8d1 b03d 9ffb b3bc 3eca c03d bb20 29bd
00000050: 3a7f da3d 5c2b 21bd 975a ba3d 7381 31bd
00000060: 947c c33d 2e43 8abc 9713 b23d 6e6b d3bc
00000070: 5c89 c63d 1ce3 34bd 3037 b43d 8017 22bc
00000080: 6ae7 c93d 02d7 b6bb 0243 c73d e5b5 ab3a
00000090: bf1d e63d 825c b6bc fd1d db3d a3aa 34bd
000000a0: bc0f f33d 0cf5 55bd 9bb5 c43d 0a30 f1bc
000000b0: 9635 913d eaa5 a43d b46b ee3d ff8d 993a
000000c0: 8090 d23d ed18 1cbd e96c de3d 4424 ae3a
000000d0: 4a53 f53d 26f2 42bd 4e80 8c3d a658 76bc
000000e0: 1cc6 cc3d 9652 20bd 4ce8 9d3d cc2f a4bc
000000f0: 8480 d33d 3778 47bc 7b77 e63d 427d dfbc
00000100: 55f6 de3d 97e6 fa3c 0058 da3d 1efe ffbc
00000110: f36d ba3d 2d4a 713d 0ab8 b53d 808c b7bc
00000120: e2e2 bb3d 20f3 a53c a1db e63d 7557 ccbb
00000130: 966e a53d a1c8 483d 20e4 f63d 393e 96bc
00000140: 6d1d af3d 81a8 cbbc 0eeb c93d ca4c b6bc
00000150: c244 b83d 905e a7bc 0f14 db3d aa15 55bc
00000160: a456 a63d 96d6 f33b 8b7b f23d ee4e 2abd
00000170: 5491 ae3d 1375 a5bc fa46 e13d a652 41bd
00000180: 6c4a c83d 6873 eabc 1189 b03d d4df b83c
00000190: 3524 ed3d 46f5 27bc 7b65 c13d b6a1 6b3d
000001a0: 4d6d 953d 7aca 5e3c 51a4 a73d d7a4 97bc
000001b0: 9b4b c83d e14f 09bd 0f45 c53d 9b09 aebc
000001c0: 9d51 e33d e168 3fbd e112 713d d055 b43d
000001d0: 0c31 cb3d 5abe 03bd 1bc4 df3d fffe 2ebd
000001e0: 2aa7 be3d 18a8 adbc 668b 9e3d e4b0 12bd
000001f0: 0d58 a53d d2b4 aeba f726 dd3d 60bb 46bd
00000200: a9fe cd3d e4cc 60bd 6ac7 b43d 9f46 a4bc
00000210: 4020 ed3d cbaf 74bd 4490 cd3d d1a5 0abd
00000220: f262 003e d315 98bc ca93 b73d 14e1 203d
00000230: 9129 bd3d f144 e7bc 0d2f be3d d95b 4c3d
00000240: 5d6f fd3d fce8 05bd 3324 603d b0a1 ae3d
00000250: a684 e83d 4559 4fbd a53e 013e f3c5 2fbd
00000260: 5f50 e83d 8fc6 b7bb f25a b63d 57b3 fa3c
00000270: 4ba5 d83d 1099 ccbc 8d42 d03d 61d6 e1bb
00000280: e6b3 c53d 2f3b bf3c 7b07 ee3d 5bf7 adbb
00000290: f8ba df3d 5211 dbbc 01c1 a93d 110c eebb
000002a0: a08e db3d 260f 3abc 5a17 993d 58cd c33c
000002b0: 8076 b43d ac65 153d f606 d53d 634b 3abd
000002c0: abb1 d93d fafa 6d3c e1df d43d 5459 48bc
000002d0: 20aa b73d 2f7a 233d 3156 cf3d 37ee 35bd
000002e0: aab3 d53d 9a15 863b 37f7 ea3d 4368 4bbd
000002f0: 444c ae3d be94 b43c 51d0 ec3d 4d85 423c
00000300: 88f7 883d 64c5 9c3d c55b c43d d9b3 423c
00000310: 0e3f d53d ece7 e3bc 0275 b23d fdab 80bc
00000320: 53f4 d73d 8643 53bc 77cf e43d f576 f1bc
00000330: 572d ea3d d854 7cbd 657b e83d 5901 acbb
00000340: 276e eb3d be5f 8dbc a430 d03d c2a4 1ebd
00000350: 544d bf3d 222a 10bd 340e d33d 0aa9 aabc
00000360: 326c f53d 4be2 11bd e2fc bd3d e518 8e3c
00000370: f932 df3d e52f 52bd 889c f43d c406 56bd
00000380: 0cb9 d93d 2360 d13c 2252 d53d af8d a7bc
00000390: 4557 b23d 1c26 5e3d 95df e93d 8525 89bc
000003a0: 1ed6 cf3d 5472 49bd 5636 f43d c25f 49bd
000003b0: 0fbc e63d 8e52 48bd dc25 c53d 452f 5fbd
000003c0: c275 db3d 43c1 35b9 58ca bb3d c0b4 34bd
000003d0: 54f5 e73d 642b 133b 128f cc3d 6914 bf3b
000003e0: 70ea ee3d 3671 3dbd 8cc3 d23d 6e54 36bc
000003f0: 8b61 f43d 8c13 31bd 5551 f23d 8dc3 42bd
