lastfm/models/model_ground_truth.npz (npz, 565307 bytes, 2 tensors)

user_factors f4 [1892, 32]
00000000: 49a9 9cbd ae68 e13d 3290 ab3d baff b23d
00000010: 9cfd d23d fd8a cb3e 8e56 76bd 51b7 18be
00000020: 8dfe 953e 161c 8a3e 108f 083e cb8e a13e
00000030: e6dc a4be 0f2f 56be d222 9bbe a8aa a53e
00000040: 56af adbd 85ee 17bd 850c 0ebe 6268 06ba
00000050: 1350 663e d134 69be 2be9 603e 7c0d 4c3e
00000060: 3e4f 71be a517 8a3e 1808 d83d 5747 173d
00000070: 036a 25be 36b0 35be fc4d d4bc 2e1c 313e
00000080: c6cd 9cbc 6fb3 103c 3496 3fbd c7fd b93c
00000090: cce9 dc3c 0cf3 603c ece6 4f3b 66bb b6bc
000000a0: ef95 353c 01f4 303c b9ff b1bc 7d7c 4b3c
000000b0: 7117 343c e275 333c efeb edbc aeb0 c63c
000000c0: b838 84bc 1f7c 513d 1051 30bc fdb2 a5bc
000000d0: 792f a03c 71c9 f73c fd8e a3bc 742f e43c
000000e0: 3119 ed3c 6a68 b43a 3aca c1bc 459b 8aba
000000f0: 8275 67ba d5b7 95bc 8ad5 7bbb 0607 8b3c
00000100: 3320 72bc 365d c43d 8a18 57be 7d90 3fbe
00000110: 3e99 8e3e 2259 e13e 3cb1 19be efd9 d93b
00000120: e1aa 853e b2c2 b33e 1783 9e3e fedf 23bd
00000130: 7b5e 0dbd 4a31 3a3e e826 aabd 20b6 18bd
00000140: ee0b 293e 96c5 b3bd 8d02 f3bd 2ec6 52be
00000150: b1ed 493d 3ec9 b0bd 7b07 b63d a29e e7bd
00000160: 7b71 49bd a659 483e 879a 22be bc23 013e
00000170: ddbb f63d defa 783d 2910 123e d12d 4b3e
00000180: efda 01be 3bd9 f63b d799 503d 208a c83d
00000190: 47a3 243e 72b7 5e3d fc13 743e adcc a4be
000001a0: 037d 65bd 14db 2c3e bf5e 0c3e 69f9 afbd
000001b0: c0bb cf3b 2cda 443e 7df4 0dbb ab69 f33c
000001c0: 6ce4 9e3e 1023 f73d c812 c03e 99a3 3f3d
000001d0: 6afd 3ebe 7331 db3d 941a 493e 5b85 803d
000001e0: 282d 393c 9d92 113e 987e 483e 4690 223c
000001f0: 70f9 2abe 49aa c13c 8379 b3bd eabf a33d
00000200: 0246 be3d ecc7 863d a337 003c 9e11 6c3c
00000210: 71d5 dc3d d02e 5e3c 1c96 bf3d 236f f53d
00000220: 9e2d e6bd c485 333c 331b 463d 5fb2 9e3d
00000230: 6e6b 863d b7ff 473c 9102 0dbe dece adbc
00000240: 696f 10be 75ff 383e a0a2 10be c94f c13c
00000250: 5304 08be b454 c5bc baee 82bc db41 57bb
00000260: 5b1a 75ba 364d 053d 1579 9b3d 3446 283d
00000270: e91c ffbd 39b2 7d3d 4fe5 2b3e 04bd 3b3d
00000280: fbd0 283e 3a91 983e 0a50 a33e 8932 42bd
00000290: 4835 82be e8da ae3e 2d21 7fbb 061e 58bd
000002a0: f11b d53d 1b33 45be f2d4 abbc c53e 633e
000002b0: 73cc 8f3e a079 883d e7e2 02be 84d9 03bd
000002c0: 91f6 e23d daf4 24bd d5e9 1a3e e193 82bc
000002d0: 95d5 80bd da6a 0b3e 94b8 0a3c d78b ce3d
000002e0: a7f1 74bd f287 043e 3eb1 0c3d c7fc 783d
000002f0: 78ce 453c c843 673e 5e91 3abc 9eed 453d
00000300: 39e4 3d3e 6e43 613d 9439 b63c e7e9 ea3d
00000310: 87b3 cbbd 137d 0bbd 1355 ac3d d392 603e
00000320: ad7b 60bd 8479 b9bd 4b67 873e 5ac5 1c3e
00000330: d1fd 4c3e 180e e23d a50c 9cbc ac98 7bbd
00000340: 24a9 71be cc64 0e3e adf6 5dbc bee3 d9bd
00000350: 2bbf 593e 7cd5 44bd 00c2 0b3d 2391 223e
00000360: c47e afbc 5de3 113e 3c9c a1bd 737b fe3d
00000370: b463 48be f20e 8d3d b7cc 393e 3473 893d
00000380: 6bef e33d b9fd 913d 2c4d bd3d 29cf 433e
00000390: ef9b 903e 3c79 8dbd a368 3c3e 5280 983e
000003a0: b60a fbbd 98d4 72bd dcbb f83d 2859 393d
000003b0: 332f 2fbe cb01 0f3e 4ec8 143e 7e3e ed3d
000003c0: 44af 203d 25c7 5cbe 6823 02be dace 0cbd
000003d0: 1ea8 c93d b68d 4b3e 980e c8bd a486 203d
000003e0: 8b8f f0b8 69b6 eabd d5b3 23be 57d4 f0bd
000003f0: 06b2 f3bc 9ac9 3bbd eebf 3ebd be92 a83c
-0.07649476 0.11006294 0.083771124 0.08740182 0.103022784 0.39754477 -0.06014114 -0.1491368
0.2929577 0.26974553 0.13335824 0.31554255 -0.32199782 -0.20916389 -0.30300003 0.32356763
-0.08480708 -0.037092704 -0.13871963 -0.00051272486 0.22491483 -0.22774054 0.21963947 0.19927019
-0.23565385 0.26971164 0.10548419 0.03693327 -0.16153722 -0.17743 -0.025916092 0.17295906
-0.01914109 0.008831843 -0.046774104 0.022704018 0.026966952 0.013729822 0.0031723334 -0.022306155
0.01108311 0.010800363 -0.021728383 0.012419817 0.010991917 0.010953398 -0.029043166 0.02425417
-0.016140327 0.05114376 -0.010761514 -0.02022695 0.019553887 0.030247422 -0.019965643 0.027854659
0.028942676 0.0013764028 -0.023656 -0.0010574838 -0.0008829461 -0.018276135 -0.003842684 0.016971122
-0.014778185 0.09588091 -0.21005455 -0.18707462 0.2785129 0.44013315 -0.15009016 0.006648294
0.26106933 0.35109478 0.3095939 -0.040008537 -0.03451393 0.18182865 -0.08308202 -0.037283063
0.16508457 -0.08777921 -0.11865721 -0.20583412 0.049298946 -0.08632134 0.088881455 -0.11309554
-0.04918049 0.19565448 -0.1587926 0.12611288 0.12047551 0.06078612 0.14263977 0.19841696
-0.12681173 0.00753322 0.050927963 0.0979197 0.1607791 0.054374166 0.23835748 -0.32187405
-0.056027424 0.16880447 0.13708018 -0.08592493 0.00633952 0.19223851 -0.002166062 0.029713472
0.31033647 0.120672345 0.3751433 0.04678688 -0.18651357 0.10702791 0.19639045 0.062754355
0.01130227 0.14216085 0.19579542 0.009922093 -0.16696715 0.023640769 -0.08763411 0.07995589
0.09290697 0.06581101 0.007825765 0.014408497 0.10782898 0.013560966 0.09354803 0.11984088
-0.112391695 0.010957185 0.048365783 0.07748865 0.06563459 0.012206963 -0.1377051 -0.021216806
-0.14105 0.18066199 -0.14124537 0.023597615 -0.132829 -0.024088241 -0.015982974 -0.003284565
-0.00093499356 0.032544337 0.07591454 0.041082576 -0.12456686 0.061937544 0.16786693 0.045834556
0.1648597 0.297983 0.31897002 -0.047411475 -0.25431275 0.34151387 -0.0038929686 -0.052763008
0.1040572 -0.19257776 -0.020975564 0.22191913 0.2808567 0.06663823 -0.12781869 -0.03218986
0.11082185 -0.04027257 0.15128262 -0.015939655 -0.062907375 0.1361498 0.008466858 0.10085266
-0.05980077 0.12942484 0.03434872 0.060787942 0.012073152 0.2258445 -0.011387197 0.048322313
0.18544091 0.054995947 0.022244252 0.114703946 -0.099463515 -0.034054827 0.08414664 0.21931009
-0.054805446 -0.090563804 0.26445994 0.15309659 0.20018698 0.110378444 -0.019048998 -0.061424896
-0.23599678 0.13905638 -0.013547582 -0.106391415 0.21264331 -0.048055157 0.03412056 0.15875678
-0.021422751 0.14246888 -0.078911275 0.1242589 -0.19569284 0.06887616 0.18144499 0.067114264
0.1112965 0.07128472 0.09243235 0.19121994 0.28243968 -0.06907889 0.1839929 0.297854
-0.12257902 -0.059284776 0.12145206 0.04525104 -0.17107849 0.13965528 0.14529535 0.11584185
0.039229646 -0.21560343 -0.12708819 -0.034376957 0.09846519 0.19878277 -0.097684085 0.039190903
-0.00011470829 -0.11460573 -0.15986569 -0.117592506 -0.029747974 -0.04584656 -0.046569757 0.020577785

item_factors f4 [2500, 32]
00000000: 10e5 463d 08ee 2abe 746a 07be 7e6e 603e
00000010: 608e 11bd e3c3 3b3a 67ea 8bbd 752c 933d
00000020: b19d 033e b1ad 88bc b870 653d 9cfa 21be
00000030: 95cb e6bb 8905 40bd d645 9c3c ccdc 11bc
00000040: f69e c0bc 74c0 213a 2231 833c dbd7 08bb
00000050: 29ff ccbd 265d 363d 9ee3 073d 0ead 8e3d
00000060: f064 cbbd 38f6 863d a4fd 97bd 4fc2 99bc
00000070: 7925 b53d 0a37 233e 1266 6a3d d97f b93d
00000080: 9c67 b73c e01e 3d3d f00a 82bd 2e33 10bb
00000090: 92ce 943c 7b78 a9bc e0e4 9bbd 2861 183d
000000a0: 00a0 66bc 0e94 77bb e0e5 cdbc 96fd 6d3b
000000b0: 1e8a 3a3d cf97 bc3b a583 fcbb e382 093d
000000c0: 4270 ca3d 8dd1 a33b b2b3 4e3c 916b 303c
000000d0: af84 763c 9519 433d 6cd2 0d3e e95e 8b3d
000000e0: 6b78 b9bd b927 3bbd de36 ba3c 2ca0 263b
000000f0: cff6 643a 65b4 563c a469 a63c 515e 3abd
00000100: 45f7 5b3e ee2c a3bd 5831 dabd d7ad 183f
00000110: 4fce 5f3e 38b5 2abe 96d0 7f3e 2749 3abc
00000120: 8fa0 c0bd 9ad0 8abe 7809 063f da5d 3ebe
00000130: 46b4 1b3e d725 46bd 4003 643e d0cf a73d
00000140: eee7 4c3f 2610 6bbb b23b 40be 2a7c ed3d
00000150: 5181 3abd 64c1 97bd d14d 40bd 300d 893d
00000160: 0372 0e3e 6ca5 7d3d 09c0 393f 081c d73d
00000170: c3a9 d63d e022 153f 888b 28be 1ed1 69be
00000180: de6c 733d 3d40 583d 4749 9cbb b3d4 733d
00000190: 2edf a93d b8b3 60bd 3dd1 653d f6f1 ff3d
000001a0: d70d e2bc ad3a 01bd 263a ad3b 8b28 59bd
000001b0: c29e 9dbd 399e 743d 4a0c c03c 1415 f8bc
000001c0: b1ad ae3d 5f21 bfbd 5df8 87bd a865 843c
000001d0: bd3d 873d 554a 943d c87b a5bd fc99 1a3d
000001e0: dc0e 9bbc 0735 9e3d ab0f 143e 6177 05be
000001f0: 49a7 f7bc 9eda 5e3b 80b3 6c3d fe12 03bd
00000200: 8d72 01be 225e 46be b022 4fbe 5c93 913e
00000210: ae46 eabc d163 503d e721 e2bd 781a 953d
00000220: f631 ec3d bf6b 86bd 58ce c93c ee53 31be
00000230: c138 b03b 4633 cfbb 9a88 203d 6f64 9c3d
00000240: d949 5bbd 0d54 d3bc 9b04 163c 4ab2 193e
00000250: 5fee d1bd 1c5f 283e 4d79 bb3d 0993 353d
00000260: 7c50 07be b1ad 393d 930a 89bc 69e1 82bd
00000270: ca76 d33d 8a7f 973e c8c7 503d 2cfe 8f3d
00000280: 7469 1cba d293 8abd d737 a6bd 7fa7 f13d
00000290: 184c 35bc 404e 8d3c 2733 5fbd 8a77 7a3d
000002a0: 39d0 bb3d fb1c 05bd 2cec af3b 1c0c c4bd
000002b0: fcbb 0b3b 1f49 4b39 16c2 2dbb 6fc2 123c
000002c0: 8cbe 8bbc 427f 903c d732 763b 28ea d93a
000002d0: 23d8 59bd 82db f23c b67a 65bc d2c0 d43c
000002e0: d2c5 63bd b70e 383c 5603 82bd 0bf6 a33b
000002f0: a7d4 0c3d fbf4 c03d e9d7 413d 1594 983c
00000300: 994e 52bd d5ee b03c 8397 293c fc42 8ebd
00000310: 8e08 663d 24fb 9ebd 5857 04be 09ed 303e
00000320: 222d a23d db4b 42bc 9a59 6e3c 5209 923d
00000330: dfbc 1d3d 71b4 043c 7fb4 3ebd 374a 9d3d
00000340: efa6 ce3d 5dc9 03bd fc4a a23d d521 11bd
00000350: 147f 033d 8cdc b73d db6b 143e b32d 87bc
00000360: f799 b1bd 95b6 903c 94e4 5cba 924b 84bd
00000370: dfff 173d e03e cdbc ef89 a23d c81e f4bd
00000380: 478f 23bd 0bff f93c 41e2 acbd d02b 0abd
00000390: b2e6 df3d be5f 19bd 4dc3 0abe 2fd3 963e
000003a0: 25fd bf3d 6b9d d13d 8f12 ca3b 78b2 863d
000003b0: f505 723e 4c88 d53c 0aee d8bd ad2d 653e
000003c0: 42a3 453e c139 edbd 7a16 fb3d 727a 3dbd
000003d0: 17a9 90bd 040e ec3d 4f80 883e 74b2 01be
000003e0: 7c88 20be 7ce7 ae3b 5c9c 123e ba4b ddbc
000003f0: e5f0 da3d 15c8 7cbd 3044 db3c bfbc 1cbe
0.048558295 -0.16692364 -0.13224202 0.2191715 -0.03553617 0.0007162673 -0.06831818 0.07186214
0.12853123 -0.016684385 0.0560157 -0.15818256 -0.007043312 -0.04688028 0.01907627 -0.00890274
-0.023513298 0.00061703403 0.01601464 -0.0020880613 -0.100096054 0.044522427 0.033176057 0.06966601
-0.09931362 0.06589931 -0.07421425 -0.018769411 0.08845038 0.15938964 0.057226248 0.09057588
0.022388272 0.046172023 -0.063497424 -0.0022003162 0.018164907 -0.020687332 -0.07612014 0.03720203
-0.014076233 -0.0037777456 -0.025134027 0.003631448 0.045541875 0.0057554017 -0.007706123 0.03357209
0.09884693 0.0049993456 0.012616085 0.010767833 0.015046283 0.04763182 0.13849801 0.06805212
-0.09056171 -0.04569218 0.02273124 0.002542506 0.0008734287 0.013104533 0.020314045 -0.045500103
0.21481045 -0.07967554 -0.10653943 0.5964026 0.21856044 -0.16670692 0.24981913 -0.01136998
-0.09405624 -0.27112275 0.523582 -0.18590489 0.15205488 -0.04837593 0.22266865 0.08193934
0.80041397 -0.003586778 -0.18772772 0.11595948 -0.045533482 -0.07409933 -0.04694921 0.066919684
0.1391068 0.061925337 0.7255865 0.105033934 0.10481598 0.5825634 -0.16459477 -0.22833678
0.059429996 0.052795637 -0.0047694775 0.059529018 0.08294521 -0.054858893 0.05610775 0.12497322
-0.02759449 -0.0315501 0.005286473 -0.05301718 -0.07696296 0.059721205 0.02344336 -0.030283488
0.08529223 -0.09332537 -0.066391684 0.016161755 0.066035725 0.0724074 -0.0808025 0.037744507
-0.018927984 0.07724958 0.14459102 -0.1303382 -0.030231135 0.0034004818 0.057788372 -0.032000534
-0.12641354 -0.19371846 -0.20228076 0.2843274 -0.028598156 0.050876442 -0.110416226 0.07280439
0.11532967 -0.0656352 0.024634525 -0.17317173 0.0053778593 -0.006323251 0.039192773 0.07636344
-0.053537223 -0.025796914 0.0091563715 0.15009418 -0.10250544 0.16442531 0.09153996 0.044329677
-0.13214296 0.04533166 -0.016728675 -0.0639065 0.103253916 0.29589492 0.050971776 0.07030901
-0.00059666415 -0.06766476 -0.08116119 0.117995255 -0.011065505 0.017249227 -0.054492142 0.061149158
0.09170575 -0.03249834 0.00536873 -0.09572622 0.0021321764 0.00019386828 -0.002651339 0.008957489
-0.017058633 0.017638806 0.0037566924 0.001662557 -0.05318464 0.029645685 -0.014006307 0.02597085
-0.055608578 0.011233977 -0.063482925 0.005003696 0.03438249 0.09421726 0.04732505 0.018625299
-0.051344488 0.021598259 0.010351065 -0.0694637 0.056160502 -0.07762745 -0.12923944 0.17277922
0.07918765 -0.011858906 0.01454773 0.07130684 0.0385102 0.008099661 -0.046558853 0.07680171
0.10090434 -0.032174457 0.079244584 -0.035432655 0.032103613 0.08977613 0.14494269 -0.016501283
-0.086719446 0.017665187 -0.0008426395 -0.064597264 0.037109252 -0.025054395 0.07936465 -0.119199336
-0.03993156 0.030517122 -0.08441592 -0.03373319 0.109326735 -0.037444822 -0.13551064 0.29457995
0.09374455 0.10235103 0.006166763 0.06577009 0.23635085 0.026065968 -0.10592277 0.22380705
0.19300559 -0.11583281 0.122601464 -0.04625935 -0.07063501 0.11526111 0.26660392 -0.1266573
-0.15677065 0.0053376537 0.14317459 -0.027013648 0.10690478 -0.06171425 0.026765913 -0.15306376
