lastfm/models/model_factors_4.npz (npz, 73403 bytes, 3 tensors)

user_factors f4 [1892, 4]
000000 54 7c 1f 42 19 34 b0 41 b8 3f b3 41 ed 8d bd 41
       39.871414 22.025438 22.406113 23.6943
000010 b2 27 91 41 31 68 06 41 88 38 98 41 0b 65 dd 41
       18.144382 8.400437 19.027603 27.674337
000020 94 12 17 42 ff 42 17 42 ca 9c ae 41 70 78 eb 41
       37.768143 37.815426 21.826557 29.433807
000030 dc 70 97 41 a4 0a f3 41 20 03 02 42 f8 9c 23 42
       18.930107 30.380196 32.50305 40.90329
000040 1c ed 09 42 36 b1 b3 41 ca 77 ef 41 62 7e c1 41
       34.481552 22.461529 29.93349 24.18671
000050 7c 58 f4 41 7e 26 ff 41 51 4f 11 42 cb 66 94 41
       30.543205 31.893795 36.327457 18.550192
000060 32 5a 06 42 ac 4e 14 42 de 97 15 42 90 64 b1 41
       33.58808 37.076828 37.398308 22.174103
000070 32 24 a4 41 66 ea 23 42 6a 65 ee 41 e6 b5 d9 41
       20.517673 40.978905 29.799519 27.213818
000080 86 8a b0 41 e5 39 94 41 76 06 ed 41 89 e9 10 42
       22.067638 18.528269 29.628155 36.22806
000090 60 cc e4 41 ab 50 11 42 0c 0b 0c 42 b6 6d 87 41
       28.599792 36.328777 35.010788 16.92857
0000a0 75 b1 c9 41 2b 8d 39 42 ce 14 02 42 31 f4 e2 41
       25.211649 46.38786 32.520317 28.369234
0000b0 b8 6e bb 41 1f 47 f5 41 57 ce 27 42 18 d4 ab 41
       23.429062 30.659727 41.951504 21.478561
0000c0 c6 62 fc 41 8c de cb 41 e4 4f 8a 41 7d 55 d5 41
       31.54823 25.483665 17.28901 26.666742
0000d0 d8 34 0b 42 9e f9 ab 41 f7 5e a8 41 c9 10 18 42
       34.801605 21.496883 21.04637 38.01639
0000e0 15 2d db 41 e4 70 16 42 de 0f 02 42 e3 a2 9f 41
       27.397013 37.610245 32.515495 19.954535
0000f0 f5 2a c6 41 fd cc f0 41 d8 16 2c 42 4e bb d0 41
       24.770975 30.100092 43.02231 26.091457
000100 e2 bb 01 42 7e c3 21 42 a7 79 99 41 2b 21 fc 41
       32.43348 40.44091 19.1844 31.516195
000110 ad 88 a2 41 6b cb f4 41 a6 a0 c1 41 cd 95 23 42
       20.316736 30.599325 24.203442 40.89629
000120 93 4a f6 41 db 13 00 42 aa 1c fa 41 72 6b 5c 41
       30.786413 32.01939 31.263996 13.776232
000130 c2 c0 75 41 eb 6e 24 42 04 3f ca 41 d4 d5 ed 41
       15.35956 41.10832 25.28077 29.729408
000140 cd 7f fe 41 79 9c 07 42 32 41 3b 41 a4 9b 03 42
       31.812403 33.902805 11.703417 32.901993
000150 e0 e9 0d 42 11 79 dd 41 78 b4 1a 42 d6 e5 ce 41
       35.478394 27.684114 38.67624 25.862225
000160 48 02 08 42 51 32 ed 41 46 56 03 42 97 b1 7e 41
       34.002228 29.649569 32.83425 15.918357
000170 c9 91 d2 41 e5 6c 1e 42 cf 3d 4b 41 51 2f 94 41
       26.321184 39.606342 12.70259 18.523104
000180 a8 b6 09 42 9c bc 28 42 7b a3 c1 41 30 45 fd 41
       34.428375 42.18419 24.204824 31.658783
000190 21 5f 01 42 c8 d5 9d 41 1b ef 5d 41 a9 1b 6a 41
       32.3429 19.729385 13.870875 14.631753
0001a0 62 22 5a 41 64 24 1a 42 67 31 0d 42 52 70 4b 41
       13.633394 38.535538 35.298244 12.714922
0001b0 9f 71 d4 41 6d b8 21 42 fb 67 13 42 ca 21 a7 41
       26.55548 40.430103 36.851543 20.891499
0001c0 30 0f 25 42 32 7c f5 41 18 36 c1 41 15 e0 b1 41
       41.26483 30.685642 24.151413 22.234415
0001d0 52 ea f7 41 bc 9d f9 41 03 d7 fc 41 1f 89 25 42
       30.989414 31.202019 31.604986 41.383907
0001e0 dd de dc 41 89 fc 06 42 61 46 83 41 e2 4a 09 42
       27.60882 33.746616 16.409365 34.323128
0001f0 9a 22 1d 42 58 ff cc 41 a0 05 ba 41 63 32 11 42
       39.28379 25.62468 23.252747 36.299206
000200 c5 de 6e 41 96 0f 2a 41 7d 33 ef 40 9e 1f 81 41
       14.929387 10.628805 7.475035 16.140438
000210 b0 d4 2a 41 4d f8 15 42 bc e0 ff 41 6e 2d f6 41
       10.676926 37.49248 31.984734 30.772182
000220 a1 ca 18 42 7e a0 db 41 a8 49 9b 41 7e f5 02 42
       38.19788 27.453365 19.410965 32.73974
000230 b5 9e 17 42 e6 b9 16 42 86 a5 15 42 f9 34 01 42
       37.904987 37.68154 37.411644 32.30173
000240 d1 22 9d 41 80 5e 0d 42 29 b7 4c 41 a8 99 d1 41
       19.642 35.342285 12.794717 26.200027
000250 7c a7 f1 41 06 73 f1 41 3c 1d 57 41 07 b3 a5 41
       30.20678 30.181164 13.444637 20.712416
000260 38 19 95 41 a5 36 14 42 c2 6c 51 41 b6 5b ad 41
       18.637314 37.053364 13.089052 21.66978
000270 50 f1 fd 41 19 d0 02 42 7a 9a 24 42 35 12 ef 41
       31.742828 32.70322 41.150856 29.88389
000280 69 32 f9 41 83 39 e3 41 e4 22 10 42 a1 17 1b 42
       31.149614 28.403082 36.034073 38.773075
000290 45 ec ef 41 9d 2a 0a 42 76 fc 8c 41 3d b0 12 42
       29.990366 34.541615 17.623272 36.672108
0002a0 71 ba cf 41 2d d9 08 42 39 12 0d 42 5b ee 80 41
       25.966036 34.212086 35.267796 16.116385
0002b0 26 27 bf 41 68 5f f0 41 6a ab 18 42 f4 57 7b 41
       23.894115 30.046585 38.167397 15.708973
0002c0 47 13 dc 41 ff e1 00 42 19 2c 1e 42 27 07 a7 41
       27.509413 32.2207 39.543064 20.878492
0002d0 67 22 13 42 3b 18 22 42 32 7d ed 41 d8 80 b0 41
       36.783596 40.523663 29.68613 22.062912
0002e0 a8 8a ef 41 20 fa 02 42 f0 2c 24 42 75 e1 bd 41
       29.942703 32.744263 41.043884 23.735086
0002f0 bb ca f6 41 c8 9f e8 41 d2 90 e6 41 2a 75 1b 42
       30.84899 29.078018 28.820713 38.864418
000300 e9 e5 a4 41 78 6a 25 42 02 2e 8f 41 38 cb 03 42
       20.61226 41.353973 17.897465 32.948456
000310 3e ef 86 41 aa ce 1e 42 ef ae f7 41 9e c8 ed 41
       16.866817 39.70182 30.960417 29.722958
000320 1e 71 06 42 03 82 d4 41 39 17 10 42 28 5b 80 41
       33.610466 26.563482 36.02268 16.04451
000330 b2 39 fa 41 a8 52 0e 42 9e dc 03 42 a1 55 55 41
       31.278172 35.58072 32.965446 13.3334055
000340 44 cf c6 41 86 a6 91 41 9f fb eb 41 c8 4f 17 42
       24.851204 18.20631 29.497862 37.82791
000350 87 1e ca 41 da d2 05 42 97 21 df 41 ae 92 19 42
       25.264906 33.45591 27.891401 38.39324
000360 8e 1b 90 41 09 4d 17 42 ce 56 20 42 91 94 c5 41
       18.013454 37.82523 40.08477 24.697542
000370 d2 c7 07 42 ec d7 04 42 67 1c 0a 42 36 59 75 41
       33.945137 33.21086 34.527737 15.33428
000380 75 8f 0b 42 39 d6 1d 42 68 c3 85 41 38 08 e4 41
       34.890095 39.4592 16.720413 28.504013
000390 44 ee a4 41 8a 7b 9c 41 ee 8b b2 41 75 8e 13 42
       20.61634 19.560322 22.318325 36.88912
0003a0 ee bd f7 41 e1 a2 f8 41 81 eb d8 41 e8 9f 0e 42
       30.96774 31.07953 27.114992 35.65616
0003b0 9d ef 15 42 58 ca 04 42 1b 8d b7 41 8a e5 e7 41
       37.483997 33.1976 22.9439 28.98708
0003c0 58 77 01 42 c6 a2 17 42 c7 73 99 41 bb 51 11 42
       32.366547 37.90896 19.181532 36.329815
0003d0 dd b8 1b 42 fb 4a b1 41 18 7a c6 41 37 9e ec 41
       38.93053 22.161612 24.809616 29.577253
0003e0 d2 d7 60 41 ae 96 19 42 b3 66 15 42 1f 70 db 41
       14.0526905 38.39715 37.350292 27.429747
0003f0 67 6a 12 42 15 55 b3 41 85 93 8d 41 d5 62 b7 41
       36.60391 22.416544 17.697031 22.923258

item_factors f4 [2500, 4]
000000 12 3b 98 3c df d9 5f 3c e3 d7 56 bc 79 9a d7 ba
       0.018582854 0.013662784 -0.013112995 -0.0016449235
000010 89 95 cf 3b 03 eb c4 3c 0b 5b b1 bc 18 db a8 3b
       0.0063349647 0.024037844 -0.021649858 0.005153071
000020 54 f0 81 3b ed dd a3 3c 2e 5a cc b8 df 87 37 3a
       0.003965417 0.020003283 -9.744275e-05 0.00070011424
000030 f1 9f a8 3b ad 7c 9d 3c 01 54 1f bb 9a e2 67 bb
       0.0051460196 0.01922449 -0.0024311545 -0.0035382868
000040 a9 6b 82 3c 27 67 89 3c 07 c9 85 bc 4e 88 f3 3a
       0.015920477 0.01677282 -0.016331209 0.0018580051
000050 c3 63 4b 3c a3 db 8c 3c af a3 81 bc ab e3 ff 38
       0.012413922 0.017194575 -0.01582512 0.00012201754
000060 d6 55 81 3a ac 8e c2 3c bf b9 8a bc d1 da d6 3b
       0.00098675 0.023749672 -0.016934274 0.0065568467
000070 12 dd d2 3b 00 f3 cc 3c 17 d9 a7 bc 7c 5d a4 3b
       0.006435045 0.025018215 -0.020489259 0.005016027
000080 52 93 a2 3c 88 f6 66 3c c7 e8 88 bc 67 e8 04 3a
       0.019845638 0.014096864 -0.01671256 0.0005070031
000090 be e4 bb 3c 9b 1f 2b 3c a8 c5 93 bc 8a 72 3a 3b
       0.022936221 0.010444547 -0.018038586 0.0028449618
0000a0 39 25 41 3b 10 d1 c5 3c ff ed 70 bc 5b a7 a9 3b
       0.002947165 0.02414754 -0.01470518 0.005177421
0000b0 da cf 80 3c ab b4 0e 3c cf 4b 8a bc f3 fe 23 3c
       0.015724111 0.008710067 -0.016881851 0.010009515
0000c0 d7 f3 b9 3c dd ef 1a 3c ae e4 39 bc c9 c3 52 b9
       0.02269928 0.009456602 -0.011346025 -0.00020100096
0000d0 f2 8a e0 3c 58 a4 9a 3b 0c 94 4d bc fd ef ae ba
       0.027410004 0.0047192983 -0.012547504 -0.0013346669
0000e0 9e db 9d 3c b3 96 68 3c 7f 2f a4 bc 9e 12 91 3b
       0.01926976 0.014196086 -0.02004218 0.004427268
0000f0 f7 76 b7 3c 9f 48 dd 3b 51 b9 03 bc 3a a3 47 ba
       0.022395594 0.006753042 -0.008039788 -0.000761557
000100 bb 12 4a 3b ea 91 3e 3b 66 5a a2 3b d9 7e 55 3c
       0.0030833918 0.002907867 0.004954624 0.013030731
000110 fd fa 0f bc 41 6a 93 3c 3c 2f 68 bb 3c db 6f 3c
       -0.008787868 0.017995002 -0.0035428545 0.014639672
000120 21 85 d3 3c ef ef 22 3b 9d b1 ec bb 48 c8 48 3b
       0.025820317 0.002486225 -0.0072233216 0.0030636955
000130 0a 74 bd 3c a1 3c a8 bb 3e e6 13 bc 53 94 65 3c
       0.02312662 -0.0051341807 -0.009027062 0.014012414
000140 1c 68 9d 3c 1a 7e 70 bc 51 ab 01 3a e0 28 a5 3c
       0.019214682 -0.014678502 0.00049464876 0.020161092
000150 f7 69 8c 3c 58 ed e8 bb 3b d3 e1 ba af 03 63 3c
       0.017140372 -0.0071083717 -0.0017229089 0.013855859
000160 ed 50 9f 3c b2 8a 69 3b 0a 9c 80 3c 90 7f 67 bc
       0.019447768 0.0035635647 0.015699405 -0.014129534
000170 7a 74 03 3c a5 8c 09 3b 6a 79 ac 3b 6f 1d 61 3c
       0.008023376 0.0020988372 0.005263497 0.013739928
000180 12 f8 d8 3c 9e 5c 14 bc 64 b1 da bb a8 0c 41 3c
       0.026485477 -0.009055285 -0.0066739786 0.011782803
000190 a1 47 e4 3c c8 9c 4b bc a0 22 c6 3b c4 95 af 3b
       0.027866187 -0.012427516 0.006046608 0.0053584296
0001a0 bf b4 c8 3c 2a 09 05 bc 0e 8c 8c bb d3 7d 5f 3c
       0.024500249 -0.008119861 -0.0042891568 0.013640839
0001b0 83 15 da 3c 12 0a 01 bc ae 3d 3e bb f5 74 35 3a
       0.026621586 -0.007875936 -0.0029028463 0.000692203
0001c0 fc 3c fa 3c fb 75 08 bc c4 dd cd bb 6a 11 99 3b
       0.030546658 -0.00832891 -0.00628254 0.0046712654
0001d0 70 7b d9 3c 31 08 54 bb 87 cf ed bb 8b a2 be 3a
       0.026548117 -0.0032353515 -0.007257405 0.0014544291
0001e0 c4 e8 b9 3c 19 b3 0f 3c 20 28 32 bc 58 c6 28 3b
       0.022694 0.008770728 -0.010873824 0.0025752988
0001f0 27 66 a3 3c 02 61 dd bb d3 b7 5b ba 42 7f 5e 3c
       0.019946171 -0.006755949 -0.0008381579 0.013580145
000200 f9 54 a4 3b c5 30 18 3b 7c 9d 5d 3c fa 2d 15 3c
       0.0050150123 0.0023222428 0.013526317 0.0091052
000210 43 8d 98 3c a4 8a 0e bc 1f ab 0f ba 1a a4 78 3c
       0.018622046 -0.008700047 -0.0005480516 0.015175844
000220 f9 c7 b0 3c 87 ec 83 3a f6 d8 4e 3c 4d da fc bb
       0.02157973 0.0010064997 0.01262497 -0.007716453
000230 99 c9 f7 3c fe d3 1b ba 6a d3 08 bc 42 95 35 bb
       0.030247496 -0.000594437 -0.008351186 -0.0027707373
000240 82 9a c0 3c de ed e5 bb b5 31 de 3b 31 57 02 3b
       0.023511175 -0.0070168814 0.006780828 0.0019888396
000250 34 7f a4 3c 51 75 f6 ba 7d ae dd 39 a1 fb 11 3c
       0.020080186 -0.0018803274 0.0004228241 0.008910091
000260 fa 18 8b 3c 7f a4 a5 3b a4 b9 fa 3b 4e fd 91 bb
       0.016979683 0.00505501 0.0076515246 -0.004455245
000270 fb 75 aa 3c c4 f7 86 3b 00 ec c0 bb 16 bc 07 3c
       0.02080821 0.0041188914 -0.0058875084 0.008284589
000280 20 45 e7 3c 50 11 eb bb a4 86 d4 bb 0e 92 a4 3b
       0.028231204 -0.0071736947 -0.006485777 0.005022294
000290 82 9a fc 3c 06 3a d4 3b 69 51 5a bc 70 f1 87 bb
       0.030835394 0.0064766435 -0.013325074 -0.0041486546
0002a0 6f f4 f7 3c 58 6f 32 bc 29 f1 1d ba c0 77 ff 3a
       0.030267922 -0.010890804 -0.00060250104 0.0019490644
0002b0 57 82 dd 3c 97 63 09 3c 3c c5 3d bc 09 79 a5 ba
       0.02703969 0.0083855605 -0.011582669 -0.0012624572
0002c0 e8 29 98 3c 17 ad 68 bc 15 a7 4c 3c 4b 32 b8 3b
       0.01857467 -0.014201424 0.012491007 0.0056212298
0002d0 6a bb 70 3c 6a 6f 12 bc d2 58 1e ba 36 05 ac 3c
       0.0146931205 -0.008937696 -0.0006040457 0.020998579
0002e0 4d be 04 3d a2 7d c6 3a 9f d6 34 bc 1f e6 a5 bb
       0.032408047 0.0015143643 -0.011037498 -0.005062833
0002f0 45 d0 9a 3c be b9 9f bc 3e 35 c5 3b de 5f 98 3c
       0.018898139 -0.019497748 0.00601831 0.0186004
000300 66 d1 f1 3c 46 61 50 3a ca 84 21 bc b1 f0 2e ba
       0.029518794 0.0007949065 -0.00985832 -0.0006673439
000310 f8 5c d0 3c ee 9f d9 3b e7 85 7a bb 08 e2 b8 bb
       0.025434956 0.0066413796 -0.0038226785 -0.0056421794
000320 e1 d8 f8 3b da 71 6c ba 8d 61 7e 3b 31 16 8f 3c
       0.0075942134 -0.0009019651 0.003881547 0.017466636
000330 61 29 2d 3c ba bf a5 3b 43 02 77 3c c1 3f e4 ba
       0.0105689475 0.005058256 0.015076223 -0.001741402
000340 07 c4 d9 3c 05 6d 89 bb 73 18 82 3a 7f ee 6d bb
       0.026582731 -0.0041939043 0.0009925499 -0.0036305485
000350 9a d4 f5 3c 39 81 65 3b 0c cd 29 bc 98 f4 d9 bb
       0.030008603 0.003501965 -0.010363828 -0.0066514723
000360 b7 80 e3 3c ba 3b d7 ba 30 25 2f bc 2d 97 b3 3b
       0.027771337 -0.0016420998 -0.010690019 0.005480668
000370 ab 65 da 3c ef 57 0f bb 00 99 f6 bb 1c 9b 99 3b
       0.026659807 -0.002187248 -0.0075255632 0.00468768
000380 fb 57 d7 3c 32 e2 0f 3b 62 88 63 bc c8 4d fd 3b
       0.02628707 0.0021954891 -0.013887497 0.0077302195
000390 76 ea 84 3c 32 12 89 ba 69 80 a6 3c 9a 49 3f bc
       0.016225081 -0.0010457693 0.020324903 -0.011675263
0003a0 8b f5 f4 3c 73 eb ae bb 00 32 9b bb ce ed 92 3a
       0.02990224 -0.0053381263 -0.004736185 0.0011209787
0003b0 ed 09 cf 3c ea 5b b1 3b 21 c4 61 bc a4 83 95 3b
       0.025273288 0.0054125683 -0.013779671 0.004562812
0003c0 02 34 06 3d 3f 0a 30 bb 49 3a 02 bc 78 20 2c bb
       0.032764442 -0.0026861576 -0.007948467 -0.002626447
0003d0 a9 e9 5e 3b f4 0a 4a b9 53 12 a9 bb 3c 03 92 3c
       0.0034013784 -0.00019268302 -0.005159655 0.017823808
0003e0 d8 bc fe 3b 70 0f 56 bc 32 dd 45 3c f5 db 69 3c
       0.007773977 -0.013065204 0.012076663 0.014273633
0003f0 84 e0 b8 3b 0e e3 81 bc 1e 33 dc 3b 2d 50 d2 3c
       0.0056419987 -0.015855338 0.006719961 0.025672996

regularization f8 []
000000 fc a9 f1 d2 4d 62 50 3f
       0.001
