lastfm/models/model_factors_32.npz (npz, 565307 bytes, 3 tensors)

user_factors f4 [1892, 32]
1.5150526 2.7270052 8.006741 2.4228318 1.6848596 3.2140818 0.20084018 3.981592
3.2332513 4.7212186 -0.5992818 0.6261314 4.1674685 5.720487 0.8051369 3.4902387
0.05782031 4.546268 4.680115 4.187394 1.8081611 -0.7198745 1.1540933 1.6604295
2.194878 -3.7244394 4.169538 2.0978425 3.9294174 -1.1582053 1.8038822 -3.5650723
4.1289005 0.83550346 1.1904258 -0.4469006 0.58597404 1.7975396 0.40496442 0.54331267
-0.24831794 1.9651891 1.0920945 0.953241 -1.5918744 1.6519203 3.1692812 -1.2242223
0.38123804 1.9609652 1.1447965 1.6955501 -1.0581589 1.8257265 1.0978333 -1.3502972
0.5933603 -1.7850443 -0.7134555 1.3439187 0.8858564 1.3829329 0.7495703 -1.6645292
1.2065365 3.4566653 0.9709632 5.43256 3.7135139 1.0604713 1.905013 7.72157
8.291275 6.5676217 3.7665207 -0.45573887 0.054773163 3.8547153 1.7470808 2.6713152
2.934419 3.41226 -0.65366614 2.4923253 2.847547 3.3757896 2.2442548 -1.062247
1.1586943 0.017367631 1.094347 4.6616917 2.6884391 1.3489207 0.06535634 -2.4926498
-0.68962896 4.2846093 1.2755743 -0.117394306 5.966555 2.4026492 2.1810184 -0.22949669
0.052755572 2.9583647 3.6169195 1.6523253 0.24186182 3.5775187 7.667594 3.0491033
2.5495138 8.872253 4.679604 0.8350839 5.502309 5.196476 -1.0057925 1.9862144
2.6640112 2.0060725 5.0957794 -2.2965074 1.0642968 0.17663226 0.27712452 2.521407
3.118523 1.003076 1.9084888 -3.862589 2.7606914 6.3463874 1.1728315 -1.343014
4.9922323 1.9734592 1.8258191 6.387468 -1.3591698 1.1069663 -0.04229592 1.3627311
1.7528318 -0.06320169 -1.0782092 3.6562948 1.8604585 -0.7402534 1.5328583 3.297534
3.6580844 0.9673489 3.8124313 5.7319126 -1.0317615 -1.5919324 2.3552315 -1.1183206
2.3666267 1.7590212 4.341141 3.2062483 5.0936565 0.17653276 6.4980035 7.13617
3.701358 1.4600897 0.7126931 5.1770005 3.4846992 -0.33876547 -0.10203073 1.864211
3.648939 0.8205883 0.92433286 1.5114444 1.8663561 0.08556839 -1.3756332 5.7741685
4.4579487 -1.5091256 0.2792435 -1.2218872 -1.4145128 -0.5579611 6.031109 4.4662333
2.686716 -1.891532 3.1081786 -0.33154607 3.5224724 0.71710676 1.7515073 0.95509344
5.207587 0.7090349 2.778949 5.5596647 2.0679524 -0.028142236 -2.6547136 7.635793
5.072079 -1.439237 3.9157653 6.9945645 0.12486515 1.2014786 2.506087 3.56257
6.067061 1.2213334 0.65262526 4.6856966 -1.6368198 0.49992502 2.9016852 -1.6425419
2.2922535 3.3632324 0.18270719 -3.6756568 1.3247173 3.6278145 1.7594998 3.6613986
0.75250757 2.3898962 2.4560683 0.40623695 5.5461283 -0.28193676 -0.61610997 2.2479453
1.7595323 -1.7283435 6.8971753 2.1562989 1.9351113 5.7443337 0.89930046 -2.061304
2.7670648 3.8997905 2.640396 6.785198 -0.050440777 3.3131928 1.3337109 1.5637308
00000000: 3eed c13f 4187 2e40 9c1b 0041 ad0f 1b40
00000010: 7ba9 d73f 84b3 4d40 0ca9 4d3e 67d2 7e40
00000020: 97ed 4e40 3914 9740 886a 19bf 264a 203f
00000030: e75b 8540 3b0e b740 741d 4e3f 1260 5f40
00000040: fdd4 6c3d 077b 9140 81c3 9540 22ff 8540
00000050: d371 e73f b249 38bf 54b9 933f f488 d43f
00000060: e278 0c40 375d 6ec0 db6c 8540 0d43 0640
00000070: 937b 7b40 1240 94bf 9de5 e63f 252a 64c0
00000080: f41f 8440 8ee3 553f df5f 983f 28d0 e4be
00000090: 6502 163f c715 e63f 7f57 cf3e 8a16 0b3f
000000a0: 0f47 7ebe 518b fb3f c1c9 8b3f 9a07 743f
000000b0: 8ac2 cbbf 2072 d33f 81d5 4a40 51b3 9cbf
000000c0: a231 c33e e800 fb3f b188 923f c907 d93f
000000d0: c071 87bf 68b1 e93f cd85 8c3f 8ad6 acbf
000000e0: 76e6 173f 557c e4bf 05a5 36bf 8705 ac3f
000000f0: 7cc7 623f f203 b13f d7e3 3f3f 4b0f d5bf
00000100: ca6f 9a3f 013a 5d40 0b91 783f 88d7 ad40
00000110: 36aa 6d40 86bd 873f 77d7 f33f 1a17 f740
00000120: 10a9 0441 f529 d240 ad0e 7140 9b56 e9be
00000130: d359 603d a8b3 7640 58a0 df3f d4f6 2a40
00000140: 85cd 3b40 7862 5a40 aa56 27bf 4282 1f40
00000150: 363e 3640 f00c 5840 dfa1 0f40 b6f7 87bf
00000160: 1850 943f 9046 8e3c 9013 8c3f 942c 9540
00000170: 630f 2c40 6fa9 ac3f 8bd9 853d 9387 1fc0
00000180: 868b 30bf 851b 8940 0546 a33f 6d6c f0bd
00000190: 05ee be40 01c5 1940 ce95 0b40 2e01 6bbe
000001a0: 3a16 583d d955 3d40 9c7b 6740 657f d33f
000001b0: a0aa 773e 11f6 6440 ee5c f540 8224 4340
000001c0: 3c2b 2340 c0f4 0d41 51bf 9540 0fc8 553f
000001d0: ea12 b040 8849 a640 cfbd 80bf 463c fe3f
000001e0: 297f 2a40 7e63 0040 a010 a340 faf9 12c0
000001f0: e13a 883f 16df 343e 44e3 8d3e bb5e 2140
00000200: e195 4740 cb64 803f 5c49 f43f a834 77c0
00000210: 2baf 3040 9b15 cb40 581f 963f e2e7 abbf
00000220: 5ec0 9f40 509a fc3f 71b4 e93f 2366 cc40
00000230: 47f9 adbf 12b1 8d3f 7d3e 2dbd f96d ae3f
00000240: cb5c e03f e36f 81bd c202 8abf bc00 6a40
00000250: 8123 ee3f 3f81 3dbf b334 c43f cc0a 5340
00000260: 0e1e 6a40 2da4 773f e0fe 7340 d46b b740
00000270: c310 84bf 71c4 cbbf 1dbc 1640 2125 8fbf
00000280: d076 1740 9b27 e13f a1ea 8a40 2c33 4d40
00000290: 3cff a240 01c5 343e a5ef cf40 815b e440
000002a0: 0de3 6c40 38e4 ba3f 0e73 363f fda9 a540
000002b0: 5005 5f40 ab72 adbe 7df5 d0bd 779e ee3f
000002c0: 3788 6940 1312 523f 14a1 6c3f 0377 c13f
000002d0: c2e4 ee3f 7b3e af3d c014 b0bf fdc5 b840
000002e0: 84a7 8e40 072b c1bf 01f9 8e3e cd66 9cbf
000002f0: c10e b5bf 8ad6 0ebf d8fe c040 62eb 8e40
00000300: 28f3 2b40 b81d f2bf 66ec 4640 68c0 a9be
00000310: 3070 6140 4f94 373f 6431 e03f 0181 743f
00000320: 8da4 a640 5083 353f 4dda 3140 c6e8 b140
00000330: 5559 0440 8c8a e6bc d4e6 29c0 6b58 f440
00000340: 794e a240 eb38 b8bf e69b 7a40 79d3 df40
00000350: 4db9 ff3d 0dca 993f bb63 2040 2601 6440
00000360: 5d25 c240 a754 9c3f 7312 273f 3af1 9540
00000370: 5083 d1bf 2cf6 ff3e 36b5 3940 d03e d2bf
00000380: 48b4 1240 333f 5740 9817 3b3e f63d 6bc0
00000390: 5690 a93f 1d2e 6840 4a37 e13f 5b54 6a40
000003a0: 56a4 403f 0ff4 1840 3930 1d40 4afe cf3e
000003b0: e279 b140 045a 90be 62b9 1dbf 56de 0f40
000003c0: 5b38 e13f 5c3a ddbf a9b5 dc40 cd00 0a40
000003d0: bab1 f73f 95d1 b740 8e38 663f 68ec 03c0
000003e0: 9717 3140 2b96 7940 40fc 2840 5820 d940
000003f0: fd9a 4ebd 5a0b 5440 0ab7 aa3f 5528 c83f

item_factors f4 [2500, 32]
-0.0005698457 0.02250567 0.006713572 0.019294359 0.019386819 -0.01215645 -0.008281844 -0.007832337
-0.0052951546 -0.0013403241 -0.028077617 0.0008721736 -0.02514431 0.0042461515 -0.034721423 0.010689607
0.049134854 0.0064850817 -0.008729143 0.010737355 0.009638992 0.029962141 0.044239063 0.006275399
-0.01166525 -0.0076402924 0.0083518345 0.012672468 0.016255988 0.016700258 -0.021471638 0.0056343894
0.00678024 0.00263117 0.028486688 0.0038994455 0.01576636 -0.0077564362 0.0029354354 0.0029127474
-0.0035534601 -0.014043351 0.021638395 -0.005069291 0.030647311 0.027716259 0.02088127 -0.0011893744
0.027364256 -0.022871505 -0.026109831 0.0004962199 0.01110732 -0.014830289 -0.0006178656 -0.02089756
-0.0047484995 0.025880909 -0.005614813 0.007293158 0.017772703 -0.0115803275 -0.0082516465 0.029077176
-0.0028810664 0.032032475 -0.00010445463 -0.014383118 0.021958308 -0.004449645 0.006028364 -0.007896802
0.0048534917 0.017152673 -0.025262253 0.0036196646 -0.0086180195 0.057127345 0.012578562 0.016521564
0.0127906 0.008709094 0.0026818754 0.009586514 0.00480656 0.005991781 -0.013385769 0.040928587
-0.0041675726 0.017264493 -0.0060523944 0.0084692985 -0.015729133 -0.012937713 -0.007834837 0.0619969
-0.041516155 0.04307152 0.0075280666 -0.024305044 0.0039438847 0.030885337 -0.010632041 0.009654531
-0.00092757016 -0.0017688944 -0.005085838 -0.003295557 -0.003595311 0.0013809721 0.0050526164 0.008518951
0.007381089 -0.010332948 0.023190549 0.038339015 0.0006781116 -0.00978141 0.0065811286 -0.005427435
0.007957237 0.009236599 -0.028611481 0.027718225 0.006078184 0.011470532 -0.011259661 0.04973944
0.0057271323 0.03155267 0.01212322 0.0027427978 0.04216356 -0.005364245 -0.012143078 -0.009369692
-0.013455111 -0.0139538115 -0.013258721 0.0031414723 0.008856527 0.018744916 -0.028960938 -0.025695624
0.035112392 0.035983436 -0.00042580502 0.017649105 0.016254913 0.011132807 0.034985986 -0.0009458154
-0.030614669 -0.0005250295 0.0020353927 0.0060897083 -0.00049982214 0.025457308 -0.010306325 0.0064581786
0.009194637 0.01885609 0.009746496 0.012543248 0.021710398 -0.0037377875 -0.005471371 -0.0035979575
-0.01988717 0.006181758 -0.005283544 0.000623899 -0.007929851 0.009214783 -0.029847687 -0.00850527
0.032361366 0.0055802893 -0.011843663 0.008954039 0.015648957 0.008624824 0.02739916 -0.005285137
-0.021179773 -0.006401965 -0.00065488607 0.015938736 -0.00013069391 0.022243578 -0.00201981 0.003816304
-0.0042822505 0.015263526 0.009968594 0.03131285 0.02747418 -0.0029831063 0.016518617 0.010619775
-0.0022011774 -0.010374802 -0.0007456853 -0.0009322109 0.032665756 -0.0015238416 0.017593473 0.0016696788
0.0028844546 -0.027438384 -0.0106273005 -0.004217158 0.009197001 -0.020552741 -0.0016931329 -0.021696175
0.015930781 0.024760569 -0.0066107754 0.023814932 0.040555116 0.039191097 -0.010889321 -0.005268315
-0.010053692 0.02087977 -0.0059539825 0.03785096 0.008291574 0.006801477 0.01923531 0.013505072
0.011945698 -0.004755765 -0.0111668 0.033882953 0.032679427 0.025858296 0.020547325 -0.007846702
0.023530344 0.0048638065 -0.0133777 -0.03770683 0.0022189624 -0.018347565 -0.0074477713 -0.009560648
-0.0053446074 0.022494832 -0.0024415476 0.035160385 0.026357293 0.008134039 -0.0067386907 0.008422927
00000000: b361 15ba d05d b83c 86fd db3b 340f 9e3c
00000010: 1bd1 9e3c d92b 47bc 92b0 07bc 3453 00bc
00000020: fa82 adbb d0ad afba 0803 e6bc 94a2 643a
00000030: 71fb cdbc 4d23 8b3b 0d38 0ebd 7623 2f3c
00000040: a141 493d cf80 d43b ae04 0fbc bbeb 2f3c
00000050: ddec 1d3c 2a73 f53c 0534 353d dda1 cd3b
00000060: 9b1f 3fbc 6b5b fabb 22d6 083c 2fa0 4f3c
00000070: 472b 853c fbce 883c 4ae5 afbc afa0 b83b
00000080: c72c de3b b56f 2c3b ea5c e93c d78d 7f3b
00000090: 7428 813c b429 febb 6f60 403b cbe3 3e3b
000000a0: 2be1 68bb 1516 66bc 0143 b13c 4c1c a6bb
000000b0: 1210 fb3c 350d e33c 320f ab3c c8e4 9bba
000000c0: 012b e03c 065d bbbc 49e4 d5bc c114 023a
000000d0: 7afb 353c befa 72bc 42f8 21ba 5c31 abbc
000000e0: 4d99 9bbb 3304 d43c 77fc b7bb 72fb ee3b
000000f0: 0f98 913c 6abb 3dbc ea31 07bc 4233 ee3c
00000100: 46d0 3cbb 7c34 033d a70e dbb8 2ba7 6bbc
00000110: e9e1 b33c 54ce 91bb 9589 c53b 9761 01bc
00000120: 0a0a 9f3b c383 8c3c c9f2 cebc e537 6d3b
00000130: 9832 0dbc 5dfe 693d 5016 4e3c 3b58 873c
00000140: aa8f 513c 96b0 0e3c 67c2 2f3b c110 1d3c
00000150: 5980 9d3b b456 c43b fc4f 5bbc bca4 273d
00000160: 2290 88bb 446e 8d3c 2a53 c6bb d0c2 0a3c
00000170: 62da 80bc b4f8 53bc b05d 00bc 76f0 7d3d
00000180: d80c 2abd c36b 303d 00ae f63b 5f1b c7bc
00000190: b43b 813b 3f03 fd3c 0332 2ebc 0a2e 1e3c
000001a0: 2e28 73ba 3fda e7ba 1aa7 a6bb 46fa 57bb
000001b0: 4f9f 6bbb bc01 b53a 6b90 a53b 1293 0b3c
000001c0: 10dd f13b 864b 29bc 1bfa bd3c 5f09 1d3d
000001d0: 4dc3 313a 3542 20bc 82a6 d73b a0d8 b1bb
000001e0: 125f 023c 1b55 173c a062 eabc 5511 e33c
000001f0: 812b c73b e6ee 3b3c 717a 38bc 95bb 4b3d
00000200: abaa bb3b 5f3d 013d 78a0 463c 83c0 333b
00000210: b2b3 2c3d 8cc6 afbb c3f3 46bc 5683 19bc
00000220: d372 5cbc 879e 64bc 1b3b 59bc 29e1 4d3b
00000230: f71a 113c f08e 993c 7d3f edbc a17f d2bc
00000240: 03d2 0f3d 5e63 133d 953e dfb9 db94 903c
00000250: 0629 853c 6066 363c 774d 0f3d 99f0 77ba
00000260: 9dcb fabc 22a2 09ba 3964 053b 2d8c c73b
00000270: 7f06 03ba d88b d03c dcdb 28bc 219f d33b
00000280: 1aa5 163c 1678 9a3c c4af 1f3c 3282 4d3c
00000290: 01da b13c abf5 74bb 3049 b3bb b6cb 6bbb
000002a0: 6bea a2bc 5890 ca3b 9421 adbb 278d 233a
000002b0: 35ec 01bc 9af9 163c 2383 f4bc b059 0bbc
000002c0: 5a8d 043d dcda b63b ec0b 42bc f6b3 123c
000002d0: 3e32 803c 224f 0d3c 3474 e03c f12e adbb
000002e0: 3481 adbc 93c7 d1bb a9ac 2bba f491 823c
000002f0: e10a 09b9 2a38 b63c ca5e 04bb f51a 7a3b
00000300: 1f52 8cbb de13 7a3c 5053 233c e741 003d
00000310: 8811 e13c 3880 43bb 0d52 873c 91fe 2d3c
00000320: a141 10bb 13fb 29bc 187a 43ba 9d5f 74ba
00000330: 87cc 053d a4bb c7ba 3020 903c 20d9 da3a
00000340: 1e09 3d3b 76c6 e0bc 211e 2ebc 1630 8abb
00000350: 05af 163c 395e a8bc 1dec ddba 2dbc b1bc
00000360: 4581 823c add6 ca3c 349f d8bb 8817 c33c
00000370: 1f1d 263d d886 203d 1f69 32bc d4a1 acbb
00000380: 3eb8 24bc 0d0c ab3c a019 c3bb 9c09 1b3d
00000390: 62d9 073c edde de3b 5e93 9d3c 6144 5d3c
000003a0: e4b7 433c 40d6 9bbb f4f4 36bc dac8 0a3d
000003b0: ddda 053d c7d4 d33c dd52 a83c 748f 00bc
000003c0: b5c2 c03c 9160 9f3b 242e 5bbc 7a72 1abd
000003d0: 036c 113b a24d 96bc 6f0c f4bb 44a4 1cbc
000003e0: d121 afbb 1547 b83c 5f02 20bb 5604 103d
000003f0: 40eb d73c a244 053c 3cd0 dcbb 5100 0a3c

regularization f8 []
0.01
00000000: 7b14 ae47 e17a 843f
