lastfm/models/model_factors_8.npz (npz, 143675 bytes, 3 tensors)

user_factors f4 [1892, 8]
1.0786828 9.538593 6.3125515 6.727228 4.5326695 -6.612351 10.754915 8.671779
-4.8477845 3.9860232 3.1590786 6.0322714 5.52967 0.5882647 8.972522 2.8707926
4.332544 5.823099 6.5934 10.5740795 9.439585 -3.2352302 6.514567 13.154622
0.9648011 5.2717743 7.86518 12.02459 8.463248 12.501308 8.119614 12.2571745
2.7821538 13.992139 2.2386014 1.5092151 9.261007 -0.64723295 7.4017787 7.738859
10.305854 11.654394 11.47948 2.1192799 6.116566 3.2881985 11.046723 5.5793877
8.697326 14.39151 7.0775156 8.412572 10.159948 0.78167176 9.203896 2.611675
10.799231 4.7189264 0.7195692 8.325818 11.136938 6.630427 10.479345 4.858484
-3.0234516 7.8247194 9.364164 8.49026 2.9233112 8.9027605 7.5717006 11.906272
12.7987585 11.447949 5.968911 0.73592037 8.928724 3.6853733 11.257901 4.8720274
10.540054 3.257855 9.113704 12.373892 12.968969 5.253467 8.302286 7.5307045
8.9316435 8.807126 15.592026 5.4692707 7.344137 7.866829 10.433209 3.4002264
4.9699087 10.619913 -0.73405844 8.812173 0.121359564 2.662474 8.007063 7.1198497
-1.7168732 11.053701 1.4945378 9.159486 2.1268916 1.3813307 10.890245 12.862285
11.951325 6.9548297 6.4992013 5.962907 6.3094897 1.9507458 13.753181 1.71252
6.710048 9.091766 15.862364 9.105023 10.132659 6.672729 9.805734 3.07817
6.885198 6.5270443 5.153307 8.984209 6.475686 3.6354365 3.618965 18.756968
1.4328073 1.4951397 0.9535084 10.223551 8.708366 4.992655 13.781099 4.3462667
11.177596 9.164684 10.917252 7.2086563 2.7749863 0.46886665 11.56416 0.79366374
9.747915 5.374524 -0.6210766 9.740669 9.775079 8.384156 8.914318 6.21493
5.028691 2.6480434 0.22759773 8.409068 0.00034249574 3.2669158 9.400803 17.75357
4.791653 14.937829 13.550279 6.654409 5.6301785 2.4922361 9.454915 7.4407525
9.96763 11.099081 9.465785 2.0265262 6.2938037 -1.3144948 11.011201 5.603278
10.867654 6.95981 -2.4248376 6.66674 7.179817 0.10632921 3.786068 11.076557
6.884425 4.1500683 8.351673 9.632786 8.319307 1.727827 7.1982284 16.649996
5.363363 5.687747 4.912161 6.5541606 -1.5270653 -3.4700527 6.8137746 7.468834
15.444247 7.5295343 11.091876 3.8314676 10.758283 9.378297 4.6141214 3.056845
13.349097 9.910163 13.155609 6.363324 7.594253 6.616479 7.4924755 7.1676426
7.1885457 4.0420713 10.054027 8.223923 2.708057 -3.2101772 12.135744 7.8597603
2.5320165 5.4509344 7.9930253 11.433459 4.086405 7.829734 13.430453 12.735096
1.5070589 6.571557 -1.7636844 8.258432 9.42225 0.42585805 8.587035 11.277942
-0.29950672 8.184769 6.0589514 11.711415 0.65020907 0.44740656 11.001743 13.965709
00000000: 4712 8a3f 149e 1841 6c00 ca40 7445 d740
00000010: a10b 9140 6198 d3c0 2214 2c41 9bbf 0a41
00000020: 0d21 9bc0 011b 7f40 582e 4a40 5e08 c140
00000030: 0ef3 b040 8498 163f 738f 0f41 11bb 3740
00000040: 33a4 8a40 d456 ba40 22fd d240 6e2f 2941
00000050: 8a08 1741 030e 4fc0 5577 d040 5579 5241
00000060: 34fd 763f 60b2 a840 8eaf fb40 b864 4041
00000070: 7769 0741 5c05 4841 f0e9 0141 631d 4441
00000080: cf0e 3240 cddf 5f41 3f45 0f40 f62d c13f
00000090: 162d 1441 0fb1 25bf 5fdb ec40 bca4 f740
000000a0: c7e4 2441 6678 3a41 f3ab 3741 48a2 0740
000000b0: e9ba c340 d871 5240 61bf 3041 588a b240
000000c0: 3f28 0b41 a043 6641 027b e240 e599 0641
000000d0: 268f 2241 a41b 483f 2843 1341 af25 2740
000000e0: a6c9 2c41 7201 9740 b035 383f 8d36 0541
000000f0: e630 3241 752c d440 66ab 2741 b378 9b40
00000100: 3b80 41c0 1a64 fa40 9ed3 1541 1bd8 0741
00000110: 8817 3b40 b571 0e41 5f4b f240 1780 3e41
00000120: b7c7 4c41 cd2a 3741 5201 bf40 4765 3c3f
00000130: 0edc 0e41 28dd 6b40 5d20 3441 a6e7 9b40
00000140: 10a4 2841 b280 5040 bbd1 1141 76fb 4541
00000150: e680 4f41 671c a840 2ad6 0441 88fb f040
00000160: 03e8 0e41 fde9 0c41 f078 7941 4404 af40
00000170: 2c03 eb40 10bd fb40 6dee 2641 4f9d 5940
00000180: 7e09 9f40 2aeb 2941 41eb 3bbf a9fe 0c41
00000190: 5d8b f83d f965 2a40 ee1c 0041 cfd5 e340
000001a0: 80c2 dbbf f6db 3041 044d bf3f 418d 1241
000001b0: fe1e 0840 72cf b03f 723e 2e41 ebcb 4d41
000001c0: a138 3f41 f78d de40 75f9 cf40 22d0 be40
000001d0: 57e7 c940 0ab2 f93f 080d 5c41 db33 db3f
000001e0: b7b8 d640 e077 1141 3ecc 7d41 2dae 1141
000001f0: 5f1f 2241 ff86 d540 49e4 1c41 bd00 4540
00000200: 8b53 dc40 8cdd d040 e4e7 a440 52bf 0f41
00000210: d238 cf40 feaa 6840 1f9d 6740 450e 9641
00000220: 3b66 b73f bd60 bf3f 2019 743f aa93 2341
00000230: 7855 0b41 d4c3 9f40 627f 5c41 9e14 8b40
00000240: 6fd7 3241 8ca2 1241 10ad 2e41 50ad e640
00000250: 6099 3140 4a0f f03e cd06 3941 8c2d 4b3f
00000260: 76f7 1b41 1afc ab40 e0fe 1ebf c8d9 1b41
00000270: b966 1c41 8125 0641 0ca1 0e41 b5e0 c640
00000280: 09eb a040 8b79 2940 610f 693e 8b8b 0641
00000290: 0091 b339 2615 5140 b069 1641 5007 8e41
000002a0: 3955 9940 5901 6f41 f1cd 5841 ebf0 d440
000002b0: 6c2a b440 cc80 1f40 5547 1741 a51a ee40
000002c0: 6a7b 1f41 d695 3141 db73 1741 9bb2 0140
000002d0: d766 c940 5e41 a8bf e12d 3041 0e4e b340
000002e0: e9e1 2d41 c3b6 de40 8a30 1bc0 ef55 d540
000002f0: 10c1 e540 21c3 d93d f04e 7240 9439 3141
00000300: 364d dc40 5ccd 8440 74a0 0541 e41f 1a41
00000310: e21b 0541 6f29 dd3f e357 e640 3133 8541
00000320: aba0 ab40 0602 b640 6c30 9d40 afbb d140
00000330: e076 c3bf 5815 5ec0 710a da40 b000 ef40
00000340: a31b 7741 f2f1 f040 5378 3141 c436 7540
00000350: ed21 2c41 810d 1641 e2a6 9340 59a3 4340
00000360: e795 5541 0790 1e41 607d 5241 5aa0 cb40
00000370: 1f04 f340 32ba d340 5cc2 ef40 545d e540
00000380: 9108 e640 a658 8140 4bdd 2041 3095 0341
00000390: ce50 2d40 8b73 4dc0 022c 4241 2883 fb40
000003a0: 8f0c 2240 0e6e ae40 ddc6 ff40 73ef 3641
000003b0: d4c3 8240 2e8d fa40 23e3 5641 f4c2 4b41
000003c0: 4ee7 c03f 324a d240 69c0 e1bf 8a22 0441
000003d0: 89c1 1641 110a da3e 7f64 0941 7372 3441
000003e0: f258 99be d0f4 0241 eee2 c140 f561 3b41
000003f0: 1a74 263f 7912 e53e 2407 3041 8b73 5f41

item_factors f4 [2500, 8]
0.033276964 -0.036441572 0.017084152 0.038219668 -0.016399201 -0.029205622 0.02721172 0.016843166
0.029469395 0.0033757396 -0.03598333 0.008911767 0.008660169 -0.012460627 0.01766048 0.03216553
0.03118871 -0.025435986 0.0164105 -0.0043383148 0.0055898647 0.006355272 0.036613915 0.028445339
0.029580534 -0.014158579 -0.011041571 0.017032776 0.012409767 -0.008950382 0.03726553 0.0069424612
0.03843218 -0.045792025 0.018697966 0.04301166 -0.018980732 -0.026249152 0.019876411 0.025350241
0.029389631 -0.036068708 0.0018951505 0.04270827 -0.0009926774 -0.031249652 0.02280219 0.012958551
0.024643792 0.008391159 -0.054314636 0.026582237 0.015620781 -0.011531783 0.03850296 0.0009955758
0.027714616 -0.0007121208 -0.036940414 0.011533198 0.019736594 -0.020318355 0.02465342 0.030050328
0.027737964 -0.009445346 0.0070068208 0.058314517 -0.015011432 -0.038509082 0.0015643263 0.019955384
0.029413728 -0.025404308 -0.005546213 0.044454966 -0.02103619 -0.035477404 0.04447482 0.010440632
0.029603498 -0.015012192 -0.032296486 0.014597815 0.019839266 -0.011858968 0.03524745 0.021808447
0.005997055 -0.04507701 -0.0023144716 0.023664527 0.012688858 -0.030863289 0.054987296 0.017838858
0.038208224 -0.0347395 0.022342134 0.020047186 -0.03623571 -0.016123742 0.038297214 0.025655469
0.026819736 -0.031467468 0.022594169 0.044318866 -0.029472098 -0.03606725 0.030199844 0.014670411
0.028949268 -0.039418742 -0.0015837487 0.040090207 -0.01561486 -0.031192906 0.043111116 0.019015599
0.025555883 -0.038379267 0.023117539 0.019449651 -0.019128423 -0.023945335 0.04804256 0.016652912
0.024287809 -0.00096782355 -0.0077524427 0.038204134 -0.035530373 0.019860689 0.053360537 -0.0121044945
0.02369145 -0.02949574 -0.001139714 0.037192453 0.0032332342 0.015492309 0.02654189 0.009353501
0.022658734 -0.010247171 0.025831912 0.023713471 -0.023493113 -0.031601626 0.020622749 0.037644833
-0.030175079 0.00094088825 0.0048615844 -0.006886301 0.035142984 -0.03367126 0.031293605 0.046467602
-0.041602865 0.006307811 0.016750203 0.013964018 0.016780278 -0.02053062 0.03378438 0.03189454
-0.027289482 -0.006312649 0.016057713 -0.0017172964 0.032903805 -0.027044553 0.024884246 0.041834116
0.023817612 0.011008877 0.032736104 0.010905976 0.002833926 -0.026700588 0.026603559 0.0026326827
-0.00027225196 0.0040635616 0.004690966 0.028116185 0.011166863 -0.0018053246 0.03921879 0.013387856
-0.037037592 0.030374663 0.00047749237 0.026862213 0.028804207 -0.040689386 0.010862445 0.026342027
-0.016534546 0.010304657 0.032136284 0.038787503 -0.0055668745 -0.0378199 0.029963832 0.011306283
-0.00083016814 0.008796361 0.016902117 0.016406853 -0.029717613 -0.0108942455 0.031727243 0.035275284
-0.013177862 0.0096353935 0.009862417 0.020589145 0.010768427 -0.048390567 0.020886306 0.017694755
-0.0018721992 0.016633308 -0.0016940304 0.03703739 -0.01441134 -0.04534803 0.030540459 0.017380418
-0.011192423 0.022412531 0.0029460418 0.021546582 0.014361195 -0.049879484 0.006267581 0.027739922
-0.007518197 -0.0042388127 -0.005832151 0.023755632 0.05149657 -0.05519034 0.025286516 0.026160156
-0.023699453 -0.024902439 0.02747453 0.021850362 0.025339112 -0.035804164 0.03942061 0.026436098
00000000: 6d4d 083d c243 15bd 10f4 8b3c 3a8c 1c3d
00000010: 9e57 86bc a140 efbc 1deb de3c aefa 893c
00000020: cd69 f13c 833b 5d3b 4263 13bd a902 123c
00000030: 62e3 0d3c a827 4cbc b6ac 903c 01c0 033d
00000040: 777f ff3c 215f d0bc 506f 863c 6c28 8ebb
00000050: 2f2b b73b e33f d03b 79f8 153d 3306 e93c
00000060: e052 f23c 62f9 67bc b5e7 34bc 5288 8b3c
00000070: 5652 4b3c 9fa4 12bc bea3 183d 967d e33b
00000080: 106b 1d3d 6b90 3bbd 7a2c 993c ff2c 303d
00000090: 7b7d 9bbc 7608 d7bc dbd3 a23c 4fab cf3c
000000a0: 86c2 f03c c8bc 13bd b366 f83a deee 2e3d
000000b0: ba1c 82ba 45ff ffbc a9cb ba3c 1a50 543c
000000c0: c7e1 c93c 127b 093c 0679 5ebd fec2 d93c
000000d0: 4eee 7f3c ceef 3cbc 48b5 1d3d fb7d 823a
000000e0: c309 e33c 9ead 3aba d54e 17bd bdf5 3c3c
000000f0: a3ae a13c ae72 a6bc f8f5 c93c 1b2c f63c
00000100: ba3a e33c a7c0 1abc 7999 e53b 34db 6e3d
00000110: 82f2 75bc b3bb 1dbd 150a cd3a 7979 a33c
00000120: 0ff5 f03c b21c d0bc 02bd b5bb 6916 363d
00000130: 1754 acbc c150 11bd 3b2b 363d 2f0f 2b3c
00000140: 0983 f23c b2f5 75bc 5249 04bd ad2b 6f3c
00000150: f585 a23c 1e4c 42bc a15f 103d a1a7 b23c
00000160: f282 c43b aca2 38bd 64ae 17bb 1cdc c13c
00000170: eee4 4f3c 02d5 fcbc 5c3a 613d cc22 923c
00000180: 3a80 1c3d 024b 0ebd da06 b73c ff39 a43c
00000190: e56b 14bd f015 84bc 8add 1c3d 6b2b d23c
000001a0: 10b5 db3c 08e4 00bd 6817 b93c b387 353d
000001b0: 786f f1bc 41bb 13bd aa65 f73c 2a5c 703c
000001c0: 0427 ed3c 8c75 21bd ca95 cfba a135 243d
000001d0: 78d5 7fbc 4488 ffbc 4895 303d 9ac6 9b3c
000001e0: 925a d13c 9433 1dbd fe60 bd3c e054 9f3c
000001f0: 36b3 9cbc 0229 c4bc 47c8 443d b06b 883c
00000200: 3af7 c63c 8ab5 7dba 3408 febb f07b 1c3d
00000210: 4c88 11bd e2b2 a23c 9490 5a3d ee51 46bc
00000220: 9214 c23c 0da1 f1bc 7562 95ba 1d57 183d
00000230: abe4 533b 74d3 7d3c 616e d93c 6d3f 193c
00000240: cf9e b93c c0e3 27bc 729d d33c c142 c23c
00000250: a174 c0bc b570 01bd 0af1 a83c 7831 1a3d
00000260: ba31 f7bc f1a5 763a ed4d 9f3b 7ba6 e1bb
00000270: 17f2 0f3d e0ea 09bd b92d 003d d054 3e3d
00000280: c467 2abd c1b1 ce3b b937 893c 56c9 643c
00000290: cb76 893c d52f a8bc 7d61 0a3d d9a3 023d
000002a0: 318e dfbc 57da cebb 778b 833c e816 e1ba
000002b0: 24c6 063d 8a8c ddbc 0cda cb3c 405a 2b3d
000002c0: 271d c33c 945e 343c 4b16 063d fbae 323c
000002d0: 63b9 393b 31bb dabc b5ef d93c 1689 2c3b
000002e0: 0abd 8eb9 a027 853b adb6 993b ea53 e63c
000002f0: 38f5 363c a4a0 ecba e2a3 203d bd58 5b3c
00000300: bbb4 17bd 49d4 f83c f157 fa39 250e dc3c
00000310: cdf6 eb3c eaa9 26bd 66f8 313c 3ccb d73c
00000320: 7573 87bc ddd4 283c 56a1 033d a5df 1e3d
00000330: 546a b6bb 0ae9 1abd b676 f53c fd3d 393c
00000340: a49f 59ba 9d1e 103c 4f76 8a3c aa67 863c
00000350: 5a72 f3bc c77d 32bc 6df4 013d d17c 103d
00000360: f6e7 57bc c5dd 1d3c fa95 213c 91aa a83c
00000370: 0e6e 303c 3035 46bd c219 ab3c 97f4 903c
00000380: 9564 f5ba 9342 883c 3a0a deba 85b4 173d
00000390: 8a1d 6cbc dbbe 39bd fc2f fa3c 6161 8e3c
000003a0: 6d60 37bc 7c9a b73c 6112 413b 7582 b03c
000003b0: 384b 6b3c 6e4e 4cbd 4860 cd3b d53e e33c
000003c0: 355b f6bb bde5 8abb a11b bfbb 2c9b c23c
000003d0: 11ee 523d 440f 62bd ab25 cf3c d34d d63c
000003e0: 5b25 c2bc 3300 ccbc 4412 e13c 88ff b23c
000003f0: f893 cf3c 63a7 12bd 8177 213d 8490 d83c

regularization f8 []
0.1
00000000: 9a99 9999 9999 b93f
