lastfm/models/model_factors_16.npz (npz, 284219 bytes, 2 tensors)

user_factors f4 [1892, 16]
0.7030719 0.6868259 1.5949794 -0.22380912 2.4515493 -1.0927328 -0.68970233 0.4022484
3.370983 -0.8099279 0.1277448 2.001486 0.9679062 2.3763845 0.24370228 -0.35648224
0.74096453 0.4050712 0.799089 -0.52884525 0.92205846 1.3527691 -1.7541931 -0.25597647
2.029084 -0.27593276 0.5456101 2.3081803 0.4265955 1.5671935 0.3221857 -0.28083408
2.5863354 -0.07907786 2.7437692 0.51378846 1.7092526 -0.46205157 -0.124120325 1.4290138
3.7348998 0.092920974 0.54640865 1.1532943 1.5035081 2.6952543 1.8159285 0.19100408
0.7516013 1.6833272 3.5907753 1.6406025 0.93955094 3.7507005 0.84371156 1.9490309
2.6123765 0.59235144 1.0712298 3.0694165 2.5919406 3.2427964 1.6735742 1.580357
0.5593875 0.29810947 2.8209991 -1.6399469 1.2574532 0.15177768 0.17182007 0.14787857
1.0233244 -1.8038477 1.0487765 1.967608 2.628861 0.59361225 -0.051102865 -1.0425054
0.5362359 0.11830327 0.04028101 1.0694788 2.3421917 -0.80070657 0.2018305 2.7301145
2.019295 -1.1102275 3.3744192 1.8775163 3.63909 1.6780498 1.7066073 0.2821675
0.9461268 2.019595 1.9079658 -0.52124476 2.1523654 -1.8253224 0.36635584 0.11736854
1.2510219 -0.084350735 2.3753722 2.5025842 3.817134 2.037798 1.4944041 0.051383518
2.016 3.26447 2.9229002 -0.45502317 1.5252241 0.1277272 1.1036792 -0.20246014
2.2052681 -0.0056692446 2.4922457 1.2138486 2.2962556 1.0124564 1.3671672 2.7732174
-0.319056 0.65500754 1.9157491 1.1300267 2.5885096 3.3189235 0.010194495 1.5053396
1.910243 -0.37368563 1.0265735 2.5271642 1.6599102 4.027269 0.8541976 1.1756407
1.7850773 1.1201148 1.2016369 -0.08548994 2.780938 -0.7571198 0.52554965 2.1460252
1.4294816 -0.92212373 2.5793986 1.1350118 4.212747 0.13058959 1.3146288 -0.17792743
3.3208182 2.0029132 1.5639586 0.262923 0.92954177 -0.011087291 2.1585178 1.21572
3.1648943 0.24314094 3.141558 2.153469 2.5357084 2.2442148 3.4389663 1.427752
0.06923454 0.2820358 0.16531114 0.7228402 1.8059546 0.926935 1.5355891 1.5501498
2.9912999 -0.2057025 4.0913253 1.6916428 4.062634 2.5636544 0.84119725 0.08129595
1.7489134 2.909281 1.4998046 -0.5383667 0.8728964 0.57701224 0.42512408 0.42207363
0.64655054 -2.3812478 -0.070611194 1.0659622 1.6273373 1.9590735 0.62346643 -0.7301803
0.94776917 1.1990932 2.5636494 0.68423903 2.5119936 0.81659937 -1.7955897 1.7537119
1.5230781 -2.5010798 0.049201112 2.258886 0.7809166 2.7153332 1.1524422 0.17192289
1.080225 2.0126257 0.6335395 0.8153687 2.355318 -1.4803568 -0.84544295 0.56517607
2.7242982 0.24141164 1.8818895 0.24654232 3.8594983 1.208272 1.7007459 0.1891148
0.9746307 1.7704709 0.89761865 1.1492134 2.2479362 1.0109442 1.341669 1.4171737
3.4257638 1.0117755 3.7670681 3.0536644 2.741437 2.9510102 1.6968534 -0.8409241
00000000: 85fc 333f d2d3 2f3f 4928 cc3f 382e 65be
00000010: 2fe6 1c40 abde 8bbf 5590 30bf 81f3 cd3e
00000020: 2fbe 5740 6f57 4fbf 88cf 023e 5918 0040
00000030: b3c8 773f af16 1840 178d 793e d784 b6be
00000040: daaf 3d3f 7e65 cf3e 1991 4c3f 6762 07bf
00000050: 060c 6c3f 8a27 ad3f 6689 e0bf 590f 83be
00000060: 83dc 0140 0f47 8dbe 1aad 0b3f 3ab9 1340
00000070: ba6a da3e cc99 c83f 86f5 a43e 7cc9 8fbe
00000080: 8586 2540 93f3 a1bd ea99 2f40 a487 033f
00000090: cac8 da3f 0692 ecbe cc32 febd ede9 b63f
000000a0: 9908 6f40 5a4d be3d 70e1 0b3f 269f 933f
000000b0: f472 c03f 0c7f 2c40 5870 e83f 9396 433e
000000c0: f168 403f 4477 d73f 43cf 6540 43ff d13f
000000d0: 6986 703f 7a0b 7040 7bfd 573f d879 f93f
000000e0: 2d31 2740 58a4 173f 0f1e 893f 5271 4440
000000f0: 5be2 2540 fa89 4f40 ae37 d63f 2349 ca3f
00000100: 0534 0f3f cea1 983e 408b 3440 c8e9 d1bf
00000110: 3af4 a03f 9c6b 1b3e 9af1 2f3e 7b6d 173e
00000120: 4bfc 823f 7be4 e6bf 4f3e 863f 94da fb3f
00000130: 423f 2840 f9f6 173f 3d51 51bd d170 85bf
00000140: c246 093f fc48 f23d b3fd 243d aee4 883f
00000150: 78e6 1540 1bfb 4cbf a8ac 4e3e 32ba 2e40
00000160: 213c 0140 ef1b 8ebf 7cf6 5740 7452 f03f
00000170: dae6 6840 56ca d63f 1c72 da3f 4278 903e
00000180: 5e35 723f 0b41 0140 3938 f43f 4c70 05bf
00000190: 5bc0 0940 2aa4 e9bf fe92 bb3e eb5e f03d
000001a0: 7c21 a03f 14c0 acbd 1906 1840 572a 2040
000001b0: ec4b 7440 486b 0240 a248 bf3f 8677 523d
000001c0: 2506 0140 14ed 5040 cc10 3b40 ccf8 e8be
000001d0: 8b3a c33f ebca 023e 5c45 8d3f b651 4fbe
000001e0: 1d23 0d40 12c5 b9bb f480 1f40 645f 9b3f
000001f0: daf5 1240 2c98 813f 56ff ae3f 657c 3140
00000200: 4f5b a3be 93ae 273f 4437 f53f b7a4 903f
00000210: 24aa 2540 3e69 5440 d006 273c f8ae c03f
00000220: d882 f43f b953 bfbe c366 833f 0fbd 2140
00000230: f077 d43f 63df 8040 b2ac 5a3f 657b 963f
00000240: 6a7d e43f ec5f 8f3f 3dcf 993f 5a15 afbd
00000250: e3fa 3140 9ad2 41bf 6c8a 063f 7a58 0940
00000260: 41f9 b63f 4d10 6cbf de14 2540 1148 913f
00000270: d3ce 8640 47b9 053e c245 a83f 9c32 36be
00000280: 4988 5440 bb2f 0040 cc2f c83f d89d 863e
00000290: 73f6 6d3f 78a7 35bc 2825 0a40 b79c 9b3f
000002a0: a18d 4a40 f0f9 783e 490f 4940 70d2 0940
000002b0: 0c49 2240 37a1 0f40 0618 5c40 94c0 b63f
000002c0: d7ca 8d3d ff66 903e 5347 293e 0e0c 393f
000002d0: 8529 e73f 9d4b 6d3f 2f8e c43f 4f6b c63f
000002e0: 7571 3f40 ada3 52be 23ec 8240 c087 d83f
000002f0: 1901 8240 ea12 2440 b458 573f 7e7e a63d
00000300: 65dc df3f a931 3a40 99f9 bf3f 66d2 09bf
00000310: 2376 5f3f 13b7 133f dda9 d93e 091a d83e
00000320: 5684 253f 5d66 18c0 9a9c 90bd 7371 883f
00000330: 974c d03f ecc2 fa3f 7f9b 1f3f 19ed 3abf
00000340: 00a1 723f e37b 993f d512 2440 4a2a 2f3f
00000350: 81c4 2040 a80c 513f e2d5 e5bf a279 e03f
00000360: 39f4 c23f b111 20c0 1b87 493d 9791 1040
00000370: 26ea 473f 05c8 2d40 3a83 933f 8e0c 303e
00000380: d044 8a3f dcce 0040 a52f 223f 01bc 503f
00000390: 88bd 1640 557c bdbf f36e 58bf 61af 103f
000003a0: e75a 2e40 9d34 773e c1e1 f03f 9775 7c3e
000003b0: 0502 7740 a8a8 9a3f 0bb2 d93f 4fa7 413e
000003c0: 6681 793f ca9e e23f 56ca 653f 6d19 933f
000003d0: 30de 0f40 9f66 813f cfbb ab3f f365 b53f
000003e0: b73f 5b40 dc81 813f a517 7140 3d6f 4340
000003f0: b473 2f40 5add 3c40 7e32 d93f cd46 57bf

item_factors f4 [2500, 16]
0.18967232 -0.03194296 -0.11495935 0.09664546 0.10723496 -0.04235795 0.0693403 -0.09643373
0.0291244 -0.08765307 -0.06185166 0.06877663 -0.012417047 0.06807717 0.098283276 -0.039844096
0.056972828 0.03224027 -0.0010579689 -0.06688677 -0.04163742 -0.037668623 0.022535976 0.0319406
0.011719958 -0.0045714504 -0.13881698 -0.03695012 0.15178293 0.13049352 -0.046921406 0.11078807
0.053659048 -0.03514993 -0.020669363 -0.009783864 -0.05229695 0.09085049 0.11967132 0.035997853
0.072871156 -0.102298014 -0.047438502 0.06045731 0.16499628 -0.018800367 -0.015158995 0.0351027
-0.028274065 0.103700325 -0.0066981814 -0.10894716 0.05180909 -0.040511947 0.11600195 -0.1431157
0.13615774 -0.09538758 -0.01844076 0.0054309466 0.03424604 0.04229276 -0.09276284 0.17703283
0.17428875 -0.03440033 -0.06672747 0.15703253 0.055015117 -0.007916723 0.1221648 -0.09198346
0.05586824 -0.07556108 -0.08288983 0.06593262 0.0061278953 0.050527718 0.022445649 -0.031261384
0.21643202 -0.0151159 -0.09043934 0.039148483 0.07285255 -0.039098423 0.05196038 -0.11291725
0.00060602656 -0.06657256 -0.08032766 0.061325397 0.005997465 0.0819195 0.11073464 -0.06639699
0.078613386 0.12597848 -0.014573484 -0.0033075507 0.085152276 -0.08932606 -0.12736176 -0.015896484
0.022934264 0.071160026 -0.071529664 -0.076013714 0.070091866 0.08675154 0.010630901 0.08202124
0.13961746 -0.023252502 0.0038056504 0.022727404 0.06472866 -0.01664226 -0.019738525 0.05372255
-0.0034711096 0.0363935 -0.10373907 0.03991342 0.089423954 0.057544496 -0.06631549 0.059161447
0.15105794 -0.012759542 -0.08357084 0.074187525 0.006360427 -0.11393663 0.12217616 -0.011933645
-0.023467572 -0.13100693 -0.040782984 0.115140304 -0.05526348 0.16181265 0.08785459 -0.009042171
0.22470422 0.029754756 -0.12704064 0.071036845 0.10054849 -0.05815967 -0.027454076 -0.08340852
0.057031613 -0.123892285 -0.029540198 0.008334065 -0.036518957 0.075071394 0.11406445 -0.08057933
0.11589104 0.0365114 -0.04424366 -0.06807878 0.02975387 0.03598876 0.10087068 -0.0064784572
0.034743134 -0.01777579 -0.13090631 0.09424814 0.095171556 0.057553552 -0.11180292 0.09094048
0.197782 -0.09405146 -0.073757015 0.042491987 -0.005379798 0.004355345 -0.064772524 -0.027830184
0.07685303 -0.111667134 -0.025026767 0.09602941 0.02732214 -0.026685128 0.13695438 0.009157371
0.1242331 -0.019738259 -0.041943602 0.1507598 0.05267135 -0.032175444 -0.015956424 -0.11364795
0.097816594 -0.12646018 -0.02091317 -0.05606884 0.05734904 0.004822877 0.11106664 -0.028463913
0.16867673 -0.010093475 -0.09833319 0.14765853 0.07944618 -0.065441355 0.050054736 -0.075360365
0.0694245 -0.116480485 -0.036501758 0.06109417 -0.05131248 0.06334313 0.0749791 -0.08036268
0.21378323 -0.019867947 -0.09632313 0.09108988 0.04574634 -0.009190067 0.039791856 -0.07742214
0.052456558 -0.12245024 -0.07174125 0.07533206 0.013285548 0.04336156 0.039431863 -0.014302491
0.108154796 -0.07368372 -0.10182608 0.10673609 0.041192427 -0.0014784249 0.02304759 -0.13769898
0.063303724 -0.17061386 0.00588292 0.05622489 0.06846592 -0.0008141328 0.09559956 0.0644628
00000000: 7639 423e 9fd6 02bd cf6f ebbd 0eee c53d
00000010: 019e db3d 887f 2dbd 4a02 8e3d 0c7f c5bd
00000020: 4b96 ee3c 7483 b3bd 2b58 7dbd c3da 8c3d
00000030: df70 4bbc 0b6c 8b3d be48 c93d 9033 23bd
00000040: 575c 693d 600e 043d 8cab 8aba eefb 88bd
00000050: 008c 2abd 6a4a 1abd 5e9d b83c 26d4 023d
00000060: 1105 403c 1bcc 95bb 0a26 0ebe 0259 17bd
00000070: fc6c 1b3e 18a0 053e a930 40bd dbe4 e23d
00000080: 97c9 5b3d 5ff9 0fbd cc52 a9bc 804c 20bc
00000090: 5435 56bd d20f ba3d 3d16 f53d 7c72 133d
000000a0: 793d 953d 9f81 d1bd e04e 42bd 16a2 773d
000000b0: c9f4 283e 3a03 9abc 6f5d 78bc d9c7 0f3d
000000c0: 039f e7bc d660 d43d 6b7c dbbb b01f dfbd
000000d0: c535 543d dbef 25bd 6e92 ed3d ec8c 12be
000000e0: ef6c 0b3e 905a c3bd 1411 97bc 15f6 b13b
000000f0: 9345 0c3d 2c3b 2d3d 72fa bdbd 1848 353e
00000100: c078 323e 5ce7 0cbd 69a8 88bd 23cd 203e
00000110: 8857 613d 25b5 01bc 8a31 fa3d d361 bcbd
00000120: 18d6 643d c4bf 9abd 25c2 a9bd ae07 873d
00000130: 83cc c83b 27f6 4e3d f0df b73c f00b 00bd
00000140: 5ba0 5d3e aea8 77bc 4338 b9bd 295a 203d
00000150: b833 953d ab25 20bd 68d4 543d 2941 e7bd
00000160: c1dd 1e3a 3257 88bd d482 a4bd 5730 7b3d
00000170: 6286 c43b 69c5 a73d d8c8 e23d 25fb 87bd
00000180: 0e00 a13d 8100 013e 9fc5 6ebc 7ec3 58bb
00000190: 5164 ae3d 95f0 b6bd 1f6b 02be 5839 82bc
000001a0: a3e0 bb3c 59bc 913d 257e 92bd 14ad 9bbd
000001b0: 538c 8f3d cbaa b13d 3b2d 2e3c c0fa a73d
000001c0: e1f7 0e3e 087c bebc 3868 793b d22e ba3c
000001d0: 7690 843d 5955 88bc b0b2 a1bc 2d0c 5c3d
000001e0: 8e7b 63bb 5a11 153d 2675 d4bd 417c 233d
000001f0: e823 b73d c7b3 6b3d 6ad0 87bd 4653 723d
00000200: efae 1a3e 660d 51bc 3027 abbd a1ef 973d
00000210: 216b d03b 9c57 e9bd 7f37 fa3d 5685 43bc
00000220: 113f c0bc ae26 06be 0f0c 27bd aece eb3d
00000230: f55b 62bd 37b2 253e 1bed b33d 9d25 14bc
00000240: dd18 663e 3fc0 f33c f116 02be c47b 913d
00000250: 5eec cd3d d638 6ebd 5fe7 e0bc 16d2 aabd
00000260: fb99 693d 3dbb fdbd 49fe f1bc 9a8b 083c
00000270: e794 15bd 08bf 993d 9f9a e93d c706 a5bd
00000280: 4858 ed3d fa8c 153d d738 35bd e36c 8bbd
00000290: 63be f33c f368 133d 4995 ce3d 3d49 d4bb
000002a0: d14e 0e3d 899e 91bc 4e0c 06be 2b05 c13d
000002b0: 4ee9 c23d 46bd 6b3d eef8 e4bd 013f ba3d
000002c0: 5d87 4a3e 0d9e c0bd eb0d 97bd 140c 2e3d
000002d0: 0449 b0bb 48b7 8e3b 75a7 84bd 20fc e3bc
000002e0: 1f65 9d3d bdb1 e4bd ef04 cdbc 11ab c43d
000002f0: aed2 df3c c59a dabc c53d 0c3e cc08 163c
00000300: ec6d fe3d 21b2 a1bc 0ecd 2bbd c760 1a3e
00000310: eabd 573d 66ca 03bd 0cb7 82bc 42c0 e8bd
00000320: 1154 c83d c77e 01be 1952 abbc 71a8 65bd
00000330: d4e6 6a3d 3909 9e3b e876 e33d 272d e9bc
00000340: 98b9 2c3e 1a5f 25bc e962 c9bd cc33 173e
00000350: aeb4 a23d 1e06 86bd 3206 4d3d 8956 9abd
00000360: 6f2e 8e3d 528d eebd de82 15bd e13d 7a3d
00000370: 092d 52bd 0bba 813d a48e 993d 3095 a4bd
00000380: fee9 5a3e 1bc2 a2bc 1045 c5bd 558d ba3d
00000390: 8460 3b3d ef91 16bc c9fc 223d 808f 9ebd
000003a0: b0dc 563d 31c7 fabd 14ed 92bd b247 9a3d
000003b0: a1ab 593c e49b 313d 4e83 213d ff54 6abc
000003c0: 4380 dd3d 7de7 96bd 318a d0bd 7398 da3d
000003d0: 64b9 283d b5c7 c1ba 4dce bc3c f600 0dbe
000003e0: 62a5 813d 66b5 2ebe 83c5 c03b 124c 663d
000003f0: dc37 8c3d 876b 55ba b4c9 c33d 1305 843d
