movielens/models/model_factors_2.npz (npz, 39131 bytes, 2 tensors)

user_factors f4 [2000, 2]
00000000: 8f98 2d3f 00a9 3a40 4bb7 1abf ef49 2140
00000010: 68ba 8abf 73e2 cc3f ca5c 953e cbe0 3d40
00000020: a2bf efbe c257 1f40 3060 8cbf 253e e33f
00000030: 9777 aebf 829b c13f 9a26 d23d e775 3640
00000040: 95fe 4fbf b25d 0a40 85ae 4c3f 8232 5c40
00000050: 384a 69bf 980d e93f 5a6c ae3f 61f5 5c40
00000060: 2083 51be 0ecd 2f40 dd78 6fbf 8c57 eb3f
00000070: e695 bdbe c06c 1240 8a7a 793e c94f 3540
00000080: c3ee 45bf 15b9 1a40 06f8 debd dff8 5140
00000090: 34a5 9cbe 19ab 3140 2b2c ae3f de3e 5d40
000000a0: 685c 1c3f fe6e 6140 eba8 c1bf 5225 a13f
000000b0: 9fda a5bf 94f3 a33f 3df2 7bbf 20f5 f23f
000000c0: 2546 93bf 5ccf e53f 7a86 8abf 4e12 bf3f
000000d0: 47b0 8abf 8413 0440 a1be c5be 49a6 1440
000000e0: 4152 4bbe 9d62 4040 62d4 193d 5de2 2740
000000f0: 1ca1 07bf 5053 0440 e104 9c3f d7b3 5d40
00000100: e6eb f9be a993 0a40 9990 35bf d242 cd3f
00000110: 8361 273f 3124 5540 075e 1cbf 1927 0c40
00000120: d2dd 313d a906 2d40 8313 5a3f 8eef 6240
00000130: 4f3b 6cbf 4879 da3f 6d12 49bf 94f5 2340
00000140: 6fdb a93e 8180 5840 9227 5e3f cf67 5040
00000150: 1ac2 89be 833c 3140 3d2e f63e 3c51 5640
00000160: 92ea aa3f 3c6d 6f40 4f1c 8abf 59e5 d83f
00000170: 66f4 0abe 40ee 3740 0867 88be 4c35 3740
00000180: 94a8 8c3f 805c 6f40 a3f0 183f f8c4 5440
00000190: b17c 51bf 188f 0340 d77d f73e 3cd1 5140
000001a0: 11b5 13bf dd32 1f40 8ce3 9c3f a5e4 5f40
000001b0: 94c0 adbe 4eac 4540 34cd 9cbf 227b ea3f
000001c0: 9711 96bf 0b00 f53f b441 9ebf 5f12 0040
000001d0: a0e6 88bf 11b2 0240 8e3b e03e c5b5 3640
000001e0: 117f b6be 1170 0240 1d55 113e 77d3 5640
000001f0: 4665 d0bf 5361 9c3f 5d52 0b3f eea1 3940
00000200: 7665 723f 53ce 6340 b8a2 dcbe 2cdf 0b40
00000210: 8334 043f bb8c 4340 00bd 863f 46eb 6d40
00000220: 8c82 33bf a92f f53f cbbf af3f aac5 6840
00000230: 4fd7 f0be e336 1640 1ab7 1cbe a101 3b40
00000240: 2d39 9cbf 0976 df3f e430 ccbd 2ae1 3940
00000250: b511 3dbf a3a0 0e40 0ac3 b8bf c349 b23f
00000260: 4714 65bf bed6 0640 4ffe 8fbf ed15 f73f
00000270: bd95 aabf abbe ab3f b767 91bf 3608 b33f
00000280: 1d54 7ebf 071f 0140 f428 983f 254e 6340
00000290: 47df eabe 1709 0540 0ed8 583e a822 3840
000002a0: fe83 43bf f4e2 1040 867f 2dbf b269 1f40
000002b0: 38e6 763f 7594 5340 9bfe a6bf 33b7 b93f
000002c0: c3df a23f 5408 5a40 abed 4a3e 4638 5040
000002d0: 1512 71bf f494 e93f b761 8d3f df86 5c40
000002e0: 2f23 283f 9d8a 6840 28c7 91bf 1d00 cf3f
000002f0: da4f 2b3f 4c1b 5140 4edb cc3f 2ef5 5d40
00000300: 1fda bbbe ae2e 3540 af50 bb3d 84c7 4b40
00000310: ff9f a03f d650 5740 06e3 ddbf 3e11 803f
00000320: 5a3d f3be 217e 2040 5921 56bf 7bc2 1040
00000330: 27dc 94be fd0d 2e40 29bd 4cbf bab2 0240
00000340: d197 0fbf bb98 3540 7cf8 aebf 55ac d93f
00000350: 4647 463f 4a0c 5940 21d1 83bf ab20 fe3f
00000360: e14c d3bf ce87 8e3f 1bb6 a0bd 7808 2240
00000370: be30 13be 1721 1b40 8daa 8ebd b91d 3f40
00000380: b0a5 243f d3ed 4240 44f7 363e f6e2 3340
00000390: 8553 9fbe be0a 2540 66db 9ebf 62a5 dc3f
000003a0: 7252 323e 7d69 3c40 93ca 1d3f 10d2 6140
000003b0: 3711 4d3e 3dac 5440 be85 8e3f f98f 6140
000003c0: 5f5b 0ebe 34a9 5540 8ebc 3c3d cb35 2a40
000003d0: 1908 80be 669f 1b40 64bb cebe 5b95 1e40
000003e0: fc5d 8fbf f4d4 0b40 d500 813d b761 4240
000003f0: ded6 55bf 8ad5 fe3f dafc 9e3f 3484 5b40
0.6781091 2.916565 -0.6043593 2.5201375 -1.0838137 1.6006607 0.29172355 2.9668453
-0.46825892 2.4897313 -1.0966854 1.775334 -1.3630246 1.5125582 0.10261269 2.8509462
-0.81247836 2.1619687 0.79953796 3.4405828 -0.91128874 1.8207273 1.3626816 3.4524767
-0.20460176 2.7468905 -0.935438 1.8386092 -0.37028426 2.2878876 0.24363151 2.8329947
-0.77317446 2.4175465 -0.108871505 3.280815 -0.3059479 2.776068 1.3607229 3.456962
0.610785 3.5223994 -1.5129675 1.2589514 -1.2957343 1.2808709 -0.984165 1.8981056
-1.1505781 1.7953906 -1.0822289 1.4927461 -1.0835046 2.0636911 -0.38622 2.3226492
-0.19855596 3.0060189 0.03755606 2.623191 -0.5298021 2.067585 1.2188989 3.4641016
-0.4881279 2.1652625 -0.70923764 1.6036017 0.65383166 3.330334 -0.61080974 2.1898863
0.043424435 2.7035315 0.8518602 3.5458713 -0.92278 1.7068262 -0.7854374 2.561864
0.33175227 3.3828433 0.8677913 3.256336 -0.269059 2.7693183 0.48082152 3.3487082
1.3352835 3.7410421 -1.0789889 1.6944991 -0.13569793 2.8739166 -0.26641107 2.862628
1.0988946 3.7400208 0.5974218 3.324522 -0.8183089 2.0556087 0.48338196 3.2783957
-0.5769816 2.4874794 1.2256942 3.4983304 -0.33935988 3.0886416 -1.2250123 1.8318827
-1.1724118 1.9140638 -1.2363801 2.0011213 -1.0695381 2.0421183 0.43795437 2.8548443
-0.3564382 2.03809 0.14192624 3.3566568 -1.6280906 1.2217201 0.5442255 2.9005084
0.9468607 3.559468 -0.43092895 2.1854963 0.51642627 3.0554645 1.0526428 3.717485
-0.70121074 1.915517 1.3730406 3.6370645 -0.47039267 2.3471 -0.15304223 2.9219744
-1.2204949 1.7457896 -0.09970263 2.904368 -0.73855144 2.2285545 -1.4434521 1.392876
-0.89484066 2.1068568 -1.1249484 1.9303566 -1.3326946 1.3417562 -1.1359776 1.3986881
-0.99347097 2.0175188 1.1887498 3.5516446 -0.45873472 2.0786798 0.21176168 2.8771152
-0.7637328 2.2638521 -0.6777271 2.4908261 0.96445036 3.305936 -1.304645 1.4509033
1.2724537 3.4067583 0.19817226 3.2534347 -0.94168216 1.8248582 1.1045445 3.4457319
0.65678686 3.6334603 -1.1388903 1.617191 0.6691872 3.267291 1.6004426 3.4680896
-0.3668985 2.830974 0.091462485 3.1840525 1.2548827 3.3643088 -1.7334907 1.0005262
-0.47507745 2.5076983 -0.83644634 2.2618701 -0.29074213 2.7196038 -0.79976135 2.0421586
-0.5609103 2.837447 -1.3669581 1.7005717 0.77452505 3.391375 -1.0298196 1.985372
-1.6507837 1.1135194 -0.07847234 2.531767 -0.14374062 2.4238946 -0.06966124 2.9861891
0.6431532 3.0457656 0.17867762 2.8107276 -0.31118408 2.5787807 -1.2410705 1.7237971
0.17414263 2.9439385 0.6163723 3.5284462 0.20026098 3.3230126 1.1134565 3.5244124
-0.13902043 3.3384523 0.046078257 2.6595333 -0.25006178 2.431604 -0.40377343 2.477866
-1.1200557 2.1848726 0.06298987 3.037214 -0.83530986 1.9908917 1.2420914 3.429944

item_factors f4 [2500, 2]
00000000: 04ca 8dbe 6b28 ab3e 61f2 acbe 1432 943e
00000010: f916 babe b107 813e dd88 7cbe c052 5a3e
00000020: 1dc8 c8be 125b 673e 2aa7 86be bf1b a03e
00000030: 5b34 8bbe 52b8 8d3e cb11 86be 1633 1d3e
00000040: 06d8 a0be 23ed 143e b996 b4be d036 983e
00000050: 33f2 89be 231b a33e 9eb3 a7be 5350 413e
00000060: 2458 a6be db17 323e e64b cabd 5023 713e
00000070: 2742 c2be f525 353e 99b6 75be 721e 9d3e
00000080: 1e27 09be e5c9 9c3e b06c 9fbe ef84 713e
00000090: 499d c4be c717 5c3e f846 bdbe b197 333e
000000a0: 969e 87be e76a a83e d9e4 99be 03a9 8a3e
000000b0: 6039 d0be 2282 3a3e a774 b2be 765c 8f3e
000000c0: d4fb 55be 39f1 a13e 1dda f2bd a44f 663e
000000d0: c8ec 5cbe dffb 2c3e 6e45 2f3d 353d 6c3e
000000e0: 7fe0 39be d732 903e 0087 e23d dbf9 3d3e
000000f0: bd21 c2be 78cf 4b3e 9bf1 87be 2c10 a73e
00000100: ce9a 79be adcb a93e 9afc 503d fbba 473e
00000110: ef21 47be 847e a03e 07a8 7fbe f923 a73e
00000120: 18f5 dfbc 8806 853e 04c2 88be e886 703e
00000130: 0b62 7b3b ab9e 6e3e a54a debe ea1b 573e
00000140: e5c8 48be fd15 993e 94e5 63be c512 663e
00000150: a93e 88be 5ba9 a43e 39d4 a4be 3582 803e
00000160: a246 79be f63d aa3e 5c34 08be a1e9 943e
00000170: fbb1 e3bd 643b 5f3e 28ab 96bd 5e03 943e
00000180: 7541 9dbe d195 853e 9da7 b4be 54d5 1b3e
00000190: f337 91be c6ed 923e 5231 b3be f1be 303e
000001a0: e13c 7abe 8d81 073e d06e acbe 56ab 173e
000001b0: 6ddb 77be 1cfc c23d ecab 2a3c 26bc 373e
000001c0: 63c7 a4be ebeb 823e f63a adbe 1f07 943e
000001d0: 4dae 90be 076b 003e 09d0 60bd c8af 683e
000001e0: 0c06 2dbe 5952 873e 7f2f 8abe cf2f 463e
000001f0: 3864 adbe 48a5 4e3e 0952 94be d677 363e
00000200: 7389 1a3e ab56 263e 8df2 4fbe 7b8c 773e
00000210: 24da a43d a7b0 463e 097e 4d3c 0a17 743e
00000220: 11e3 76be 32cf 7e3e 634c 75be 1741 fe3d
00000230: 44c9 c3be ba18 4c3e a228 c0be e298 6a3e
00000240: cba2 8abe cedb 303e 1313 b0be 6050 0d3e
00000250: 7e90 4cbe 1ef8 7a3e 4c36 c9be c028 843e
00000260: 5092 0fbe 1c93 643e 2a7a cfbd 992c 8a3e
00000270: cae5 f0bd 654f ad3d ddfc aabe 5273 943e
00000280: 4e73 09be e11a 8b3e 3605 9fbe d373 753e
00000290: dc54 92be 456c ab3e 65ac 3abe a043 a43e
000002a0: c7f3 b0be 3738 913e 9bfe 40be de09 1c3e
000002b0: 3617 88bc 1f1d 663e 322a 74be 54e2 213e
000002c0: 0593 a9be b611 653e 9306 3abc acae 6d3e
000002d0: 1749 aebd 8afc 8c3e 4be6 8cbe 25ca 093e
000002e0: 6ba5 98be c5c5 2a3e 5fbf cdbe 3d95 303e
000002f0: 5020 87be b628 493e 8534 8dbe 9fe3 993e
00000300: 0345 27be 64c7 923e 11e9 d9be db0c 693e
00000310: 9f22 5cbe 8b50 823e 8597 88be 030b a73e
00000320: ed32 7fbe ac2d 9b3e 3dde b2bd ae34 413e
00000330: 05de c3be d876 853e 758d 9f3d a226 623e
00000340: de2b 0bbd 0e7b 603e 9033 ffbc ce4f 4a3e
00000350: 91d5 72be c30f 6a3e 18b6 b7be 29cb 643e
00000360: ab9f a2bd 6b2d 683e ade3 d5be 2b85 553e
00000370: c6a9 95be 6cac 9c3e bd51 58bd 8014 913e
00000380: 4005 c0be 35a4 893e 618b debd f286 8d3e
00000390: 0252 bebe fd73 923e ed6c 00be ec41 033e
000003a0: a866 cabe efa3 733e e300 aabe 7053 173e
000003b0: 9d6b d4be 2b1c 6e3e d0bc babd 1aa7 593e
000003c0: aac8 cbbe fd4b 703e 333f dcbe a1b4 5b3e
000003d0: 340c 9fbe 410a 0a3e c31c 31be ae4b 7c3e
000003e0: ff4c b0bd 5354 833e b785 aabe ff03 343e
000003f0: 21ab aebe eed0 863e b1c6 6abe 7679 9a3d
-0.27693188 0.33429274 -0.3377867 0.28944457 -0.36345652 0.2520118 -0.24661584 0.21320629
-0.39215174 0.22593334 -0.2629941 0.3127117 -0.27188382 0.27679688 -0.2618545 0.15351519
-0.31414813 0.14543585 -0.35271242 0.2972932 -0.26942596 0.3185664 -0.32754225 0.18878298
-0.3248912 0.17391913 -0.09877758 0.23548627 -0.37941095 0.1769026 -0.23995437 0.3068729
-0.13393828 0.30622783 -0.3113761 0.23585866 -0.3840125 0.21493445 -0.36968207 0.17538334
-0.2648818 0.3289406 -0.3005741 0.2708207 -0.40668774 0.18213704 -0.34854624 0.2800023
-0.20896846 0.3162935 -0.11858008 0.22491318 -0.215747 0.16892956 0.042790823 0.23070224
-0.18152045 0.28163788 0.110609055 0.18552344 -0.37916365 0.19903362 -0.26551518 0.32629526
-0.2437546 0.33163205 0.05102215 0.19504921 -0.19446538 0.31346524 -0.24966441 0.32644632
-0.02733855 0.25981545 -0.26710522 0.23488963 0.0038357999 0.23302715 -0.43416324 0.21006742
-0.19607885 0.29899588 -0.22255546 0.22468098 -0.26610306 0.32160458 -0.32193163 0.2509934
-0.2434335 0.33250397 -0.13301224 0.29084495 -0.111179315 0.218 -0.07356864 0.2890882
-0.30714002 0.26090863 -0.3528413 0.15218097 -0.28362998 0.28697032 -0.34998566 0.17260338
-0.24437286 0.13233013 -0.33678293 0.14811453 -0.24204798 0.09520742 0.010416966 0.17942867
-0.3218337 0.25570616 -0.33834046 0.28911683 -0.2825798 0.12540828 -0.054885898 0.22723305
-0.16896838 0.26430014 -0.26989362 0.19354175 -0.33865523 0.20180237 -0.28968838 0.17819151
0.15091495 0.16243999 -0.2030737 0.24174683 0.080494195 0.19403325 0.012542256 0.23836914
-0.24110056 0.24883726 -0.2395492 0.12414759 -0.3823949 0.19931307 -0.37531 0.22909883
-0.27077326 0.17271349 -0.34389552 0.13800192 -0.19976994 0.24508712 -0.39299238 0.2581234
-0.14020658 0.22321743 -0.10130723 0.2698715 -0.11762579 0.08462409 -0.33396044 0.28994232
-0.13422891 0.27168944 -0.31058663 0.23969965 -0.28580368 0.3348104 -0.18229826 0.32082844
-0.34560987 0.283632 -0.18847124 0.15238139 -0.01661263 0.22472046 -0.23844221 0.15808994
-0.3311998 0.22370037 -0.0113541065 0.23211163 -0.085100345 0.27536422 -0.2751945 0.13456018
-0.29813704 0.16677006 -0.40185067 0.1724443 -0.2639184 0.19644436 -0.27579132 0.30056474
-0.1633492 0.28667748 -0.42560628 0.2275881 -0.21497582 0.25452074 -0.266781 0.3262559
-0.2492177 0.30308282 -0.08733795 0.18867752 -0.38255325 0.26067233 0.07790653 0.2208505
-0.033977382 0.21921942 -0.031152517 0.19757006 -0.23714282 0.22857575 -0.35881114 0.22343124
-0.079406105 0.22673576 -0.41775265 0.20851581 -0.2923109 0.30600297 -0.052812327 0.28335953
-0.37504005 0.26883093 -0.10866428 0.27642018 -0.37171942 0.28604117 -0.12541552 0.12818116
-0.39531446 0.23793004 -0.33203802 0.14777923 -0.41488352 0.23252933 -0.091180444 0.2125515
-0.39801532 0.23466487 -0.43016967 0.21455623 -0.31063998 0.13480474 -0.17296128 0.24638245
-0.08608436 0.25650272 -0.3330514 0.1757965 -0.34114936 0.26331276 -0.22927357 0.07542698
