movielens/models/model_factors_4.npz (npz, 75131 bytes, 4 tensors)

user_factors f4 [2000, 4]
0	0x3f19fa70	0.6014776
1	0x3f38d1ee	0.7219533
2	0x3e6ec0ef	0.23315786
3	0x3e5a6d59	0.21330775
4	0x3f6b95c7	0.9202542
5	0x3f1a455f	0.602621
6	0x3faaa43b	1.3331369
7	0x3fbc65af	1.4718531
8	0x3edac56b	0.42728743
9	0x3f37b362	0.7175809
10	0x3f4accc5	0.79218704
11	0x3e810089	0.2519572
12	0x3f7d6a83	0.9899065
13	0x3f0a9891	0.5413905
14	0x3f027499	0.50959164
15	0x3eaf721b	0.34266743
16	0x3f4c7c6f	0.7987737
17	0x3ef3fc70	0.47653532
18	0x3f8b3041	1.0874101
19	0x3f5e5a29	0.86856323
20	0x3f88140f	1.0631121
21	0x3ed27af0	0.4110942
22	0x3f83f64a	1.0309536
23	0x3eb95a72	0.36201817
24	0x3f3ab321	0.7292958
25	0x3f37b451	0.71759516
26	0x3f7d1123	0.98854274
27	0x3e9ef484	0.31045926
28	0x3fa69f1d	1.3017308
29	0x3f238822	0.638796
30	0x3f6fac70	0.93622494
31	0x3e91b4ac	0.28458154
32	0x3eda16b8	0.42595458
33	0x3f5479c4	0.829983
34	0x3f54490c	0.8292396
35	0x3f74b7aa	0.9559275
36	0x3faeb02e	1.3647516
37	0x3ef6ef85	0.48229614
38	0x3edf31f0	0.43592787
39	0x3f8fa909	1.122346
40	0x3eeff477	0.468662
41	0x3f3df54d	0.74202424
42	0x3f3afbc0	0.7304039
43	0x3f32803a	0.6972691
44	0x3f4c23bf	0.79742044
45	0x3ec38e37	0.3819444
46	0x3c875ac9	0.016522782
47	0x3f562504	0.8365023
48	0x3f928e24	1.1449628
49	0x3f5dc1f5	0.8662408
50	0x3f90d815	1.1315943
51	0x3f2c84ec	0.6739032
52	0x3f824492	1.0177176
53	0x3e5f9a73	0.21836261
54	0x3f74ad08	0.95576525
55	0x3ea11037	0.31457683
56	0x3f40fee1	0.75388914
57	0x3eb5cc27	0.35507318
58	0x3f4e7019	0.806398
59	0x3f19a8df	0.600233
60	0x3eab9a47	0.33516142
61	0x3f0777ab	0.52916974
62	0x3ede4c0b	0.4341739
63	0x3f6f9364	0.93584275
64	0x3f80c44f	1.0059909
65	0x3f54501d	0.82934743
66	0x3fab75c1	1.3395311
67	0x3fa0982b	1.2546438
68	0x3fd7489d	1.6819035
69	0x3fa8da51	1.3191625
70	0x3fbb5144	1.4634175
71	0x3fb21400	1.3912354
72	0x3fd9af40	1.7006607
73	0x3f5327a4	0.8248236
74	0x3f9d24b8	1.2276831
75	0x3f53085a	0.8243462
76	0x3f775fff	0.96630853
77	0x3ee8626b	0.45387587
78	0x3d6ca394	0.057773188
79	0x3f812d25	1.0091902
80	0x3f94ece7	1.1634797
81	0x3f48e93f	0.78480905
82	0x3f200282	0.62503827
83	0x3fb9dba8	1.4520159
84	0x3f53e2d4	0.8276799
85	0x3f1ac4c3	0.60456485
86	0x3fa229c1	1.2668992
87	0x3e89cf04	0.26915753
88	0x3e40086c	0.18753213
89	0x3eaf723c	0.3426684
90	0x3f4df90e	0.8045815
91	0x3f27aaa1	0.65494734
92	0x3f35f5eb	0.71078366
93	0x3f8343e7	1.0255097
94	0x3f77022f	0.96487707
95	0x3eb80d89	0.35947827
96	0x3eec69e8	0.4617455
97	0x3f194d37	0.59883446
98	0x3f84298b	1.0325178
99	0x3f5712ca	0.84013045
100	0x3f31cea3	0.6945593
101	0x3dfb6a9e	0.12276195
102	0x3f494748	0.7862439
103	0x3e91dc2a	0.28488284
104	0x3f9ce1c9	1.2256404
105	0x3e8bc76c	0.27300584
106	0x3fcd5474	1.6041398
107	0x3f48431f	0.7822742
108	0x3f6f9ed6	0.9360174
109	0x3ef88cab	0.4854482
110	0x3f87794f	1.0583895
111	0x3f0dabaf	0.55340093
112	0x3fd22d96	1.6420162
113	0x3f9b6d77	1.2142781
114	0x3f933693	1.150103
115	0x3fa6bc13	1.3026146
116	0x3f4e8c9e	0.80683315
117	0x3f2d7c9a	0.6776825
118	0x3f141f73	0.5786049
119	0x3e81490b	0.2525104
120	0x3f5a465e	0.8526362
121	0x3ed7c2db	0.4214085
122	0x3f29552d	0.6614559
123	0x3e559e8f	0.20861267
124	0x3f878166	1.0586364
125	0x3f5590e9	0.8342424
126	0x3dd6764a	0.104717806
127	0x3f24299c	0.6412599
128	0x3eb7723b	0.35829338
129	0x3f3fbee1	0.74900633
130	0x3f2ca168	0.67433786
131	0x3f05d7ab	0.5228221
132	0x3edc199a	0.42988282
133	0x3eceea45	0.40413108
134	0x3f0cac84	0.5495074
135	0x3e09dd6c	0.13463372
136	0x3f73ff4f	0.95311445
137	0x3f791d72	0.97310555
138	0x3eacda3e	0.33760256
139	0x3f6318b1	0.8870955
140	0x3f1d7c43	0.61517733
141	0x3f1c0df7	0.6095881
142	0x3f692993	0.9107906
143	0x3ecf322d	0.4046797
144	0x3f798590	0.97469425
145	0x3ea22591	0.31669286
146	0x3f1b81e3	0.60745066
147	0x3f1801e9	0.59377915
148	0x3f91f948	1.14042
149	0x3f1bc75c	0.60851073
150	0x3efea456	0.49734753
151	0x3fb44c96	1.4085872
152	0x3f45b220	0.7722492
153	0x3f1d92fe	0.6155242
154	0x3f779cee	0.9672383
155	0x3e633f02	0.22192004
156	0x3f8dd6bc	1.1081157
157	0x3edca35b	0.4309338
158	0x3fe04424	1.7520795
159	0x3fd53553	1.6656898
160	0x3fc9a9eb	1.575498
161	0x3f8bd7c5	1.0925223
162	0x3f839b87	1.0281838
163	0x3f73b5ad	0.9519909
164	0x3f6ef0c5	0.93336135
165	0x3f88fd9f	1.0702399
166	0x3e1e385b	0.15451185
167	0x3f57e515	0.84333926
168	0x3f8490ae	1.0356653
169	0x3f8f2472	1.1182997
170	0x3f73d9a8	0.9525399
171	0x3f3f1fe6	0.7465805
172	0x3faf8934	1.3713746
173	0x3f185aad	0.5951336
174	0x3f621b39	0.8832279
175	0x3f79c320	0.9756336
176	0x3fa359ad	1.2761742
177	0x3f7a080a	0.97668517
178	0x3be2a1ef	0.0069162766
179	0x3f88f5c5	1.0700003
180	0x3f3a1ece	0.72703254
181	0x3f6c18f5	0.9222558
182	0x3f4ff6c9	0.8123594
183	0x3df6dd5a	0.12053938
184	0x3f82f6ba	1.0231545
185	0x3f868cba	1.0511696
186	0x3f779259	0.96707684
187	0x3f5de674	0.8667977
188	0x3fca37fd	1.5798336
189	0x3f355442	0.7083169
190	0x3fa78bb2	1.3089507
191	0x3fa1d7d6	1.2643993
192	0x3fe728b2	1.8059294
193	0x3f1a5415	0.6028455
194	0x3e4f564c	0.20247763
195	0x3f88aa24	1.0676923
196	0x3f76b232	0.96365654
197	0x3fa2438b	1.2676862
198	0x3f04d74d	0.5189102
199	0x3f648872	0.892707
200	0x3f8d81b2	1.1055205
201	0x3f5d56e3	0.86460704
202	0x3f752816	0.9576429
203	0x3edc284a	0.42999488
204	0x3f1aaa27	0.6041588
205	0x3fb2e93e	1.397743
206	0x3ed25fa7	0.41088602
207	0x3f2db773	0.67858046
208	0x3f867557	1.0504559
209	0x3fab2ae2	1.3372462
210	0x3f9699bb	1.1765665
211	0x3f11e416	0.56988657
212	0x3f7b48d7	0.9815802
213	0x3f4378f2	0.7635642
214	0x3d9274a3	0.07151153
215	0x3f718faf	0.9435987
216	0x3fcb1304	1.5865178
217	0x3fa9aa21	1.3255044
218	0x3fd42858	1.6574812
219	0x3fa6076f	1.2971019
220	0x3f4f9a2d	0.8109463
221	0x3f2a2161	0.6645718
222	0x3fb8aad5	1.4427134
223	0x3f76452d	0.96199304
224	0x3f269d97	0.65084213
225	0x3f18afe1	0.5964337
226	0x3fa19bb1	1.2625638
227	0x3f438177	0.7636942
228	0x3f557d53	0.83394355
229	0x3f8ab512	1.0836508
230	0x3fca4b19	1.5804168
231	0x3f76fda1	0.96480757
232	0x3f4300bb	0.7617299
233	0x3f654965	0.89565116
234	0x3f9f014b	1.242227
235	0x3f81df25	1.0146223
236	0x3f7fb626	0.9988731
237	0x3effbf8c	0.49950826
238	0x3eec416d	0.46143666
239	0x3ef86840	0.48517036
240	0x3ec825db	0.3909138
241	0x3f12c4cc	0.5733154
242	0x3ec79c08	0.3898623
243	0x3e9a09c8	0.30085588
244	0x3f9ad2bd	1.2095562
245	0x3f8ddbf9	1.1082755
246	0x3f7eb84b	0.9949996
247	0x3ff3541a	1.9010041
248	0x3eff9bf7	0.4992368
249	0x3f1d8a03	0.61538714
250	0x3f919cf7	1.1376027
251	0x3f15f237	0.58572716
252	0x3f2bfcfe	0.6718291
253	0x3f249031	0.6428252
254	0x3ea4d850	0.32196283
255	0x3f3738ba	0.7157093

item_factors f4 [2500, 4]
0	0x3d17e341	0.03708196
1	0x3d7daedf	0.06193435
2	0x3d6c6dfe	0.057722084
3	0x3bbc114d	0.005739367
4	0xbc1d1059	-0.009586417
5	0x3ba36c22	0.0049872557
6	0x3d9ec309	0.07752044
7	0x3c6eaaad	0.014567059
8	0xbcda5d66	-0.026655864
9	0x3b721d59	0.0036943762
10	0x3d58885b	0.052864414
11	0x3cebd418	0.028787658
12	0xbd04fbe1	-0.032466773
13	0x3ce99235	0.0285121
14	0x3c03f31d	0.008053568
15	0x3cf3dc31	0.029768081
16	0xbd5c34d1	-0.053761307
17	0x3ca29243	0.019845134
18	0x3d5aa7af	0.05338257
19	0x3d11d83e	0.035606615
20	0x3ddc4fee	0.10757433
21	0x3d028be5	0.031871695
22	0x3cf4b5dd	0.029871875
23	0xbd9892af	-0.07449853
24	0xbd88de97	-0.06683081
25	0x3d2f1b19	0.04275045
26	0x3d1987a7	0.037482884
27	0x3d89c6f6	0.06727402
28	0xbba394b5	-0.0049920925
29	0xba90d771	-0.0011050535
30	0x3c61890f	0.0137655875
31	0x3bd0aa31	0.0063679446
32	0x3c187c38	0.00930696
33	0xbc044ee2	-0.008075448
34	0x3ca11ef5	0.019668082
35	0xbbf35ba5	-0.0074266964
36	0x3d4e8d38	0.050427645
37	0xbd0aaab4	-0.0338542
38	0x3e0166d7	0.12636887
39	0xbd23b3c4	-0.03996636
40	0xbd4bcbd5	-0.049754936
41	0x3da2d38e	0.07950507
42	0x3cd8241c	0.026384406
43	0x3da00dcf	0.07815134
44	0xbb254478	-0.0025217813
45	0xbc74a0e4	-0.014930937
46	0x3cea85ce	0.028628256
47	0x3c581312	0.0131881405
48	0xbc2537ad	-0.010084075
49	0xbc871f6c	-0.016494475
50	0x3cd8455b	0.026400259
51	0x3cb1ee33	0.021720028
52	0xbbd740c2	-0.006568999
53	0x3cd1faf5	0.025632361
54	0xbb1ac089	-0.0023613295
55	0x3cb2e876	0.021839362
56	0xbbd1f4a6	-0.006407338
57	0xbc71dfa5	-0.014762794
58	0x3d16047d	0.036625374
59	0x3c157c2b	0.009123842
60	0x3d24558d	0.04012065
61	0x3db9a71d	0.090650775
62	0xbaaf936e	-0.0013395378
63	0xbd11b807	-0.035575893
64	0xbc8923b3	-0.016740656
65	0x3de4d972	0.11174287
66	0xbd5801d5	-0.052736122
67	0x3d78d000	0.06074524
68	0x3be87c0a	0.0070948647
69	0x3d0a975d	0.033835758
70	0x3cd29926	0.025707792
71	0xbcb3a30e	-0.021928336
72	0xbcf22072	-0.029556487
73	0x3c3cbc5d	0.011519519
74	0x3d383799	0.044974897
75	0x3c9f25c8	0.019427195
76	0xba884b8b	-0.001039849
77	0xbbecb257	-0.007223408
78	0x3d118e07	0.03553584
79	0xbb47971f	-0.0030455065
80	0x3d899a14	0.06718841
81	0x3def0e4c	0.11672649
82	0x3d039051	0.032120053
83	0xbd899190	-0.06717217
84	0xbca59865	-0.020214269
85	0x3d121759	0.035666797
86	0x3d261f5c	0.04055725
87	0x3c45fec4	0.012084667
88	0xbbfb0d42	-0.0076614926
89	0x3b5441b7	0.0032387802
90	0x3d389f8d	0.045074034
91	0xbc17dcfc	-0.009268995
92	0x3caa1537	0.02076207
93	0x3c259a36	0.0101075675
94	0x3d8ae7c5	0.06782488
95	0xbce08b94	-0.027410306
96	0x3cdb54b2	0.026773784
97	0x3dfe1765	0.12406806
98	0xbb31158e	-0.0027020904
99	0xbd19a9ab	-0.037515324
100	0xba62f45a	-0.0008657627
101	0x3cd513dd	0.026010448
102	0xbb9d6879	-0.004803714
103	0x3c2048c3	0.009782973
104	0xbcc0b68e	-0.023524549
105	0x3ca05e42	0.019576196
106	0x3c14e1c2	0.009087028
107	0x3c9715d8	0.018443033
108	0x39a781fd	0.0003194957
109	0x3d13bb91	0.03606755
110	0xbcdd5b5f	-0.027021108
111	0x3ce4c3e4	0.02792544
112	0x3d7cb0e7	0.061692145
113	0x3ce14f72	0.027503703
114	0x3aaf3386	0.0013366796
115	0xbd119dd4	-0.035550907
116	0x3c390b08	0.011294134
117	0x3c95a84b	0.018268725
118	0xbcbcf9fa	-0.023068417
119	0x3c3b7936	0.011442473
120	0xbd104279	-0.035219643
121	0x3c994383	0.01870895
122	0x3d166485	0.036716957
123	0x3c980511	0.018557103
124	0x3dc9039b	0.09815141
125	0x3d961463	0.07328107
126	0x3cb4869c	0.022036843
127	0xbd9336af	-0.071881644
128	0x3d2a199b	0.041528326
129	0x3dbc6c7e	0.09200381
130	0xbc5d3bf5	-0.013503064
131	0x3c8149f4	0.015782334
132	0xbc11d2d3	-0.008900362
133	0x3cc0f9e0	0.02355665
134	0xbc81e91c	-0.015858226
135	0x3cd4d351	0.02597967
136	0x3cc14a59	0.023595022
137	0x3db71436	0.08939402
138	0xbca09156	-0.019600552
139	0x3adae331	0.0016699788
140	0xbba25bc9	-0.0049547893
141	0x3e0a702b	0.13519351
142	0x39a4df9a	0.00031447114
143	0x3c9db20e	0.019249942
144	0x3d0ba07d	0.0340886
145	0x3d07b42d	0.033130813
146	0xbcd8838c	-0.026429914
147	0x3bc7804c	0.006088292
148	0x3cb4d227	0.022072865
149	0x3c8e004d	0.017334128
150	0x3c85dce4	0.01634068
151	0xbcacfd14	-0.02111677
152	0x39e9b58e	0.00044576492
153	0x3d028cff	0.031872746
154	0xbca3e4a6	-0.020006489
155	0x3caca8ab	0.02107652
156	0xbbedb198	-0.007253837
157	0xba9406a2	-0.0011293481
158	0x3d98732c	0.07443842
159	0xbc84bca7	-0.016203238
160	0x3c6de9c5	0.014521067
161	0x3d9a60c8	0.07537991
162	0xbc7fd47f	-0.015614628
163	0x3bf280bb	0.0074006
164	0xbd5bb1a5	-0.053636212
165	0x3d0708b8	0.0329673
166	0x3c5bfbe3	0.013426754
167	0x3d57bfd0	0.05267316
168	0x3ddc0a76	0.10744183
169	0x3dfda67a	0.123852685
170	0x3c288219	0.010284924
171	0xbde39721	-0.1111281
172	0xbd65e507	-0.05612662
173	0x3c82d1ad	0.015969122
174	0x3d5c9dd7	0.053861465
175	0x3d3f8491	0.046757285
176	0x3dc115d7	0.09427994
177	0x3d7d460e	0.061834387
178	0x3bdc71a2	0.0067274133
179	0xbce61e87	-0.028090728
180	0x3c5d2233	0.013496923
181	0x3da81dc3	0.082088016
182	0xbcfde355	-0.03099219
183	0x3c360774	0.011110175
184	0xbcd45360	-0.025918663
185	0x3cfec112	0.031097922
186	0xbb4d971c	-0.0031370586
187	0x3d089358	0.033343643
188	0x3c097619	0.008389973
189	0x3dac6f52	0.0841967
190	0xbd50e035	-0.05099507
191	0x3d190f72	0.037368245
192	0xbc2f81d9	-0.01071211
193	0xbc823b7c	-0.015897505
194	0x3d2b98b2	0.04189367
195	0x3d19c01e	0.037536733
196	0xbc1d024b	-0.009583066
197	0x3c16b0dc	0.00919744
198	0x3c9915fc	0.01868724
199	0x3ad16d30	0.0015977975
200	0xbd6d2b5b	-0.057902675
201	0x3dae5959	0.085131355
202	0x3cfe9597	0.03107719
203	0x3d3570a0	0.04429686
204	0xbc83d29a	-0.016091634
205	0x3c6e8618	0.014558338
206	0x3cc57ccf	0.024107365
207	0x3bad386f	0.0052862684
208	0xbc9b9b56	-0.018994968
209	0x3bbb0dfd	0.0057084546
210	0x3c36ec1a	0.011164689
211	0x3c8a23c5	0.01686276
212	0xbc406651	-0.011743144
213	0x399ea171	0.00030256392
214	0x3ca20d04	0.019781597
215	0x3c263799	0.010145091
216	0x3ad91ea9	0.0016564924
217	0xbab41525	-0.0013739212
218	0x3c0b2f2e	0.008495135
219	0xbb31452c	-0.0027049286
220	0x39471c94	0.00018988765
221	0x3c516c7c	0.012782212
222	0xbc0cf42b	-0.008603136
223	0x3c4438ce	0.011976434
224	0x3bb6dcf0	0.005580537
225	0x3d7145f0	0.05890459
226	0x3cc27bd7	0.023740692
227	0xbcd0bbe9	-0.025480228
228	0x3d933909	0.07188613
229	0x3cb24a43	0.021763926
230	0x3d8b12f6	0.06790726
231	0xbdaa9dab	-0.08330854
232	0xba62308a	-0.00086284487
233	0xbbac897d	-0.0052654133
234	0x3c6b9c25	0.0143804895
235	0x3b426245	0.0029660624
236	0x3bc4897d	0.005997835
237	0x3d1da3e6	0.038486384
238	0xbc561270	-0.013065919
239	0x3a730fa8	0.00092720473
240	0xbc8cf3d5	-0.017206112
241	0x3ce3ffee	0.027831998
242	0x3c042738	0.008065991
243	0x3ce78cfa	0.028265465
244	0xbd0ecfab	-0.034866016
245	0x3cd51c5e	0.026014503
246	0x3c66efb1	0.014095233
247	0x3cd5ca12	0.026097331
248	0x3c98674a	0.01860394
249	0x3b45133f	0.0030071286
250	0x3cda2182	0.026627306
251	0xbcbfb672	-0.023402426
252	0xbc260a89	-0.010134348
253	0x3c35dbb6	0.011099746
254	0x3c7fd620	0.015615016
255	0x3bd1fb44	0.006408127

regularization f8 []
0	0x3f847ae147ae147b	0.01

alpha f8 []
0	0x3fb999999999999a	0.1
