movielens/models/model_factors_8.npz (npz, 147131 bytes, 4 tensors)

user_factors f4 [2000, 8]
0.25129235 0.0012909753 -0.080059186 0.098440014 0.044436846 0.1985749 0.13457865 0.169495
0.0074906116 0.31374803 0.31486 0.19817334 0.2604803 0.53524584 0.47176793 0.13611808
0.19520116 0.12780955 0.12780507 0.26390582 -0.0155254705 0.096434034 0.11008833 0.0805052
0.17428523 0.053693596 0.16050522 0.13523903 0.1475518 0.21158892 0.082806885 0.24783398
0.04558332 0.2621295 0.23704486 0.25969544 0.18297593 0.43747073 0.16970576 0.118131675
0.29609904 -0.03532603 0.1510358 0.1285279 0.11516869 0.38377774 0.17793109 0.10500079
0.2607086 0.065559715 0.13580263 0.14534026 0.014609315 0.3094796 0.18403742 0.16354991
0.3461534 -0.04104029 0.15956013 0.12547849 0.13282469 0.39250574 0.14472312 0.25079963
0.14724228 0.20755869 0.09573118 0.3259235 0.08885839 0.19901435 0.32456163 0.039830577
0.20732614 0.10193008 0.23393577 0.34966218 0.38567597 0.15076204 0.18891822 0.21109393
0.10317361 0.14719361 0.19414985 0.15246038 0.053886004 0.16912621 0.30334562 0.17180201
0.043364227 0.114866264 0.026951646 0.22959714 0.2742523 0.15972367 0.11261498 0.13644435
0.27489886 0.06842764 0.18530546 0.29684958 0.11702782 0.3817708 0.28436437 0.18005683
0.26526833 -0.052674897 0.24176179 0.10955049 0.13318135 0.26214725 0.14031337 0.10451564
0.1666872 0.022586621 0.119118266 0.08587122 0.11837123 0.33747897 0.22228822 0.06390504
0.18006468 0.08427587 -0.032384384 0.1297366 0.13117921 0.208267 0.34074157 -0.021607505
0.14666097 0.30638415 0.3091502 0.4090038 0.22447634 0.3722034 0.3107205 0.13880476
0.2587862 0.49321443 0.36192426 0.4883697 0.37237036 0.6600015 0.20524012 0.50545245
0.2741239 0.06553493 0.26927844 0.3130955 0.24639608 0.52194124 0.2652692 0.29934236
0.19490944 -0.029592127 -0.054285496 0.21468495 0.29042014 0.19692287 0.2966996 0.053958602
0.19532326 0.2925743 0.13657048 0.4304013 0.39682695 0.3149517 0.23169984 0.17052008
0.24453494 0.073701516 0.16283908 0.21707338 0.018314524 0.4283111 0.13344389 0.10668314
0.2043439 0.05874813 0.0046791425 -0.016906098 0.029555434 0.33289865 0.31967932 -0.055361666
0.29051238 0.120814934 0.054287363 0.2721557 -0.002257447 0.2981523 0.18119696 0.16116859
0.13757053 0.17650022 0.24179712 0.1581446 0.0840578 0.18580851 0.31523153 0.058149997
0.087793365 0.03756162 0.1449359 0.14709988 0.093102515 0.32665908 0.056245726 0.05068761
0.41081548 0.03412365 0.3194705 0.12661804 0.21578869 0.46685836 0.26570258 0.042538557
0.226708 0.027244205 0.12041141 0.25988093 0.11166609 0.38950145 0.20328997 0.035581794
0.38005587 0.19289568 0.41485602 0.61097866 0.33682108 0.16377474 0.3533637 0.32750618
0.183193 0.064861596 0.13915232 0.22094035 0.06842513 0.12240739 0.09396958 0.17616339
0.13035147 0.07946836 0.18679322 0.29120314 0.09638611 0.19848393 0.003400435 0.15957448
0.24435203 -0.0023506857 -0.035973012 0.18727699 0.19922987 0.19276588 0.2219791 0.2382057
00000000: 64a9 803e f135 a93a 12f6 a3bd eb9a c93d
00000010: 6903 363d 3857 4b3e fcce 093e 1990 2d3e
00000020: ce73 f53b 95a3 a03e 5435 a13e f4ed 4a3e
00000030: ad5d 853e df05 093f 918b f13e 8a62 0b3e
00000040: d0e2 473e 82e0 023e 55df 023e aa1e 873e
00000050: 8b5e 7ebc 357f c53d fe75 e13d e9df a43d
00000060: d477 323e d1ed 5b3d 7b5b 243e 1a7c 0a3e
00000070: d217 173e c4aa 583e a896 a93d 31c8 7d3e
00000080: 93b5 3a3d d635 863e e3bb 723e cdf6 843e
00000090: 0b5e 3b3e 2afc df3e 59c7 2d3e 05ef f13d
000000a0: 4b9a 973e 07b2 10bd 21a9 1a3e d19c 033e
000000b0: 90dd eb3d 847e c43e 9133 363e a70a d73d
000000c0: 997b 853e 2c44 863d d80f 0b3e 14d4 143e
000000d0: e95b 6f3c 1c74 9e3e 4e74 3c3e a179 273e
000000e0: 053b b13e dd19 28bd bb63 233e 6f7d 003e
000000f0: 3203 083e 83f6 c83e 4c32 143e cf68 803e
00000100: aec6 163e 448a 543e b50e c43d 72df a63e
00000110: 63fb b53d 6bca 4b3e f12c a63e 6325 233d
00000120: 4e4d 543e b8c0 d03d dc8c 6f3e ec06 b33e
00000130: 5277 c53e 5d61 1a3e c773 413e 0229 583e
00000140: b04c d33d ecb9 163e 38cf 463e 931e 1c3e
00000150: 92b7 5c3d 6c2f 2d3e 1e50 9b3e deec 2f3e
00000160: b09e 313d 013f eb3d b3c9 dc3c 831b 6b3e
00000170: cc6a 8c3e 9a8e 233e afa2 e63d 11b8 0b3e
00000180: 8bbf 8c3e ca23 8c3d b7c0 3d3e abfc 973e
00000190: 48ac ef3d 7677 c33e 3598 913e d160 383e
000001a0: 40d1 873e a2c1 57bd 6790 773e 025c e03d
000001b0: b160 083e 2a38 863e 4fae 0f3e 4c0c d63d
000001c0: 0db0 2a3e 9407 b93c 47f4 f33d 40dd af3d
000001d0: 9e6c f23d 0bca ac3e 869f 633e a5e0 823d
000001e0: e062 383e d498 ac3d 7da5 04bd acd9 043e
000001f0: d853 063e f243 553e ae75 ae3e 3902 b1bc
00000200: 4b2e 163e 62de 9c3e ef48 9e3e f268 d13e
00000210: 20dd 653e 7291 be3e c216 9f3e d622 0e3e
00000220: a07f 843e 9a86 fc3e 234e b93e 980b fa3e
00000230: 54a7 be3e dcf5 283f 772a 523e 5565 013f
00000240: f859 8c3e 2d37 863d ddde 893e 0e4e a03e
00000250: 414f 7c3e f19d 053f 5dd1 873e 6743 993e
00000260: 5796 473e 306b f2bc 785a 5ebd 5fd6 5b3e
00000270: f3b1 943e 26a6 493e 03e9 973e b203 5d3d
00000280: d202 483e 4ccc 953e 22d9 0b3e 8f5d dc3e
00000290: e72c cb3e 5941 a13e b942 6d3e d19c 2e3e
000002a0: 5e67 7a3e d2f0 963d 4abf 263e 7c48 5e3e
000002b0: 5708 963c 984b db3e 84a5 083e b17c da3d
000002c0: 873f 513e e1a1 703d 7e53 993b a87e 8abc
000002d0: 3d1e f23c b171 aa3e 02ad a33e eac2 62bd
000002e0: 0abe 943e d26d f73d 6d5c 5e3d fe57 8b3e
000002f0: adf1 13bb 6ba7 983e b28b 393e 6109 253e
00000300: 4adf 0c3e 79bc 343e aa99 773e a8f0 213e
00000310: 7f26 ac3d 9644 3e3e 0766 a13e b12e 6e3d
00000320: 02cd b33d 37da 193d 146a 143e 5aa1 163e
00000330: 88ac be3d dc3f a73e eb61 663d d09d 4f3d
00000340: 6856 d23e 3ec5 0b3d a391 a33e 29a8 013e
00000350: b6f7 5c3e 0f08 ef3e 2b0a 883e e93c 2e3d
00000360: 2426 683e 3d2f df3c 429a f63d 1d0f 853e
00000370: 31b1 e43d bc6c c73e 3f2b 503e 37be 113d
00000380: af96 c23e 7286 453e 0268 d43e 1969 1c3f
00000390: d073 ac3e 91b4 273e 16ec b43e e4ae a73e
000003a0: f296 3b3e 28d6 843d f27d 0e3e 303e 623e
000003b0: 7922 8c3d bab0 fa3d 2073 c03d 2d64 343e
000003c0: db7a 053e 4fc0 a23d b946 3f3e 9418 953e
000003d0: 1566 c53d 5f3f 4b3e d5d9 5e3b 7e67 233e
000003e0: 6b37 7a3e f60d 1abb 7058 13bd 8ac5 3f3e
000003f0: ea02 4c3e 6b64 453e 7d4e 633e 32ec 733e

item_factors f4 [2500, 8]
-0.0683515 -0.18990387 0.03041917 0.096031174 -0.20010239 0.35305846 0.35991496 0.018512819
0.009506129 0.10433937 0.12018997 -0.0098824045 -0.10881454 0.20789544 0.04616783 -0.06896819
0.030410003 0.086339876 0.10295029 0.007603802 -0.07307929 0.040359467 0.09617335 -0.08623914
0.042051863 0.15380204 -0.079558976 0.004854791 -0.011510994 -0.0018946081 0.06351644 -0.044584606
0.057780195 0.22861145 0.011688789 0.024057934 -0.09779614 0.05273548 0.052678946 -0.13236599
0.34104285 -0.12395239 0.07125036 0.23401074 0.006974523 -0.022351317 -0.23639095 0.12795724
-0.054683123 0.102899276 0.045016315 0.1040127 -0.13641007 -0.029766891 0.25995266 -0.07058917
0.020756753 0.0454137 0.010853373 -0.020586137 -0.0021147716 0.03370076 -0.0011460725 -0.027067948
0.079008654 0.059115745 0.039371926 -0.0068829516 0.01553429 0.012600732 -0.0815908 -0.023743173
0.11197466 -0.00046370216 0.32390514 0.21660885 -0.12477053 0.21380647 -0.20037615 -0.15905952
0.06028455 0.14825958 -0.05024712 0.2726575 -0.07962756 -0.12320371 0.28900304 -0.08641675
0.09995466 0.12194684 0.047352754 -0.11564602 0.048127443 0.043703854 -0.04692527 -0.03197837
0.06414302 0.11581407 0.032567475 -0.07066113 0.043057617 0.033397954 -0.014303178 -0.07496987
0.12567995 0.15131043 -0.05634483 -0.0067031817 0.060271934 -0.07273604 -0.01618018 0.023078114
0.007995919 0.011031659 0.09581757 0.032121293 -0.033733185 0.045570128 -0.010829984 -0.06878325
0.12654828 0.008811071 -0.0069589894 0.25172725 -0.10348892 -0.11021959 -0.025208017 0.20931637
-0.17380743 0.063898936 -0.20699655 0.25496554 -0.01821043 -0.040219527 0.24880435 0.16185154
0.13008818 0.09906834 0.049739014 -0.06407775 -0.06969726 0.016164282 -0.04457517 0.10024529
0.12873764 0.22395131 0.05607784 -0.1342053 -0.026033487 0.026577678 0.00791428 -0.030112945
0.12462418 0.093663715 0.06368401 -0.0009886678 -0.0032460438 0.004066576 -0.07711288 -0.070128664
0.14286892 -0.12304198 0.03258245 0.3041777 -0.24412443 0.027182812 0.07718194 0.23329388
0.16557585 0.19486524 0.02865535 0.08369761 -0.056390796 -0.07078378 -0.0211443 -0.035520393
0.15419738 0.1384563 0.06574874 0.024573153 -0.047790047 0.0072254827 -0.10877099 -0.06903267
0.04464905 -0.054380454 0.11272343 0.07980091 -0.14227292 0.19524923 -0.015414549 -0.028236758
0.12472203 -0.08478004 -0.072691135 0.27411538 -0.20646627 -0.06979211 0.09055849 0.25222018
-0.030530617 0.01693745 -0.01634292 0.04353952 -0.018276233 7.3466574e-05 0.033121392 0.07256464
-0.005014516 0.046035465 -0.0023931698 0.03452357 -0.04702517 -0.016571395 0.059669685 -0.0064534117
0.03855963 0.13263066 -0.14164862 -0.021943407 0.08370982 -0.009974667 0.026998224 0.06956876
0.027482579 -0.1552998 0.061498545 -0.13607842 -0.012398059 0.14603055 0.007161827 0.2653691
0.028441144 0.051496238 -0.06670286 -0.028922876 0.07214241 -0.024095733 -0.00047484617 0.07610453
0.0196122 0.066346414 0.024456408 0.090341516 -0.10538964 0.017988099 0.054601464 -0.0785254
0.01011449 -0.13890807 0.074554995 0.20528369 -0.12949316 0.16656996 -0.060292687 0.27873853
00000000: dffb 8bbd 2976 42be a031 f93c feab c43d
00000010: a4e7 4cbe 14c4 b43e c646 b83e 32a8 973c
00000020: 98bf 1b3c e1af d53d 2926 f63d cfe9 21bc
00000030: 28da debd 8be2 543e 7a1a 3d3d 323f 8dbd
00000040: 661e f93c f6d2 b03d 9ad7 d23d 5029 f93b
00000050: 98aa 95bd f84f 253d 89f6 c43d 259e b0bd
00000060: 933e 2c3d 487e 1d3e d1ef a2bd f014 9f3b
00000070: 9c98 3cbc 8054 f8ba e814 823d 599e 36bd
00000080: edaa 6c3d 1f19 6a3e 5682 3f3c 2515 c53c
00000090: 5849 c8bd 2901 583d e1c5 573d f38a 07be
000000a0: 2b9d ae3e c0da fdbd b5eb 913d 83a0 6f3e
000000b0: 8a8a e43b 1c1a b7bc 7810 72be 3907 033e
000000c0: 69fb 5fbd dbbc d23d 0763 383d 9c04 d53d
000000d0: 15af 0bbe b2d9 f3bc 8418 853e 0e91 90bd
000000e0: 110a aa3c b703 3a3d 59d2 313c 42a4 a8bc
000000f0: fb97 0abb cf09 0a3d d037 96ba 9abd ddbc
00000100: 4acf a13d 5a23 723d 7544 213d 628a e1bb
00000110: 8983 7e3c 4d73 4e3c 1419 a7bd 0b81 c2bc
00000120: f852 e53d 0d1d f3b9 e5d6 a53e b6ce 5d3e
00000130: b187 ffbd 15f0 5a3e 682f 4dbe 80e0 22be
00000140: efec 763d 5cd1 173e edcf 4dbd c499 8b3e
00000150: c613 a3bd 3a52 fcbd 35f8 933e 44fb b0bd
00000160: 07b5 cc3d 44bf f93d f6f4 413d d2d7 ecbd
00000170: 4821 453d d002 333d b634 40bd c0fb 02bd
00000180: 6a5d 833d ed2f ed3d 7965 053d c8b6 90bd
00000190: 2f5d 303d 4bcc 083d e057 6abc ce89 99bd
000001a0: 3fb2 003e 1ff1 1a3e d6c9 66bd 5da6 dbbb
000001b0: b4df 763d a2f6 94bd 4c8c 84bc 500e bd3c
000001c0: 5101 033c 22be 343c 013c c43d 9e91 033d
000001d0: cf2b 0abd bea7 3a3d 3f70 31bc 3cde 8cbd
000001e0: df95 013e 4f5c 103c 3c08 e4bb 65e2 803e
000001f0: 00f2 d3bd cfba e1bd 0b81 cebc 0857 563e
00000200: 93fa 31be 72dd 823d e7f6 53be d88a 823e
00000210: 0a2e 95bc 3bbd 24bd 91c6 7e3e 69bc 253e
00000220: d635 053e 58e4 ca3d 23bb 4b3d 323b 83bd
00000230: 70bd 8ebd f56a 843c 7494 36bd 674d cd3d
00000240: cdd3 033e 7e53 653e e1b1 653d 1d6d 09be
00000250: 2e44 d5bc 6eb9 d93c e5aa 013c 6caf f6bc
00000260: f63a ff3d c3d2 bf3d c36c 823d 3096 81ba
00000270: 94bb 54bb e940 853b 5ced 9dbd 9e9f 8fbd
00000280: 3b4c 123e 6ffd fbbd 2d75 053d 2ebd 9b3e
00000290: c1fb 79be 7dae de3c 9111 9e3d 97e4 6e3e
000002a0: b78c 293e c18a 473e a0be ea3c a769 ab3d
000002b0: 09fa 66bd 16f7 90bd d036 adbc d57d 11bd
000002c0: ebe5 1d3e 7dc7 0d3e 47a7 863d a34d c93c
000002d0: 7fbf 43bd bec3 ec3b 53c3 debd 0061 8dbd
000002e0: ece1 363d 0abe 5ebd 8bdb e63d a96e a33d
000002f0: feaf 11be 6aef 473e 4e8d 7cbc c650 e7bc
00000300: 436e ff3d 28a1 adbd 17df 94bd da58 8c3e
00000310: e56b 53be 2aef 8ebd bb76 b93d 0123 813e
00000320: 581b fabc 68c0 8a3c 96e1 85bc 7f56 323d
00000330: 0ab8 95bc 1112 9a38 4caa 073d c59c 943d
00000340: cf50 a4bb af8f 3c3d bad6 1cbb 9668 0d3d
00000350: 779d 40bd bcc0 87bc 3368 743d 2477 d3bb
00000360: b4f0 1d3d 55d0 073e 560c 11be a9c2 b3bc
00000370: 0e70 ab3d c96c 23bc 612b dd3c 117a 8e3d
00000380: 2523 e13c e906 1fbe e6e5 7b3d 2458 0bbe
00000390: 3a21 4bbc 0889 153e c2ad ea3b 75de 873e
000003a0: 67fd e83c b8ed 523d 829b 88bd abef ecbc
000003b0: 66bf 933d 6a64 c5bc c6f4 f8b9 b1dc 9b3d
000003c0: c4a9 a03c a1e0 873d ce58 c83c f904 b93d
000003d0: 86d6 d7bd c75b 933c c9a5 5f3d edd1 a0bd
000003e0: 3fb7 253c eb3d 0ebe 4ab0 983d e335 523e
000003f0: db99 04be 5191 2a3e 77f5 76bd d1b6 8e3e

regularization f8 []
0.1
00000000: 9a99 9999 9999 b93f

alpha f8 []
0.1
00000000: 9a99 9999 9999 b93f
