movielens/models/model_factors_32.npz (npz, 579131 bytes, 2 tensors)

user_factors f4 [2000, 32]
00000000: d282 36bd f0b0 67be d9ef 093f f10b a6bc
00000010: e31b f9be 7a86 7fbe 944b 6d3f d81f 453e
00000020: 17bc 15bf 7e33 523f f083 1ebe 38ca 4dba
00000030: c6d3 b2be f499 58be 6f00 f03e 5078 8a3c
00000040: 30ea b63e 6fb2 cb3e dfde 233f 0060 dfbe
00000050: 9d15 1e3f cbc7 883f 766e 2f3f aeba 273f
00000060: b1bf 2c3f 9990 00bf 0f17 0e3e 43fd 35bf
00000070: af5c 863e d93f 843d 26bf 2d3e d26b 643e
00000080: eed0 9a3e 0519 1a3d 4f63 e93f d60a 903e
00000090: 9930 7a3e 51b8 0c3f 4842 753e c4ac 9e3f
000000a0: 7d71 8c3f 2376 953f 1a39 f63e 5082 15be
000000b0: 22bf 3c3e efe5 f93e c7e6 9b3e c286 cd3e
000000c0: 69c9 4d3f fb03 893f c832 be3e 722d 9e3c
000000d0: 6269 7e3e 3633 db3e bce1 c23f 0dc0 853f
000000e0: 074b 683f a4b0 2d3f 1183 813e cae9 9f3d
000000f0: 47a8 083f 9d5f 243e 3e65 6b3f 1d12 0f3f
00000100: c51f 77bd 7864 d3be 72ba 753f 6b9f 693e
00000110: 68ad 043d 0341 093f 0306 a93e d38a 393f
00000120: 5e01 bd3d 0423 7fbc b7e6 5b3b f199 4fbd
00000130: 3a3d 20bf faa4 e6be 8461 693f acbd 65be
00000140: c0bf 9abd c31c 0f3f ae74 003f 44ee 3dbe
00000150: edcb bbbd 916e b93e 1a51 af3f a793 c93d
00000160: c537 ce3e ae78 a63e c9e4 57be 28c2 91bd
00000170: 60a0 183f fe29 14bf 0834 50be 91c1 ca3d
00000180: d477 9e3f c72f 1a3f 8e20 0a3f ae4d ab3e
00000190: da2e 29be 46fe d8be affc 1d3f 92ef 203f
000001a0: 9a0b 933e 5258 213f 70ab 7f3e d04f c43d
000001b0: 728b edbe 2e7d 453e 64e6 0f3f f558 893e
000001c0: a63b b33e 8035 1f3f cd23 063f e629 fabd
000001d0: d373 723e 231c 7d3f 1331 993f 0007 343f
000001e0: 80aa 7a3f b42b fb3e facc 233f 051a 2abf
000001f0: 787e 7d3f 11bc 3d3f 7a1f 193f f164 ff3e
00000200: 6443 6cbe d855 1d3e 2dee b43f be5d b63e
00000210: fd53 71be 7be0 fc3e 15c1 263f fbf2 3c3f
00000220: 3ef1 0d3f e0bd 733f 3c12 773d 8b23 f93e
00000230: a274 e03c 07ad 533e d36b 323f 98ff a3bd
00000240: 5b77 203e 9664 aa3f 51ad 4e3e a15a 833e
00000250: 3f74 18bd b85e 0c3f 3eee bd3f 0bdb c63f
00000260: d6e0 253f 49fc 883e e43a ef3e 259a c73e
00000270: a5bb 323f 9aa6 d23e 79a4 263f 8edd 8e3c
00000280: ea95 4e3f fa61 97be bf6e 9d3f 7965 d33e
00000290: fab7 08bf dbc7 e83e cb17 433f fad0 673f
000002a0: 07cb e03d 3966 e83e 01c5 143e 0131 c63e
000002b0: 611c 03be de89 2dbe cbeb 6b3e 66cf 5e3e
000002c0: c4e8 9d3f 1260 243e d07c c13e 28b2 1fbe
000002d0: 7d0f 063f 77df b73e 6147 a63f 0274 063f
000002e0: 10de 5a3f 5eaa 1d3d 2183 353f 978f 853d
000002f0: 183e 813e 3ffe 70bd 112f bb3d 5521 c93e
00000300: fd4d cbbe 1126 b1be 3db0 1a3f ffdf 91bd
00000310: e769 16be b47c 253f a9e0 333f de15 c73f
00000320: ef77 173f 82f3 0a3f d746 c9be bb83 6b3d
00000330: 784b a0be 5f70 1ebe aeab 2c3f e350 a83e
00000340: 7cde 1a3f 8607 f4bd cc49 b53c 3c78 8ebe
00000350: c845 a03e 9cc0 1f3f 721f 273f 3119 853e
00000360: 8af4 353f c811 10bd d40f bc3e fe4a f6be
00000370: 4402 e73d cc40 d93e 93da 843f 38a8 70be
00000380: f4ce 1b3f 3b35 22be 5512 e13e ae4b 6abd
00000390: 66af d5bd f9cc 753e f356 7f3f 20e7 5b3f
000003a0: b9fc 2f3f 0972 8f3f dbc3 883e 16c0 4bbe
000003b0: 504b 84be 545c 243f a777 ba3e 835e 013e
000003c0: b55e 913f d2f2 003f f4e0 063f ece9 483e
000003d0: d147 b53d 35d9 a43f 571b 8a3f 1b8c 573e
000003e0: 3672 493f a8f3 563d 281c 323f 2c6c 19be
000003f0: e21f 123f 86f5 8d3f 9019 d03e 6972 2d3e
-0.044558354 -0.2262609 0.53881603 -0.020269366 -0.48654088 -0.24953642 0.9269345 0.19250429
-0.5849013 0.8210982 -0.15480018 -0.00078502623 -0.34927195 -0.21152478 0.4687533 0.016903073
0.35725546 0.39784572 0.6401195 -0.4362793 0.6175173 1.0685972 0.68527925 0.65519226
0.6748 -0.5022064 0.13875984 -0.7108957 0.26242587 0.064574905 0.16967449 0.22306755
0.30237526 0.037621517 1.8233432 0.28133267 0.24432601 0.54968745 0.23951066 1.2396474
1.0972134 1.1676677 0.4809044 -0.14600492 0.18432286 0.48808238 0.30449507 0.40141875
0.8038545 1.070434 0.37148118 0.01930878 0.24844888 0.42812508 1.5225139 1.0449234
0.9073948 0.6784766 0.25295308 0.078082636 0.5338177 0.16052099 0.9195136 0.55887014
-0.060333032 -0.4128759 0.9598762 0.2281472 0.032391936 0.53614825 0.330124 0.72477454
0.092287764 -0.015572313 0.0033554265 -0.05068392 -0.62593424 -0.45047742 0.9116442 -0.22435635
-0.07556105 0.5590326 0.5017804 -0.18547922 -0.09169755 0.36217168 1.3696625 0.098426156
0.40276924 0.32513946 -0.21083368 -0.071171105 0.5961971 -0.57876575 -0.20332348 0.09900201
1.2380319 0.6022915 0.53955925 0.33457702 -0.16521779 -0.42381495 0.6171369 0.62865555
0.2871979 0.6302539 0.24967742 0.095855355 -0.4639545 0.19286034 0.56210923 0.2682568
0.35006446 0.6219101 0.5239838 -0.12215023 0.23676996 0.9887106 1.1968101 0.7032318
0.9791641 0.4905678 0.63984644 -0.6644595 0.990211 0.7411509 0.59813654 0.498817
-0.23072582 0.15364778 1.4135185 0.35618395 -0.23567195 0.49390015 0.6513837 0.7380826
0.5544623 0.952116 0.060320124 0.4865993 0.027399365 0.20671473 0.69695777 -0.08007735
0.1567053 1.3311946 0.20183302 0.25655082 -0.037220236 0.5483203 1.4838331 1.5535597
0.647962 0.26754978 0.46724617 0.3898479 0.6981757 0.41142732 0.65094715 0.01743963
0.806975 -0.29566938 1.2299422 0.41288355 -0.53405726 0.45464978 0.7620818 0.9055325
0.109762244 0.4539049 0.14528276 0.38709262 -0.12803794 -0.16947123 0.23039167 0.21758804
1.233666 0.16052273 0.37790537 -0.15595305 0.52367383 0.35912678 1.2990533 0.52520764
0.8549509 0.038492553 0.7090321 0.06521528 0.25242686 -0.058836218 0.091398366 0.39283243
-0.39707938 -0.34599355 0.6042517 -0.07122802 -0.14688836 0.64643407 0.7026468 1.5553548
0.5916738 0.54277813 -0.3931186 0.057498675 -0.31307578 -0.15472554 0.6744946 0.32874212
0.60495734 -0.119154975 0.022129916 -0.27826107 0.3130324 0.62403274 0.65282357 0.25995782
0.7107626 -0.035173208 0.36730826 -0.4810409 0.11279729 0.4243225 1.0379204 -0.2350167
0.6086266 -0.15840618 0.439593 -0.05720108 -0.10433845 0.24003972 0.9974205 0.85899544
0.68745 1.1206676 0.26711926 -0.19897494 -0.2583871 0.6420338 0.36419412 0.1263371
1.1357027 0.50370514 0.52687 0.19620484 0.088515885 1.2878786 1.0789593 0.2104954
0.786899 0.052478462 0.69574213 -0.1498267 0.570799 1.1090553 0.40644503 0.16938175

item_factors f4 [2500, 32]
00000000: f289 453d 6232 8fbd 5d34 113e d51e 8ebc
00000010: 35b6 12be 152d 26bd c158 093e b14a 303e
00000020: 3097 153d 57a7 4c3d 0593 04be 6aac dabd
00000030: e0bd 1bbe 8204 ec3c 58d4 aa3d f3f0 3abd
00000040: 5945 663d 1269 d03d fee3 a9bc b812 0cbe
00000050: d40d 81bd 3902 0e3d fe9c 493e f208 593d
00000060: b680 293d d8f4 03bd 5dd7 8f3d 5010 ecbd
00000070: 7176 243d 1153 b3bc 98c1 0cbd d6da 85bd
00000080: 63bc 783c ad6f 1dbe 1bbe 873e 9982 23bd
00000090: 5440 9fbd 47ed 843c 32bd cfbc 0f1b 283e
000000a0: 9ded 953d d412 03bc f31f 8dbd f3f3 e2bd
000000b0: 777d 15be 6c95 1dbc 5a84 1f3e 1c94 18bd
000000c0: 1924 c3bc c844 253e 143f 11be a46f 463d
000000d0: 0858 b7bd 78bd 413d 7481 253e 600c 00be
000000e0: 29c7 173e f6ae 18bd 44f4 a93d 0040 9d3c
000000f0: f25a 023d 1c95 283d 05a4 00bd c390 c7bd
00000100: ffba 58be 6bca 1cbd 35e2 bc3d 01bb 1e3e
00000110: 580f 85bc 3da4 513e cad4 bcbd bceb a73e
00000120: 4734 453e a723 d03c 2e0b 333d ea8d 8abb
00000130: 9571 72be bfec 8dbc 4368 a6bc 8fb9 05be
00000140: 45cc 92bc 9c4e b63c c9c9 df3c f1f4 18be
00000150: 5d3c c9bd bf71 423e 0f79 c0bb be27 d3bc
00000160: e3a1 b7bd fd2f e83d c15a 823d 225f 37be
00000170: ba28 84bc f834 06be 192a 233e 39a1 5a3d
00000180: 8745 28be 8c2e d03d 92a8 143e 2458 8ebd
00000190: a2c3 0d3e e2a9 16be 6fce 563d f3c4 e63d
000001a0: 538e d7bd bb52 ed3d 343c 083e b501 513e
000001b0: 85fb 00be ed3f 23be 7c36 2a3e ba19 873c
000001c0: 62a4 363e 0434 583e 7e48 1cbe 4e86 d23d
000001d0: d188 903b 9afa a539 f0fd bb3d 724f 3e3e
000001e0: 528e 59bd dab2 133e ba64 a3be a45d f2bd
000001f0: 29ef 87bd b7ad d93c c93f 21be 8f9a 83be
00000200: 2b02 92bd fa80 893d 3fa1 613e 8a57 063c
00000210: 97c0 883d 4ab7 ce3d 804d 1b3d 05e7 b03d
00000220: a007 6e3e b6a1 d53d daf0 0a3e 9d25 853c
00000230: ba1a 33be 8473 32be 3636 b03d 8473 44be
00000240: 38e8 e43d 7eff 8a3d a1ee eebc a5b0 d3bc
00000250: 51ae f1bc de48 0a3e e918 3dbd e428 17be
00000260: 60f4 5abc b2ea 873e 58c3 25be 7b6e 2abe
00000270: a7df ccbd f7f5 f6bd 09b5 583d a5f1 58bd
00000280: 6dbd 2cbb 888f 5abd 8b8a 55bd 8152 25bd
00000290: 4e7b 1ebe 89e4 a33d da3f 863e 7ac1 0b3e
000002a0: a86c ac3c 80e1 003d 8900 f4bd 9014 bb3c
000002b0: b845 30be 1a34 183c a5d9 6a3d 3e8d b6bd
000002c0: 1ba4 33bd 3b28 663d 44d7 84bd 3efc 2bbe
000002d0: 778d 6ebd e3f3 533e b25f 293e ccc5 b5bb
000002e0: 85b8 bf3d 769e 6d3d 5824 383d bd37 8abd
000002f0: 414e 073e b498 c7bb ffb9 2fbd 8845 b6bb
00000300: cfa9 b0bd a3ca 17be 81e0 9f3d 29b6 eb3c
00000310: c8fc bfbc f7e0 7fbc c0fb f13d 78ae 2b3d
00000320: f659 6d3e c952 833e 5210 753e 1ee6 50bd
00000330: 7c6b 0ebe bf76 ec3c 3868 483e 8184 6bbd
00000340: 4b08 0b3d de2f 8d3d 2c7c 4a3d 19f4 b5bd
00000350: 6aff a3bc 3208 7ebd 65e6 d2ba 9c20 b6bd
00000360: 3a71 aebd 082e 233e 33b4 a1bd 2739 07be
00000370: bca9 983c 93e6 50bd df41 8ebd 8c4d fb3b
00000380: 4820 553d 13fd 34be 39e4 0f3e 7e77 47be
00000390: 75df 913d 6fdc 303e 30a6 b5bd a97b 30be
000003a0: 9745 683c 045e 31be 8cab 34be 6b12 fa3c
000003b0: fc7f 90be 5c51 2cbe 512a 5f3d e905 72be
000003c0: ba69 e73d 9e61 833e 98d7 8fbd c193 6c3e
000003d0: 6888 f93d 8c9b 153c 76ee 833e 7422 313c
000003e0: ec58 183e 290a 8e3b bd30 1f3e 169c 753d
000003f0: a038 3cbe d200 d93b e5bf 5e3e 23f6 053c
0.048227258 -0.06992032 0.14180131 -0.017348686 -0.14327319 -0.040570337 0.13412763 0.17215993
0.036521137 0.049964275 -0.12946709 -0.106774166 -0.1520915 0.028810743 0.083412826 -0.045639943
0.05621848 0.101762906 -0.020738598 -0.13679016 -0.06301466 0.03467009 0.19688794 0.052987047
0.041382514 -0.032215923 0.07023499 -0.11526549 0.040152017 -0.021890195 -0.034364313 -0.0653588
0.015181634 -0.15374632 0.26512226 -0.03991947 -0.077759415 0.016226424 -0.02535877 0.16416572
0.07320712 -0.008000094 -0.068908595 -0.11081686 -0.14598642 -0.0096181445 0.15577832 -0.037250623
-0.023820924 0.16139519 -0.14184219 0.048446313 -0.089523375 0.047299832 0.16162664 -0.1250472
0.14822067 -0.03727623 0.08298543 0.019195557 0.031825013 0.041157827 -0.03140642 -0.09744408
-0.21165083 -0.03827898 0.09222833 0.15501024 -0.016242668 0.20472808 -0.09220274 0.3279704
0.19258223 0.025407625 0.043711834 -0.0042283433 -0.2367614 -0.017324803 -0.020313388 -0.13059066
-0.017919669 0.02225428 0.027317898 -0.14937188 -0.098259665 0.18988703 -0.0058738063 -0.025775786
-0.08966424 0.11337278 0.06364966 -0.17907384 -0.016132701 -0.13106143 0.15934028 0.05337641
-0.16432773 0.10165128 0.1451743 -0.06950405 0.13844159 -0.14713243 0.052442964 0.11268034
-0.10525193 0.11588045 0.13304216 0.20410807 -0.12595947 -0.15942355 0.16622347 0.01649176
0.17836145 0.21113592 -0.15262029 0.10279523 0.004410841 0.00031657965 0.09179294 0.18584993
-0.053114243 0.14423695 -0.31912786 -0.11834267 -0.06637413 0.026572092 -0.15746988 -0.25703856
-0.0712932 0.067140535 0.22034167 0.008199582 0.066773586 0.10093553 0.037915707 0.086378135
0.23245096 0.104312345 0.1356844 0.016253287 -0.17490664 -0.17426878 0.0860409 -0.1918469
0.11177105 0.067870125 -0.029166522 -0.025841067 -0.029502066 0.13504359 -0.046166334 -0.14761692
-0.013363928 0.26546246 -0.16187799 -0.16643707 -0.10003596 -0.12058633 0.052907024 -0.052964825
-0.0026358024 -0.05335954 -0.052134078 -0.040361885 -0.15476725 0.08002574 0.2622059 0.13648024
0.021047905 0.031465054 -0.119141646 0.022836953 -0.17214096 0.009289766 0.05733647 -0.089136586
-0.043857675 0.05619071 -0.06486371 -0.16795442 -0.05824038 0.20698504 0.16540411 -0.005547261
0.09361366 0.05801245 0.044956535 -0.067489125 0.13213445 -0.0060912017 -0.04290199 -0.005562488
-0.086261384 -0.14823394 0.078064926 0.028773384 -0.023435965 -0.015617601 0.118155956 0.041914433
0.23178849 0.25649098 0.23932007 -0.051000707 -0.1390819 0.028865216 0.19571006 -0.057499412
0.033943456 0.068938956 0.049434826 -0.088844486 -0.020019252 -0.062019534 -0.0016090391 -0.088929385
-0.0851769 0.15935528 -0.078956984 -0.13205396 0.018635623 -0.051001143 -0.06946158 0.0076691564
0.05203274 -0.17674665 0.14051904 -0.19479176 0.07122699 0.17271589 -0.088695884 -0.17234673
0.014176748 -0.1732102 -0.17643565 0.03052636 -0.28222644 -0.16827911 0.054483715 -0.23635067
0.112994626 0.25660414 -0.07023543 0.23103239 0.121842206 0.009131324 0.2576787 0.010811437
0.14877671 0.0043347073 0.15545936 0.05996331 -0.18380976 0.0066224122 0.2175289 0.008176359
