movielens/models/model_ground_truth.npz (npz, 579131 bytes, 2 tensors)

user_factors f4 [2000, 32]
00000000: dfd7 b4bd 5b56 513d df20 9ebd 5baa b5bd
00000010: c0ee 0b3e 5300 313e bda5 79be ef7f 0e3e
00000020: 53a5 afbd 5ba6 7f3d 3dcf 8cbe 77c9 d63d
00000030: ac33 ee3b fda9 95be 6e8d d9bc 95f4 bb3e
00000040: b600 8d3e 610a d5bc d69f a83e c9c0 d1bd
00000050: 0c4c 913d 34d6 3cbc e101 82bd e103 bd3d
00000060: 5ce4 c73d 426e 88bc e6d1 823e 227d 3d3e
00000070: 5db8 2abe 253c 733d 0c3d 66bd 2ec2 703d
00000080: 56d1 a2be 9f45 8d3c 5577 703e 1052 0c3e
00000090: 0d2a a93e af66 b93d 03dd 3a3e 2ca6 513c
000000a0: 0ba8 6b3e 54f0 a7bd 4860 6b3e 6ebd a43d
000000b0: 47b9 d83e 39de 0d3e a772 53be abfc 1d3e
000000c0: 17b0 1d3d 4a0d 9e3e 35bd 8ebc 216e c73e
000000d0: 982e 2a3e f800 44bd 3893 a43d 82f3 6c3d
000000e0: 4ae7 1b3f 9a5d 75bd dc93 983d edc5 b33d
000000f0: f18f 083e 2956 82bd 2fb8 a13d c450 debe
00000100: 51b8 edbd 7d79 fc3d 539d b73d 2cc0 24be
00000110: bba3 873e 70bf 05bd 6d18 40bd 16f0 753e
00000120: f408 00be 35b3 97be 5ac8 5f3e 809e 9b3e
00000130: 63f9 13be bf11 0b3d 406c 183e bc20 1d3e
00000140: a0f1 84bd f4df ccbc 1228 6f3e 542c 9d3c
00000150: 7c4d 47bd 010a 8f3d 2539 a7bb b990 9b3d
00000160: 2841 7c3d 2023 72be 590a 9a3d 1134 073e
00000170: f8dd 9a3e 2867 023e 43c5 cbbe b413 1ebe
00000180: c0dd 6ebe 2f15 90be 3df6 ed3d f5e1 8c3e
00000190: d00d a53e d49f 84bd e30e c7bc 96fe ba3d
000001a0: d0bc 31bc fc63 9bbd f3b9 e5bd 3994 533e
000001b0: 840c b2bd 6775 5fbe f554 90bd ae26 7e3c
000001c0: 4357 2d3d 37c5 b43c 86b5 bf3c 3eda b03e
000001d0: 96a3 7fbe eabb 2e3c 841a bc3e 516b 573e
000001e0: 2685 bb3d 52bf fdbd 833d b73e e0e9 503e
000001f0: c71c 98be ecd6 5f3e 756b 9ebd 91a6 a03e
00000200: 1fe5 2bbe 39d9 0a3d 3db9 9f3e d221 adbe
00000210: 2a71 19be c306 593e 928b b23e a04e 793e
00000220: e58f 38bd e9cb 3bbe 37c2 ce3d 962e 7ebe
00000230: 90c1 cd3e 907a fdbc 9a5d e2bd 861f 733e
00000240: be84 a93e 8eae 343e ab28 23bc e676 8c3e
00000250: b1ea 22bd 6297 003e 685c 3dbb d4c6 9c3d
00000260: 076e b83e 2292 1fbe eb36 d13e 9556 60be
00000270: 15f5 1b3e a2df fe3d 97fe e73a 6a2b 5ebd
00000280: 5d01 c3bd 232b 603a 3b4c 843e 5387 483e
00000290: 5191 293e 61e2 4d3e 6917 133d a9ff ea3e
000002a0: 01e9 bb3c 95b8 9abe 99cc f63c a089 c4bd
000002b0: 297b 9fbc a9bd 0c3d fe53 01be c49d aa3e
000002c0: 4714 fe3d f4c0 2f3e 0f55 bc3e 3184 9fbc
000002d0: c9af 30be b533 78be d5f4 0f3e 7adb 0dbe
000002e0: 1c4a fb3d a736 8b3c ce93 1ebd ea86 8fbd
000002f0: d292 fa3d 3fe1 df3d f00f 87be 26c0 89bb
00000300: 1316 2d3e 0183 093e 4288 86bb eced 013e
00000310: 73ec 4f3e 0892 bd3d 5d95 6e3e 1ad2 c73e
00000320: eab8 213e a72a bf3d 8249 14be a06e 82be
00000330: f151 183e 4ca3 5cbe 0f75 78bd 2a07 a33d
00000340: 5937 85be 2407 c13d 0413 153e d301 893e
00000350: d248 383e d239 433c be36 64be 1b42 f73d
00000360: e4f8 9b3d c042 aebe 3382 b63d 8a58 b03e
00000370: 9b58 d73b 43a4 87bd 9d73 35bd d2de 31be
00000380: 0578 cabd e64c f23d 5f5f d03b be37 cc3e
00000390: ee10 e73e b513 e5bd 7826 c63d a958 ad3d
000003a0: 1849 023e 1d06 d93c 05cf 62bd de8a 54be
000003b0: 1496 c73d c4ba 63be 7ece cebc 2e9f 1a3e
000003c0: b967 b83d 612a 093e 6c1e 693e 11d7 7b3e
000003d0: 50be 5dbe ebf5 29bd 0b3f 273e b364 b13d
000003e0: 93b5 16be d76a aabd dd14 d43e 2078 06be
000003f0: 7643 b3be 743f 653d 284d 143b 3f73 ee3d
-0.08830237 0.051107746 -0.077211134 -0.08870383 0.13665295 0.1728528 -0.2437963 0.1391599
-0.08576455 0.06241451 -0.2750186 0.10487645 0.0072693434 -0.29231253 -0.026556697 0.3671004
0.27539605 -0.026005926 0.32934445 -0.10241849 0.07094583 -0.011525679 -0.063480146 0.092292555
0.09760353 -0.016654138 0.25550765 0.18504766 -0.16671892 0.05938353 -0.056210563 0.058778934
-0.31800336 0.017245112 0.23483022 0.1370318 0.33039895 0.090527885 0.18248372 0.012795966
0.23013322 -0.08200136 0.22985947 0.08043943 0.42328855 0.13854302 -0.20649205 0.15428416
0.03849801 0.30869514 -0.017424205 0.3895121 0.16619337 -0.047852486 0.08035892 0.057849415
0.60899794 -0.05990372 0.07450077 0.08777986 0.1333616 -0.0636409 0.07896458 -0.43420994
-0.11607421 0.123278596 0.08965554 -0.16088933 0.26492104 -0.032653272 -0.046898294 0.24017367
-0.12503415 -0.29628912 0.21853772 0.30394363 -0.14450602 0.03395247 0.14885044 0.15344518
-0.06491399 -0.025009133 0.2335513 0.019186176 -0.04865788 0.0698433 -0.0051032477 0.07595963
0.061585575 -0.23646212 0.07521505 0.13203456 0.30247474 0.12734663 -0.39798936 -0.15437204
-0.23326778 -0.28141162 0.11619232 0.27516142 0.322371 -0.06475797 -0.02429909 0.0913059
-0.010848239 -0.0758743 -0.112171076 0.20662011 -0.086937934 -0.21822129 -0.07047454 0.015512152
0.042319547 0.022066696 0.023401987 0.34541506 -0.24964747 0.010664919 0.3673898 0.21037032
0.091562554 -0.12390007 0.35789117 0.20401716 -0.29709455 0.2185933 -0.077353396 0.3137708
-0.16786622 0.033898566 0.31196013 -0.33814865 -0.14984575 0.21193986 0.3487211 0.243464
-0.045059104 -0.18339504 0.10095637 -0.24822459 0.4018674 -0.030942231 -0.11053009 0.23742494
0.33109087 0.17644712 -0.0099584265 0.27434462 -0.0397746 0.12557748 -0.002889419 0.07655111
0.36021444 -0.15583089 0.40862212 -0.21908028 0.1523021 0.12444998 0.0017699775 -0.05424062
-0.095217444 0.000855135 0.2583941 0.19582872 0.1655934 0.20105888 0.035910998 0.45898178
0.022938253 -0.3021895 0.030126857 -0.095965624 -0.019467907 0.03436056 -0.12629697 0.3332349
0.12406211 0.1716345 0.36783645 -0.019472213 -0.17254557 -0.24238475 0.1405824 -0.13853255
0.122699946 0.016993834 -0.038715176 -0.07008155 0.12235035 0.10931634 -0.26379347 -0.004203814
0.16902952 0.1342888 -0.0041055987 0.12688416 0.20305042 0.09256369 0.23299165 0.39027482
0.15793195 0.09334307 -0.14481166 -0.25475025 0.14875008 -0.21546668 -0.06065851 0.07960351
-0.2601879 0.0942519 0.14558035 0.26759204 0.17996529 0.011915641 -0.22286507 0.120731555
0.076158315 -0.340353 0.08911552 0.3444255 0.006571842 -0.06623127 -0.04429971 -0.17370155
-0.09886173 0.118310735 0.0063590254 0.39886278 0.45130104 -0.111853994 0.09675306 0.08464176
0.12723196 0.026492173 -0.05537321 -0.20756099 0.09745422 -0.22239214 -0.025244948 0.15099785
0.090041585 0.13395073 0.22765511 0.2459376 -0.2165463 -0.04149429 0.16332643 0.08661785
-0.14717703 -0.08321159 0.41422167 -0.13131762 -0.35012406 0.055968717 0.0022628997 0.11643075

item_factors f4 [2500, 32]
00000000: 6233 43be 3a5b 273e ab61 c93e af67 813d
00000010: 2c9a 113f a166 49bd 77c2 883c 0ca5 7e3e
00000020: c69e b03e 6d45 bfbe 4243 ec3c 4f52 81bd
00000030: 1ce7 9a3e 3250 efbe da23 f2be 4f83 17bd
00000040: e53e cf3d 5b59 cd3d 032e e53e d2c5 0c3e
00000050: 350d a6bd 6dae 6a3e 74ab df3e 78ef 4cbd
00000060: d656 4e3e a5ec 47be 132b 303e 3486 df3d
00000070: 5435 f33d afb5 d13e 185a b4be f8c2 bdbe
00000080: 71f8 8d3d 97e7 633e 3fb0 ed3d 6fa4 10be
00000090: ea79 cd3e f9e5 91be 54ca 803e c78e 8d3e
000000a0: a871 b83e 8adc 0abe f27f 1c3e 4e31 123c
000000b0: 5afa e53c 5b3a 1f3d 6788 2d3e 9333 43be
000000c0: 385f 09bb 44d2 123e eb9e 453d 8756 153e
000000d0: 2b31 813e b02f 213e 8078 3d3e 078c 653d
000000e0: 2d4e 2b3f c70e 21be ab29 413e 99a0 80be
000000f0: ae46 603e f5cd f93c 5f2d 663d 7388 7cbe
00000100: 4cca c7bd 5aa3 c13d 335c fdbd 6476 923e
00000110: 6b04 9dbc 90cb c53d 6690 473e 1377 22bc
00000120: a62e 0fbb 459e 8f3d d5ce 96bd 3955 ff3d
00000130: a0ff 583e f818 1d3e f402 8abd 1b9a 85bd
00000140: c9e9 2fbe 0356 d43e 0ed2 093e cf90 923e
00000150: 6f69 e83d abd5 0a3e f404 9fbe 6a6a 063f
00000160: 717a ed3c 5e9b e8bd fd95 a1bd 4513 d93d
00000170: 173e 823d 3bd8 8f3e a343 89be 1298 b7be
00000180: 5914 5dbe 284e 58bc 46a7 643b 429b 873d
00000190: 29ff 01be da81 a3bd 0559 713d d858 8b3c
000001a0: fa33 cabc 2a6c 0e3d b1bc 8a3d eef6 aa3c
000001b0: 4778 4dbc 7d4d b0bd 8b34 293e 7929 19bd
000001c0: 6ebc 363e f14d 2c3e b5ea 153e 28de b63c
000001d0: b709 0e3e 2994 9d3e 09d6 13be 13bd 30be
000001e0: c619 ed3d eca1 523d 9efc 6d3d 81ae 533e
000001f0: 6a31 313e 5e9e 393e 9548 85bc 1aed c73d
00000200: 4b75 36be f9b5 833d d20f bcbd bd6d c23d
00000210: bd76 62bc 12ed c5bd 9731 ec3d dfcf b9bd
00000220: 0cea 043e b1fa 8e3d f377 883b bbb9 df3d
00000230: 833b 7bbc 7fe2 213e 5f63 c03d c3c2 00be
00000240: aa7c 1abe 5f13 d83e 3be7 b03e fae9 173e
00000250: 6fc7 523e 7c09 c63d 2493 a5bd efdf e23c
00000260: 28be 8b3d d972 393d 79d9 953d 0efd a73d
00000270: f09c 8a3e c244 8e3e 668c c1bd 4530 11be
00000280: 161e 343e f086 983e 0874 42bd 0cc0 37bd
00000290: 5728 c23e 6880 853e 008a 2c3e bc02 953e
000002a0: 742f 47bb ab4a 7ebe eaaa 07bd 113c 0dbe
000002b0: 5eca ca3d c640 6bbe 6723 d23d 63e1 743e
000002c0: 98be a93c b5c4 a6bd 34f0 423e a39b 653e
000002d0: 2bcf 69be 5609 db3d 6579 20bd 710f f63e
000002e0: 4de3 28bf 3aba 43be aa32 373f d868 38bd
000002f0: 1feb 8a3e 82e3 4c3e 2222 17be db94 0abd
00000300: 6244 a13d 5a72 13bd d367 9a3d da78 cb3d
00000310: 95e0 fd3d c1e8 7dbe 019a e8bc 3ce9 edbe
00000320: 7f7e 3e3e 6841 b6bd 27d0 583e e931 703d
00000330: dab4 813c 40ac 1d3e ddfb b13a 1014 b33e
00000340: 2579 d23d addd 013f b617 4a3e 82ac 753e
00000350: 262b bc3d 6a22 9c3e f68c 61be 946a 39bd
00000360: 0b2e f7bd 63a6 383e 7a0d c13c 4b2a 3b3e
00000370: 9f14 3b3e 7611 e93e 36fa 4b3e 145a 21be
00000380: 82b2 33be e885 a93d 3d3d e5bc 3f19 29be
00000390: dd7b c43d 0d56 adbc 6dea fd3d a70b 223e
000003a0: 93e4 d43d 05b2 8a3c 4c75 2dbd b6bc fa3c
000003b0: 170a bbbb c9f8 e5b9 9b15 243d 8179 57bd
000003c0: 5d8d 1bbb 1a4d f63c 01a9 b43c 59fd 4b3d
000003d0: 645d 993d f99a 8ebd 0617 68bc decc 4dbc
000003e0: d91c 373e d6ae 7f3d 9ba0 3b3d 7f84 11be
000003f0: 08aa a23d 99a7 ad3d e036 cf3a 0630 413d
-0.1906257 0.16343394 0.39332327 0.06318604 0.5687587 -0.04917014 0.01669429 0.24867648
0.34496135 -0.37357655 0.028840665 -0.06314527 0.30254447 -0.46740872 -0.47292978 -0.03699046
0.10119418 0.10026809 0.44761667 0.13747337 -0.08107988 0.229181 0.43685496 -0.050033063
0.20150313 -0.19523866 0.17203932 0.10914269 0.11875406 0.40958926 -0.35224986 -0.37062812
0.06932152 0.22256313 0.11605882 -0.14125226 0.40132076 -0.28495768 0.25154364 0.27647993
0.36024213 -0.13560691 0.15283182 0.008922888 0.028073478 0.03887401 0.16946565 -0.19062643
-0.0020961296 0.14338022 0.04824726 0.14583789 0.25232825 0.15740848 0.18502998 0.056041744
0.6691616 -0.15728293 0.18863551 -0.25122526 0.21901962 0.030493716 0.056195613 -0.24661426
-0.09755382 0.09454985 -0.12371101 0.2860595 -0.019167146 0.09657967 0.19488677 -0.009916085
-0.0021847873 0.070126094 -0.07363669 0.12467427 0.21191263 0.15341556 -0.067388445 -0.06523534
-0.17179026 0.41471872 0.13459036 0.28626105 0.11348235 0.1355807 -0.31058466 0.52506125
0.028989049 -0.11357759 -0.07889936 0.105993785 0.06359499 0.28094658 -0.26809415 -0.35858208
-0.21589793 -0.013202228 0.0034889742 0.0662141 -0.12694992 -0.079837516 0.058922786 0.017010137
-0.024682987 0.034771122 0.06774271 0.020869698 -0.012540883 -0.0860853 0.1652395 -0.037393067
0.17845318 0.16826607 0.14640315 0.02232273 0.13870893 0.307771 -0.14437117 -0.17259626
0.115771815 0.051423952 0.058102243 0.20672037 0.17304006 0.18126819 -0.016269961 0.097620204
-0.17818181 0.06431193 -0.09182705 0.09493587 -0.013822255 -0.09664358 0.11532896 -0.090728514
0.12979907 0.06981409 0.0041646897 0.10924097 -0.015334013 0.15809058 0.093939535 -0.12574296
-0.15086618 0.4220228 0.34551415 0.14835349 0.2058389 0.09669778 -0.080847055 0.02769467
0.06823379 0.045275543 0.0731687 0.08202563 0.2707286 0.27786833 -0.09450607 -0.1417857
0.17589602 0.2979045 -0.047473937 -0.044860885 0.37921402 0.2607453 0.16849518 0.2910365
-0.0030393275 -0.24833171 -0.03312198 -0.13792445 0.0990188 -0.22973928 0.10260659 0.23914103
0.020720765 -0.08142988 0.19036943 0.22422652 -0.22832935 0.1069514 -0.03917827 0.48058656
-0.65971833 -0.19114009 0.7156168 -0.04502186 0.27132508 0.20008662 -0.14759114 -0.033833366
0.07874371 -0.035997726 0.07539334 0.0993516 0.12396351 -0.2479582 -0.028393747 -0.46467006
0.18602942 -0.08899194 0.21173154 0.058641348 0.015833307 0.1539774 0.001357909 0.34976244
0.10277013 0.50728875 0.19735608 0.23991588 0.091879174 0.30495006 -0.22026429 -0.045267656
-0.12069329 0.18032221 0.023565996 0.18277852 0.18269585 0.45521134 0.19919667 -0.15757018
-0.17548564 0.08277494 -0.027983302 -0.16513537 0.095939375 -0.021159196 0.12398229 0.15824758
0.103951596 0.01693059 -0.04234819 0.030607563 -0.00570799 -0.00043863643 0.040059667 -0.05260611
-0.0023735382 0.030066062 0.022053244 0.049802158 0.07488516 -0.069631524 -0.014165645 -0.012561051
0.17882098 0.062422596 0.045807462 -0.142107 0.07942587 0.08479232 0.0015809201 0.04716494
