movielens/models/model_factors_16.npz (npz, 291131 bytes, 4 tensors)

user_factors f4 [2000, 16]
0.2538146 0.0724353 -0.082997784 0.17154522 0.10059924 0.024166077 0.14728312 0.1302514
0.3570187 0.28362718 0.23907055 -0.018598089 0.45463422 0.70459443 0.46737403 -0.0018427083
1.237972 1.1186135 0.5045574 0.79433954 0.74364096 -0.005317409 0.16670012 0.10120764
0.0020480875 0.17270043 0.26924768 0.19241707 0.34604108 0.49474478 0.57373446 0.8256201
0.04218351 0.21416111 -0.22370924 0.21812342 0.29499364 0.0234967 -0.018229958 0.39864707
0.25166318 0.6253473 0.041839298 0.3546517 0.22110476 0.3865278 0.56827945 0.31095877
0.37547812 0.2578623 0.6209988 0.23379122 0.15484422 0.23568767 -0.09253445 -0.0021274888
0.53172314 0.2859407 -0.0062902626 0.13909397 0.5538982 0.15460679 0.285816 0.13653034
0.7691467 0.71960783 0.24436677 0.35188228 0.27574614 0.34425908 0.030736446 0.23271339
0.011533121 0.660314 0.0071106604 0.22048305 0.37397987 0.14943153 0.19728032 0.5850249
0.3260887 0.48133984 0.37498808 0.16086215 0.26586396 0.38048133 -0.23693953 0.09472268
0.6716367 0.4758564 0.2186795 0.23234335 0.15670444 0.76871866 0.43652406 0.55389655
0.2918856 0.3398205 -0.09814803 -0.06380086 0.5359846 0.40791288 0.12937456 0.3821404
0.42046115 0.5031554 0.0051220907 -0.0009973133 0.42559704 0.44888774 0.2685001 0.39094806
0.28362638 0.39640415 0.13539667 0.2666082 0.062400624 0.28788137 0.20534824 0.5775299
1.0004177 0.6168294 -0.2554739 -0.26336947 0.32185072 0.50354546 0.30864388 0.533261
0.1689186 0.58885205 0.05299894 0.64480996 0.58183825 -0.033934012 0.3657703 0.10280085
-0.15753217 0.45173097 0.430272 0.39606175 0.38661894 0.3660844 0.39236724 0.37856132
0.0041255043 0.07999378 0.7084035 0.9919253 0.11598029 0.49505413 0.36167866 0.090796046
0.29445595 0.36250415 0.69271773 0.26415154 0.45927408 0.53341913 0.34012622 0.37668207
0.26532575 0.55889314 0.2927644 0.47962704 0.7155417 0.12224099 0.117477 0.26584175
0.2198614 0.002369293 -0.10771752 0.2558876 0.46791896 0.14779574 0.052269228 0.3605767
0.51581293 -0.039950788 0.22785953 0.6267269 -0.08011733 -0.044192158 0.28374684 0.039793607
-0.026350072 0.3499188 0.45726806 0.21975763 0.35870337 0.30857167 0.35628918 0.2759577
0.14026603 0.7213816 0.24255049 0.6984768 0.48165175 0.35240543 0.47693488 -0.050997023
0.24610262 0.5802032 0.27386656 -0.034407996 0.59153724 0.81535214 0.5575515 0.5474321
0.3756241 0.2633691 0.6153721 0.15279005 0.470571 0.3262797 0.11584227 -0.0014657244
0.40819696 0.14342187 -0.04642758 -0.14142011 0.3858123 0.28258133 0.7294963 0.6598395
0.31165823 0.61332774 0.32402322 0.19557422 0.1490471 -0.09034778 0.27701178 0.29734275
0.4604571 0.08268225 0.027555 -0.14855765 0.118072405 0.4959408 0.46634775 0.663044
0.27351224 0.6259597 0.1791964 0.56629556 0.24472411 -0.09962457 -0.043034837 0.40826538
0.16864742 -0.16529946 0.27157602 0.1083384 0.3341506 0.228127 0.3655318 0.24286854
00000000: fdf3 813e f558 943d befa a9bd 8da9 2f3e
00000010: f906 ce3d f0f7 c53c 63d1 163e 9f60 053e
00000020: 28cb b63e 9537 913e e9ce 743e 055b 98bc
00000030: d1c5 e83e 4d60 343f a64b ef3e 0887 f1ba
00000040: de75 9e3f ba2e 8f3f ac2a 013f d659 4b3f
00000050: 415f 3e3f a93d aebb 70b3 2a3e f345 cf3d
00000060: 3539 063b 62d8 303e d5da 893e fb08 453e
00000070: 4c2c b13e 304f fd3e 43e0 123f d75b 533f
00000080: 9ec8 2c3d 0d4d 5b3e 0914 65be bf5b 5f3e
00000090: 6809 973e 277c c03c fe56 95bc 781b cc3e
000000a0: ffd9 803e c316 203f af5f 2b3d e894 b53e
000000b0: 4969 623e f9e6 c53e c37a 113f fd35 9f3e
000000c0: ab3e c03e 8706 843e c7f9 1e3f f766 6f3e
000000d0: 7c8f 1e3e 1c58 713e b482 bdbd 576d 0bbb
000000e0: 021f 083f d266 923e 8c1e cebb a66e 0e3e
000000f0: 46cc 0d3f 3e51 1e3e 7a56 923e 9cce 0b3e
00000100: cce6 443f 3838 383f 483b 7a3e ea29 b43e
00000110: 992e 8d3e ba42 b03e 00cb fb3c 6b4c 6e3e
00000120: 6af5 3c3c 570a 293f 8b00 e93b 4fc6 613e
00000130: 4a7a bf3e 9404 193e da03 4a3e 31c4 153f
00000140: 19f5 a63e 2d72 f63e 70fe bf3e 0cb9 243e
00000150: 521f 883e 73ce c23e 47a0 72be f7fd c13d
00000160: 62f0 2b3f 73a3 f33e 85ed 5f3e 6aeb 6d3e
00000170: 2177 203e bfca 443f 1580 df3e 2acc 0d3f
00000180: 0872 953e f4fc ad3e d601 c9bd 06aa 82bd
00000190: 4936 093f f5d9 d03e c47a 043e e8a7 c33e
000001a0: af46 d73e cbce 003f 36d7 a73b 48b8 82ba
000001b0: dbe7 d93e 9dd4 e53e d878 893e 582a c83e
000001c0: 7a37 913e 7cf5 ca3e 6da5 0a3e df80 883e
000001d0: cc97 7f3d 3065 933e cf46 523e 00d9 133f
000001e0: b00d 803f 88e8 1d3f 7acd 82be 5dd8 86be
000001f0: 9ec9 a43e 5be8 003f 9206 9e3e cb83 083f
00000200: fff8 2c3e 02bf 163f 6b15 593d 4412 253f
00000210: 5af3 143f 64fe 0abd 3f46 bb3e 4189 d23d
00000220: 1d50 21be 4849 e73e 9d4c dc3e 9bc8 ca3e
00000230: ebf2 c53e 6a6f bb3e 5ce4 c83e cad2 c13e
00000240: 3d2f 873b c7d3 a33d ef59 353f d1ee 7d3f
00000250: 1387 ed3d bc77 fd3e f22d b93e 47f3 b93d
00000260: eec2 963e 259a b93e f355 313f df3e 873e
00000270: f925 eb3e 288e 083f 0625 ae3e 79dc c03e
00000280: c7d8 873e 9f13 0f3f 37e5 953e ad91 f53e
00000290: be2d 373f 7c59 fa3d c897 f03d 691c 883e
000002a0: 5923 613e 2446 1b3b 019b dcbd b303 833e
000002b0: 1393 ef3e c457 173e 4218 563d 829d b83e
000002c0: 510c 043f 70a3 23bd 0254 693e 2d71 203f
000002d0: 8e14 a4bd d602 35bd 4447 913e 9ffe 223d
000002e0: 1bdc d7bc 8f28 b33e 0a1f ea3e 2508 613e
000002f0: f8a7 b73e 1bfd 9d3e 896b b63e 544a 8d3e
00000300: e6a1 0f3e 77ac 383f 285f 783e 60cf 323f
00000310: 0f9b f63e 7c6e b43e cf30 f43e 41e2 50bd
00000320: 5302 7c3e 3288 143f 3d38 8c3e 66ef 0cbd
00000330: fc6e 173f ebba 503f b2bb 0e3f 8324 0c3f
00000340: cd51 c03e 51d8 863e 0789 1d3f ff74 1c3e
00000350: afee f03e 220e a73e b63e ed3d 8d1d c0ba
00000360: 31ff d03e 2fdd 123e d92a 3ebd 6fd0 10be
00000370: 3189 c53e 80ae 903e 45c0 3a3f 3eeb 283f
00000380: ab91 9f3e 0c03 1d3f 5fe6 a53e 9c44 483e
00000390: ce9f 183e 4208 b9bd 7dd4 8d3e 4f3d 983e
000003a0: 08c1 eb3e 5055 a93d 06bb e13c 7f1f 18be
000003b0: f2cf f13d f4eb fd3e 22c5 ee3e 40bd 293f
000003c0: cc09 8c3e e53e 203f 437f 373e bff8 103f
000003d0: f598 7a3e f707 ccbd 4c45 30bd 2908 d13e
000003e0: e9b1 2c3e 4344 29be 030c 8b3e 86e0 dd3d
000003f0: ca15 ab3e 209a 693e fc26 bb3e 88b2 783e

item_factors f4 [2500, 16]
0.06376788 0.08713542 -0.033766396 0.071842045 0.03697166 -0.002444017 -0.049114868 0.010145909
-0.063833006 -0.01054867 0.0002806197 -0.05127345 0.020430323 0.17658979 0.016956436 0.03165259
0.03453313 0.101517044 -0.01533382 0.027503898 -0.03022723 0.05302373 0.009080427 0.0062585576
0.0017324516 0.0028188413 -0.05126813 0.042269986 -0.047609173 0.04485028 0.021171756 0.012818755
0.01577727 0.035418067 -0.023618836 -0.019764833 0.039536152 0.044797126 -0.011848429 -0.0006781582
-0.00846967 -0.0128792245 0.029181909 0.030027173 -0.010481904 0.0005577649 0.015208512 0.017746637
0.017047273 0.024051901 -0.025804436 -0.015765917 0.007902424 0.00013459662 0.011905241 0.020321466
-0.030748606 -0.019685687 0.021884259 0.030117132 0.021847289 0.002378004 0.019987866 -0.012370387
0.010066237 0.046313856 -0.01453884 -0.032728028 0.023354376 0.030511321 0.015664408 0.041130252
-0.07792127 -0.017348904 -0.00019871863 0.045853008 0.002781838 0.026010713 0.039570868 -0.0071724756
-0.07815657 -0.113477804 0.05523877 -0.06814418 0.030483762 0.060919914 0.054835495 0.06485001
0.024803141 0.09715142 0.004857256 -0.008300584 0.053388163 0.058399335 0.038026694 0.011231397
-0.0026245564 0.060475063 -0.06712885 -0.017452125 0.04699339 0.007939373 0.05794871 0.02428188
-0.0077824327 -0.044919297 0.028571362 0.06156097 0.011398845 -0.022510314 0.0026061763 0.03743349
0.019483775 0.0045969663 0.0026451054 -0.008031466 0.004389445 0.015394248 -0.010962424 0.010958919
-0.017206477 0.0006561506 0.002821815 0.007840475 -0.008424593 0.015069679 0.00765573 -0.0060524223
-0.0025770478 -0.0040365956 0.025218934 -0.018796768 0.018126668 -0.0009032972 0.009034542 0.026344292
0.0037731137 0.04910208 0.012315629 -0.018395243 -0.014297543 -0.021808583 0.0146473795 -0.02319454
-0.03357109 0.084256634 0.01659586 -0.022401217 -0.09384341 0.10071532 -0.0020413552 0.037061032
0.048368268 0.077714026 -0.098495536 0.064681984 -0.058138713 0.0010917955 0.06587813 0.095574
-0.0708765 0.058781426 0.00449849 0.0543003 0.07331021 -0.07329802 0.09432003 0.10933393
-0.06963412 -0.024368023 0.034394085 0.03122465 0.03034898 -0.0015273936 0.06635252 -0.0032560069
0.024920985 0.016088715 0.04482126 -0.021677393 0.024002953 0.027198588 -0.0041284547 0.0129134245
-0.00341342 0.023022013 0.027917169 -0.01360781 -0.025217894 -0.0013240112 0.01722526 -0.050035138
0.015888892 0.03428922 0.014747436 -0.0080885505 0.008870489 0.013816431 0.002026469 0.020038644
0.0045343754 0.027407246 0.03843123 -0.012387409 -0.034022313 -0.021738322 0.01601804 -0.034899596
0.002082118 -0.013034816 0.024565976 -0.0033737207 0.03356433 -0.00047480012 0.020587388 0.04054962
-0.009879653 0.045029704 0.051385485 -0.0034219304 0.007505859 -0.0162257 0.012128232 -0.068485565
-8.48322e-05 0.028687192 0.014072354 -0.01908746 0.0154452715 -0.0042729266 0.014462847 0.015162039
0.015504051 0.04526643 0.018225405 -0.012823971 -0.028615644 -0.03814332 0.019162517 -0.008950968
-0.030913835 -0.06600609 -0.025553161 -0.040883906 0.034930564 0.07857554 0.0064901942 -0.0030001746
0.010463122 0.050544135 0.03191864 0.076252274 0.10175972 0.04335663 -0.019037213 -0.011088881
00000000: bc98 823d 0e74 b23d a24e 0abd ec21 933d
00000010: 986f 173d cd2b 20bb ac2c 49bd 073b 263c
00000020: e1ba 82bd 54d4 2cbc 2320 9339 1c04 52bd
00000030: 7e5d a73c f4d3 343e 39e8 8a3c 25a6 013d
00000040: 9c72 0d3d 2be8 cf3d b43a 7bbc db4f e13c
00000050: 199f f7bc 692f 593d 12c6 143c 9614 cd3b
00000060: 6e13 e33a 4fbc 383b 88fe 51bd 4b23 2d3d
00000070: d601 43bd edb4 373d 6470 ad3c c105 523c
00000080: 553f 813c 8912 113d 4a7c c1bc dce9 a1bc
00000090: a9f0 213d 317d 373d ea1f 42bc 6dc6 31ba
000000a0: 5fc4 0abc 6203 53bc e60e ef3c 8cfb f53c
000000b0: 4bbc 2bbc f836 123a 1f2d 793c 6561 913c
000000c0: b9a6 8b3c 7e08 c53c d363 d3bc 8627 81bc
000000d0: 2b79 013c 8122 0d39 330e 433c 3479 a63c
000000e0: 80e4 fbbc e143 a1bc 9e46 b33c 34b8 f63c
000000f0: 16f9 b23c 49d8 1b3b 98bd a33c 2aad 4abc
00000100: dcec 243c 99b3 3d3d 5134 6ebc d30d 06bd
00000110: ad51 bf3c e1f2 f93c a552 803c 3278 283d
00000120: 3095 9fbd 4a1f 8ebc 205f 50b9 5dd0 3b3d
00000130: 7f4f 363b 6b14 d53c 1015 223d 1607 ebbb
00000140: 8d10 a0bd 0d67 e8bd 0c42 623d 2d8f 8bbd
00000150: 15b9 f93c 2987 793d 2f9b 603d 15d0 843d
00000160: f52f cb3c 53f7 c63d 9e29 9f3b 2cff 07bc
00000170: 8cad 5a3d 2434 6f3d e1c1 1b3d e503 383c
00000180: c000 2cbb b3b4 773d da7a 89bd c2f7 8ebc
00000190: 247c 403d 2514 023c a05b 6d3d cbea c63c
000001a0: c703 ffbb 4cfd 37bd 7d0e ea3c 5b27 7c3d
000001b0: 39c2 3a3c 8d67 b8bc 62cc 2a3b dc53 193d
000001c0: 709c 9f3c 26a2 963b 8159 2d3b 6996 03bc
000001d0: 55d5 8f3b 2838 7c3c bd9b 33bc 0a8d 333c
000001e0: 99f4 8cbc 8501 2c3a 33ee 383b 5675 003c
000001f0: 4e07 0abc d1e6 763c ebdc fa3b 6653 c6bb
00000200: b0e3 28bb 6b45 84bb f097 ce3c aefb 99bc
00000210: 617e 943c 40cb 6cba 9e05 143c fccf d73c
00000220: 5846 773b 431f 493d 7ec7 493c 9fb1 96bc
00000230: 3e40 6abc eaa7 b2bc 90fb 6f3c 7a02 bebc
00000240: d781 09bd be8e ac3d 0af4 873c c282 b7bc
00000250: f930 c0bd d543 ce3d 42c8 05bb 4fcd 173d
00000260: ce1d 463d 8828 9f3d 07b8 c9bd fd77 843d
00000270: dc22 6ebd 941a 8f3a 1deb 863d 4dbc c33d
00000280: b327 91bd cbc4 703d 1268 933b fe69 5e3d
00000290: aa23 963d 461d 96bd dc2a c13d 78ea df3d
000002a0: 559c 8ebd 739f c7bc d0e0 0c3d d6ca ff3c
000002b0: 6d9e f83c d332 c8ba d4e3 873d bb62 55bb
000002c0: 1827 cc3c 7bcc 833c 7f96 373d ca94 b1bc
000002d0: d7a1 c43c 93cf de3c fd47 87bb d492 533c
000002e0: afb3 5fbb a998 bc3c 8cb2 e43c 4bf3 5ebc
000002f0: c295 cebc 728a adba fd1b 8d3c a5f1 4cbd
00000300: 6c29 823c da72 0c3d 3b9f 713c d785 04bc
00000310: 8755 113c 505e 623c 82ce 043b 1528 a43c
00000320: 1995 943b 2985 e03c 116a 1d3d 8ff4 4abc
00000330: fb5a 0bbd 9114 b2bc 4438 833c e1f2 0ebd
00000340: 2574 083b fb8f 55bc 963e c93c a419 5dbb
00000350: c07a 093d 98ee f8b9 e2a6 a83c 5c17 263d
00000360: 45de 21bc 1171 383d 9679 523d 7742 60bb
00000370: b5f3 f53b c2eb 84bc 7eb5 463c 2942 8cbd
00000380: f1e7 b1b8 6701 eb3c bb8f 663c 4e5d 9cbc
00000390: 2a0e 7d3c e803 8cbb 94f5 6c3c 336a 783c
000003a0: b404 7e3c 4b69 393d 724d 953c a21b 52bc
000003b0: 5b6b eabc 2b3c 1cbd b6fa 9c3c 15a7 12bc
000003c0: 033f fdbc 332e 87bd dd54 d1bc e275 27bd
000003d0: 5a13 0f3d 36ec a03d b2ab d43b 949e 44bb
000003e0: 846d 2b3c 5e07 4f3d 1fbd 023d 272a 9c3d
000003f0: 6667 d03d b996 313d eef3 9bbc 23ae 35bc

regularization f8 []
0.01
00000000: 7b14 ae47 e17a 843f

alpha f8 []
0.1
00000000: 9a99 9999 9999 b93f
