models/lastfm_gt_best_model.npz (npz, 563771 bytes, 4 tensors)

user_factors f4 [1880, 32]
0	0xbe737315	-0.23774369
1	0xbeaae99e	-0.3338136
2	0x3d393fbe	0.045226805
3	0xbd9cabb9	-0.07649941
4	0x3dee5783	0.11637785
5	0xbd3b2039	-0.045685027
6	0x3e19cf3f	0.15020464
7	0x3e47e5d4	0.19521266
8	0x3e5289f6	0.2056044
9	0xbcbbf0ce	-0.022941973
10	0xbb141db8	-0.0022600722
11	0xbe0d03cd	-0.13770981
12	0x3c8e2a01	0.017354013
13	0xbdddccf6	-0.10830109
14	0x3d82fe30	0.06396139
15	0xbe39e675	-0.18154319
16	0x3e9dedc9	0.30845478
17	0x3e8da70a	0.27666503
18	0xbe3526f9	-0.17690648
19	0xbe9eb523	-0.3099757
20	0xbd3c20cd	-0.04592972
21	0x3e0b05b2	0.13576391
22	0x3d856db7	0.06515067
23	0xbc5d374b	-0.013501952
24	0x3c51dfed	0.012809736
25	0x3f18a023	0.5961935
26	0x3ecd7c15	0.4013373
27	0x3d88075f	0.06642031
28	0x3e84bd69	0.25925758
29	0xbd335eb5	-0.04379149
30	0x3e537cd6	0.2065309
31	0xbd40b17d	-0.047044266
32	0x38dd30d7	0.00010547198
33	0x3cc22988	0.023701444
34	0x3b21b7ed	0.0024676279
35	0xbcf11917	-0.02943091
36	0xbcaa9b1a	-0.020825911
37	0x3c432fcd	0.011913252
38	0xbd00229a	-0.031283
39	0x3c1f8780	0.009736896
40	0x3d4672d2	0.048449345
41	0xbc743b53	-0.014906722
42	0x3c9b6b32	0.018972013
43	0xbc81880b	-0.01581194
44	0x3c9c52ba	0.019082416
45	0xbd35ab3b	-0.04435275
46	0xbc40bd7a	-0.011763925
47	0xbb61fce9	-0.0034483022
48	0xbc5ae426	-0.013360059
49	0xbd4e48bf	-0.050362345
50	0xbc13af4d	-0.009013963
51	0xbb41ae2e	-0.0029553282
52	0x3c6a1232	0.014286565
53	0xbcc36224	-0.023850508
54	0x3cbe9a0b	0.023266813
55	0x3ccb90ec	0.024849378
56	0x3cd2621f	0.025681553
57	0x3d187610	0.03722197
58	0x3d17dff0	0.037078798
59	0x3d1ed8a2	0.038780816
60	0x3cb54f1d	0.02213245
61	0xbb85703a	-0.0040722163
62	0x3bcd0bec	0.0062575247
63	0xbc81d69e	-0.015849408
64	0xbe95fd88	-0.29294991
65	0xbd509638	-0.05092451
66	0x3e3a8d7e	0.18218037
67	0xbdd9c012	-0.10632338
68	0x3da5d65c	0.080975264
69	0xbcbf5335	-0.023355106
70	0x3e15e028	0.1463629
71	0xbdeb2c08	-0.11483008
72	0x3e9d06de	0.30669302
73	0xbcb24f65	-0.021766374
74	0xbda8a454	-0.08234468
75	0x3d632441	0.055454496
76	0xbcbdbde2	-0.023161832
77	0x3e97e80e	0.2966923
78	0x3e2c2aa6	0.16813144
79	0x3e3889c1	0.18021299
80	0x3d1664db	0.036717277
81	0x3cdc6a74	0.02690623
82	0xbdefade8	-0.11703092
83	0x3c1246bb	0.008927996
84	0xbe4b6cbb	-0.19865696
85	0x3e47eb85	0.19523437
86	0x3e4156df	0.18880795
87	0xbd864cf9	-0.0655765
88	0xbab49b49	-0.0013779189
89	0x3e55b6b4	0.20870477
90	0xbcf5afc6	-0.029991042
91	0xbcd60299	-0.026124286
92	0x3ec3c841	0.3823872
93	0x3dd14e4f	0.10220014
94	0x3df46aa8	0.119344056
95	0x3cb7b802	0.022426609
96	0x3e4461fc	0.19178003
97	0x3df1cebd	0.1180701
98	0x3dd1936a	0.10233195
99	0xbdf33fa7	-0.11877375
100	0x3e118be5	0.14213522
101	0x3dcebd89	0.10094745
102	0x3d890a05	0.06691364
103	0xbbc6e400	-0.00606966
104	0x3e88b6b6	0.26701897
105	0x3ed636bd	0.41838637
106	0xbc236766	-0.009973383
107	0x3e3aa3ef	0.18226598
108	0xbd1d6ea6	-0.0384356
109	0x3e190b41	0.149457
110	0xbd75615d	-0.059907306
111	0x3d29aad2	0.041422673
112	0x3d9cea1a	0.07661839
113	0xbe48b894	-0.19601661
114	0xbe324805	-0.17410286
115	0x3e0f9d3b	0.14024822
116	0x3d826505	0.06366924
117	0xbda8ec01	-0.08248139
118	0xbcea807a	-0.028625716
119	0x3e0a6b38	0.13517463
120	0xbe551e11	-0.2081225
121	0x3e25a1b8	0.16174972
122	0x3e5f18c4	0.21786791
123	0x3cc3e3dd	0.023912365
124	0xbdef5f07	-0.11688047
125	0x3e09a51b	0.13441889
126	0xbd54668c	-0.05185561
127	0xbd53634b	-0.051608365
128	0x3d4c4e89	0.049879584
129	0x3cd14a45	0.02554811
130	0x3e21d1ec	0.15802735
131	0x3d77ca03	0.060495388
132	0xbdb9ffd8	-0.090820014
133	0xbdaca8fa	-0.08430667
134	0xbe02cb59	-0.12772883
135	0x3b412517	0.002947157
136	0x3d5cba18	0.05388841
137	0x3b0da732	0.0021614549
138	0x3cf4a9aa	0.029866058
139	0x3da081ee	0.07837282
140	0xbdc2e81f	-0.0951693
141	0xbe2a6161	-0.1663871
142	0xbd547e89	-0.051878486
143	0x3d876153	0.0661036
144	0xbd3c715a	-0.046006538
145	0x3e0d87f2	0.1382139
146	0xbd089161	-0.03334177
147	0x3c910fcd	0.01770773
148	0xbd058d13	-0.032605242
149	0xbda33971	-0.079699405
150	0x3e175091	0.14776827
151	0x3cede078	0.0290377
152	0x3d659285	0.056047935
153	0x3cd292b2	0.025704715
154	0xbcb29467	-0.02179928
155	0x3b98b976	0.0046607805
156	0x3d1ac857	0.037788715
157	0x3b679473	0.0035336285
158	0x3dbb69df	0.09151053
159	0x3e182d80	0.14861107
160	0x3cfa04a3	0.03051979
161	0xbe3c80a0	-0.18408442
162	0x3e2794bb	0.1636533
163	0x3ea446f4	0.32085383
164	0xbdb262f6	-0.087102816
165	0x3df2030c	0.118169874
166	0xbe356767	-0.17715226
167	0x3de8455e	0.11341356
168	0x3e3c072a	0.18362108
169	0x3dd56e0c	0.104213804
170	0x3d8a756b	0.06760677
171	0x3dfd827d	0.12378404
172	0x3df3b333	0.11899414
173	0xbdc58660	-0.096447706
174	0x3e89acb6	0.2688958
175	0xbdf8009e	-0.12109493
176	0x3dba8640	0.091076374
177	0x3e39ba56	0.18137488
178	0x3e03176c	0.12801903
179	0x3d0c35eb	0.034231108
180	0x3e7d01d4	0.24707729
181	0xbc88ef3c	-0.016715638
182	0x3e63af92	0.22234944
183	0x3e2e0f5e	0.1699805
184	0xbd4c41cb	-0.049867433
185	0xbe246cdc	-0.16057152
186	0xbd821e2b	-0.0635341
187	0x3ca63592	0.020289216
188	0x3e1d308c	0.1535055
189	0x3cab98cf	0.020946888
190	0x3d563c08	0.052303344
191	0x3dd932dd	0.106054045
192	0x3c97ccfc	0.018530361
193	0x3d91456b	0.070933186
194	0x3d7e3feb	0.062072676
195	0x3e8c8583	0.2744561
196	0x3cbe9cd6	0.023268145
197	0xbc05b9f2	-0.008162009
198	0xbe66662b	-0.22499911
199	0x3e2a29c7	0.166175
200	0x3e0813d3	0.13288812
201	0x3da99aad	0.08281455
202	0x3ea62ef9	0.32457712
203	0x3e231346	0.15925321
204	0xbe0dc383	-0.13844113
205	0xbd973bc5	-0.07384447
206	0x3e06b386	0.1315442
207	0xbde62410	-0.11237347
208	0x3cfabe96	0.030608457
209	0x3e5a231a	0.21302453
210	0xbce26987	-0.02763821
211	0x3e034cea	0.12822309
212	0xbd512ed1	-0.05107004
213	0xba91665f	-0.0011093131
214	0x3d80da0f	0.062915914
215	0xbe41314d	-0.18866463
216	0x3e05d8fe	0.13071057
217	0xbce2274e	-0.027606633
218	0x3aadc4e6	0.0013257533
219	0x3e0ffa55	0.14060338
220	0x3cff8e23	0.031195706
221	0xbe05cdd8	-0.13066804
222	0x3e394f1b	0.18096583
223	0x3e85b4b0	0.26114416
224	0x3ca4ec7d	0.020132298
225	0x3db02d9f	0.086024515
226	0x3d8dc6c1	0.06922675
227	0x3cfe23c3	0.031022912
228	0x3e238449	0.15968432
229	0x3e139db0	0.14415622
230	0x3e8f6e30	0.28013754
231	0x3e3913eb	0.18074004
232	0xbe489eeb	-0.19591872
233	0xbdb0fb7b	-0.08641716
234	0x3d6e83ea	0.05823127
235	0xbe2448fc	-0.16043466
236	0xbd98097a	-0.074236825
237	0xbda29a4d	-0.07939587
238	0x3e58a1e3	0.21155505
239	0x3e52283a	0.20523158
240	0xbe180a7d	-0.14847751
241	0xbd97a545	-0.074045695
242	0x3ba4513e	0.0050145676
243	0xbd9e3755	-0.077253975
244	0xbd778336	-0.060427867
245	0x3dab7eed	0.083738185
246	0x3b2cbe39	0.0026358499
247	0xbde57dbb	-0.11205622
248	0x3dbaf90c	0.09129533
249	0xbe5081ba	-0.20361987
250	0x3d341e9e	0.04397451
251	0x3c9fdea4	0.019515343
252	0xbe295a59	-0.16538371
253	0x3e0a06fc	0.13479227
254	0x3c5efbae	0.01360981
255	0x3e8bd257	0.27308914

item_factors f4 [2500, 32]
0	0xbdb86cb2	-0.09005107
1	0x3def14b5	0.116738714
2	0xbd530684	-0.051519886
3	0x3cd0c09a	0.025482465
4	0x3e7a332f	0.24433587
5	0xbdd52c81	-0.10408879
6	0xbe1e36da	-0.15450612
7	0xbb20cd8f	-0.0024536585
8	0xbd1818da	-0.037133075
9	0x3daa4706	0.08314328
10	0x3dc39cb9	0.09551377
11	0xbc874b3b	-0.016515365
12	0x3e04405b	0.12915175
13	0x3d4ecf03	0.05049039
14	0xbdbadeae	-0.09124504
15	0x3ddd9870	0.10820091
16	0x3d343755	0.04399808
17	0x3e10146b	0.14070289
18	0xbd0a52b6	-0.033770286
19	0x3c5cb90f	0.013471856
20	0xbb89aa7d	-0.004201232
21	0x3d9c4198	0.076296985
22	0x3e31dcac	0.17369336
23	0xbd818ca9	-0.06325657
24	0xbd4379a9	-0.047723446
25	0xbde4091d	-0.11134551
26	0xbcb73a47	-0.022366656
27	0xbda5a3f9	-0.08087916
28	0x3d80ae92	0.06283297
29	0xbabcd7f0	-0.0014407616
30	0x3bb5cf53	0.0055483966
31	0xbe2896d0	-0.1646378
32	0x3d569eb7	0.052397456
33	0x3cd241a1	0.02566606
34	0xbcc26873	-0.023731446
35	0xbcdff13e	-0.027336713
36	0x3c82600f	0.015914945
37	0xbcec0ff8	-0.028816208
38	0xbdf6a848	-0.12043816
39	0x3da4577d	0.080244996
40	0xbbe0cefe	-0.006860613
41	0x3d8356ec	0.064130634
42	0xbb70b7fc	-0.0036730757
43	0xbdbfa28e	-0.09357177
44	0xbd52189c	-0.051293
45	0x3cb3032a	0.021852095
46	0x3e08338f	0.13300918
47	0x3db83eca	0.08996351
48	0x3d9cb98b	0.07652577
49	0x3da4e441	0.080513485
50	0x3d609898	0.054833025
51	0x3d25dfea	0.040496744
52	0x3dac773c	0.0842118
53	0x3dbd425a	0.09241171
54	0xbb7abd82	-0.0038259928
55	0xbd56fc98	-0.052486986
56	0x3d4116ef	0.04714101
57	0xbb8430fb	-0.0040341592
58	0xbd4e4520	-0.05035889
59	0xbd4b11e7	-0.04957762
60	0xbbae65d6	-0.0053221984
61	0x3dff9dff	0.12481307
62	0xbd33a723	-0.043860566
63	0xbde7cf25	-0.113188066
64	0x3e5c4c9f	0.21513604
65	0x3e9fefa9	0.31237534
66	0x3cd223b2	0.025651786
67	0xbf277166	-0.6540741
68	0x3ea65a4f	0.32490775
69	0xbe935c53	-0.28781375
70	0x3d7fd9a8	0.062463433
71	0x3e8d7412	0.27627617
72	0x3df3b1ae	0.11899124
73	0x3f0411ad	0.5158947
74	0x3d4d6c05	0.050151844
75	0xbc8717e7	-0.01649089
76	0x3f0ae771	0.542594
77	0x3ea7e331	0.3279052
78	0xbd1338cd	-0.03594284
79	0x3f04285b	0.5162408
80	0x3e5c36d5	0.21505292
81	0x3e6aa88f	0.22915863
82	0x3ddfe9b5	0.10933248
83	0xbe731814	-0.23739654
84	0x3ec61c65	0.38693538
85	0xbe350468	-0.17677462
86	0x3e89289c	0.26788795
87	0xbe48088c	-0.1953451
88	0x3cbd7bcf	0.023130326
89	0xbef47640	-0.47746468
90	0xbe06281d	-0.1310124
91	0xbcb6c1b2	-0.022309158
92	0xbd177d16	-0.036984526
93	0x3ed0d3a0	0.40786457
94	0x3a090ef1	0.00052283617
95	0x3eb5fff2	0.35546833
96	0x3de7383a	0.11290021
97	0x3db4f91b	0.088365756
98	0x3ddafefc	0.10693166
99	0xbccc3861	-0.024929227
100	0x3e0ad487	0.13557635
101	0x3d0000bf	0.03125071
102	0x3dc79777	0.097456865
103	0xbca704a9	-0.020387964
104	0xbdb04cbb	-0.08608385
105	0xbdecc148	-0.11560303
106	0x3d5411fb	0.05177496
107	0xbdd2d4d2	-0.102944985
108	0x3d569879	0.052391503
109	0xbda5afad	-0.08090148
110	0x3d748694	0.059698656
111	0x3e147900	0.14499283
112	0xbd15f31e	-0.036608808
113	0x3cf922e2	0.030412141
114	0xbd618803	-0.05506135
115	0xbcfcb46e	-0.030847754
116	0xbd5ddce0	-0.05416572
117	0x3cd10ae6	0.025517892
118	0x3be49d24	0.0069767404
119	0x3c11d28a	0.008900294
120	0xbd26727f	-0.040636536
121	0xbcb8cd91	-0.02255896
122	0x3c9fca81	0.019505741
123	0xbc06d317	-0.008229039
124	0xbd840bc1	-0.064475544
125	0x3cabc464	0.02096767
126	0xbc472913	-0.012155789
127	0x3ddec487	0.10877328
128	0x3ca26242	0.019822244
129	0x3cdb35e4	0.026759095
130	0xbc3ba985	-0.011453991
131	0xbdc3b295	-0.09555546
132	0x3e92ea80	0.28694534
133	0xbdcfb74c	-0.10142383
134	0xbe80b383	-0.25136957
135	0xb9f20b9e	-0.00046166492
136	0xbd884de0	-0.066554785
137	0x3d8568e4	0.06514147
138	0x3dd41dee	0.10357271
139	0xb9feea91	-0.0004862142
140	0x3dff5931	0.12468184
141	0x3d5f2ee7	0.05448809
142	0xbdded745	-0.10880903
143	0x3d413ded	0.047178198
144	0x3d43ba5a	0.04778514
145	0x3da69bae	0.08135162
146	0xbbde861e	-0.0067908904
147	0xbbc0c7ce	-0.0058831936
148	0x3e24dff7	0.16101061
149	0x3e0ce137	0.13757788
150	0x3e35dd39	0.17760171
151	0xbd1b4a1f	-0.037912484
152	0xbd372740	-0.044715166
153	0xbd781d70	-0.06057495
154	0xbd4cc91b	-0.049996477
155	0xbdd7d1d2	-0.10538067
156	0x3d4c2d8a	0.049848117
157	0x3d2cfb82	0.042232044
158	0x3ccca88f	0.024982719
159	0xbe18b004	-0.14910895
160	0xbd87d79d	-0.06632922
161	0x3cbaa8ce	0.02278557
162	0xbd4b94e4	-0.04970254
163	0xbbad1f04	-0.0052832384
164	0x3e3bd975	0.18344672
165	0xbdbb6ccd	-0.091516115
166	0xbe1f102f	-0.15533517
167	0xbc703db6	-0.0146631505
168	0xbc79d7c9	-0.015249201
169	0xbc81e52d	-0.01585635
170	0x3e37eee4	0.17962223
171	0xbd9fcac9	-0.0780235
172	0x3db8c4fd	0.090219475
173	0x3d575968	0.0525755
174	0xbd7dce4e	-0.061964326
175	0x3d852a5e	0.065022215
176	0x3bb89d34	0.0056339744
177	0x3dc1be6f	0.094601505
178	0x3d6b00d2	0.05737383
179	0x3d558079	0.052124474
180	0x3d957443	0.07297566
181	0x3dcd2962	0.10017659
182	0x3dc218c3	0.09477379
183	0xbcc54283	-0.024079567
184	0x3b8fdc2d	0.0043902607
185	0xbda7b2a8	-0.08188373
186	0xbd7512b5	-0.059832294
187	0xbd276137	-0.040864196
188	0x3d4aff5d	0.04955994
189	0x3ddfd2c8	0.10928875
190	0xbd4210d1	-0.04737932
191	0xbe35bef4	-0.17748624
192	0x3d0d0e87	0.034437682
193	0xbd571b95	-0.05251654
194	0xbd67e324	-0.056613103
195	0xbd317870	-0.04332775
196	0xbd93dad6	-0.07219474
197	0xbe2ad3fe	-0.16682431
198	0xbdaff0d3	-0.085908554
199	0x3da320b5	0.07965223
200	0x3c682423	0.014168772
201	0x3c3368a7	0.010950244
202	0x3d43ec2f	0.047832664
203	0xbde6b1fe	-0.11264418
204	0xbdd06958	-0.10176343
205	0x3b017da2	0.001975872
206	0x3e82870f	0.25493667
207	0x3d85b7e9	0.06529219
208	0x3b27d657	0.0025609934
209	0x3df7a545	0.120920695
210	0x3e1addd5	0.15123685
211	0x3d03cb27	0.032176163
212	0x3e0d2f57	0.1378759
213	0x3e1852bd	0.14875312
214	0xbdf4cdca	-0.11953314
215	0x3d28d32a	0.041217007
216	0x3e2da47c	0.16957277
217	0x3c9dc94f	0.01926103
218	0xbd83aaea	-0.06429084
219	0x3e07c675	0.13259299
220	0xbd137f26	-0.03600993
221	0x3e5b1597	0.21394955
222	0xbcf8ef71	-0.030387612
223	0xbe52fa97	-0.20603405
224	0x3d4d0722	0.05005563
225	0x3c1d9720	0.009618551
226	0xb96c473e	-0.00022533254
227	0xbe24b3d2	-0.16084221
228	0xbd34ee51	-0.04417259
229	0xbdff3bad	-0.12462554
230	0xbdaf3551	-0.08555091
231	0x3cc7e2d3	0.02440015
232	0x3a39f280	0.0007093325
233	0xbd4d90db	-0.050186973
234	0x3e200a40	0.1562891
235	0xbd8ee8c2	-0.06977989
236	0xbdea15f3	-0.11429968
237	0x3dae4ec3	0.08511116
238	0x3e33b755	0.17550404
239	0x3d7fe300	0.062472343
240	0x3d84dde2	0.06487633
241	0x3d1926be	0.037390463
242	0x3e2dab87	0.16959964
243	0x3e22408d	0.15844937
244	0x3e5cf61a	0.21578255
245	0x3de9753a	0.11399312
246	0xbd024a96	-0.031809412
247	0xbdb29234	-0.08719292
248	0x3e2abb66	0.1667305
249	0x3db11c50	0.08647978
250	0xbdf7ae92	-0.120938435
251	0x3c7b742c	0.015347522
252	0x3d8cceaf	0.06875359
253	0x3e85a549	0.26102665
254	0xbd5cc0a4	-0.053894654
255	0xbe2c53f7	-0.16828905

regularization f8 []
0	0x4024000000000000	10.0

alpha f8 []
0	0x3ff0000000000000	1.0
