models/model_lastfm.npz (npz, 143675 bytes, 3 tensors)

user_factors f4 [1892, 8]
00000000: d1a6 52bd f1a0 c8bc 7e02 bf3b a4bb 2d3d
00000010: 00d5 21bd 1cce 14bd fbf5 51bd dd63 f6bc
00000020: 9bdc 35bb 2d00 22bb b7e5 833a 9582 173b
00000030: a838 64ba 6fc8 fe3a 6eb5 fcba a700 77bb
00000040: d6e6 00bd e204 9abc eefa d5bb 493a cf3c
00000050: fbbd 14bc d56d 5e3c 49af d5bc 4f3d 23bd
00000060: 259c ccbc 6e8e bcbc 844a bebb ac0b 1f3d
00000070: ff30 82bc 4f8a 1b3d 0b78 05bd 670a 3fbc
00000080: e2c5 ec39 7e4d 353a e73e 10bc c5c5 eab9
00000090: ebfd 893c cb58 4fbc a865 66bc 1e53 4dbc
000000a0: 8950 343d ec5a b2bd 94bb 24be ac3d 2abd
000000b0: 95d2 7e3d 82e4 bc3d 1817 0bbd 2272 a93d
000000c0: 01de cabb cfa3 b1ba e8f5 3fbc 3836 ed3a
000000d0: b24a 743c 7ce7 20bc 77cf a4bc 3698 88bc
000000e0: 6687 1c3d 00d5 89bd a22b 943d 0637 873d
000000f0: eb51 943d 5e50 8fbc 566d 313d b74c 0ebc
00000100: 1256 1b3c e25d 64be 54b7 8bbd 6706 a8bd
00000110: c6fc b1bd eb33 f13c 6b01 b1bb 1677 89bd
00000120: 768d a1bd ce88 1d3b fc59 3e3d 4214 cabd
00000130: af0c ca3d 9ccb 01bd eddc 78bd bea9 993c
00000140: 2797 4f3b 3943 d8bd 8b03 92bd f8c7 48bd
00000150: 1925 3dbb 749d 913b adb2 9cbc 5fc9 d6bc
00000160: 116f 00bb 179d 763a 4c79 66bc df8f e5bb
00000170: 2561 ec3c d147 d0bc 3977 c8bc a857 9ebc
00000180: ec21 d8bb c102 53bb 8c69 1939 a890 d73b
00000190: 3cea 23b8 0b27 6c3b c453 03bc 9f4b 22bc
000001a0: 9e2e fbbc eb86 e8bc c537 e53b 4cfa f73c
000001b0: fe6d 91bc a2f3 9e3c ba22 6dbc e043 2fbd
000001c0: 53ba 6a3c 8277 a3bd 6f13 cbbd 8e58 96bd
000001d0: b989 983c 5eb3 8a3d 1c15 7d3d fb05 30bc
000001e0: 2972 473c 7d6c 3cbc a4eb 3cbd 96be 453d
000001f0: af22 f23c 55bc 133d 5042 ccbd 44c4 983d
00000200: e72f cbbc 53a0 2cbc a3ac c33b e28e bd3c
00000210: 6d6c efbb 7663 d43c aed9 d3bc 6d9c 10bd
00000220: e274 85bb e3e4 2e3c 6803 dbbc 8836 2ebc
00000230: 74ea 323d 4349 9e3d f102 073d 2062 d7bc
00000240: e0a5 a4bd 9ee5 09bc d065 643d 4aac 9bbd
00000250: 2f28 623d eb27 1bbc cd7f f2bc 9401 173d
00000260: 6760 243d f3de 7dbc 172a 193d 3874 d5bc
00000270: 98c3 1c3c 1e9e 323d 30ab 68bd 014c 52bd
00000280: 3972 17be 9b04 183c 49c9 41bd ccd4 e73d
00000290: 8d60 00bd c469 daba 6715 193d 1650 d23b
000002a0: f77a 49be a308 9f3c 48e5 bbbc d613 d0bc
000002b0: 859f c23d c9c3 afbd 1983 b4bc 4654 0c3d
000002c0: 2c02 bbbd 0351 c73c e908 89bd 78a6 823d
000002d0: 617a ab3c 47aa 63bd 7f65 3b3d 5d84 f73c
000002e0: 7a80 8d3b 4bf0 91bb 6ea0 c6bc 577a 813d
000002f0: 0162 77bb dcfb a63d f6ad c5bd e838 d23d
00000300: c419 ddbd 5abd 8b3c 68d4 83bd 86d2 a63d
00000310: 865d 0a3c 59f9 20bd 0976 cf3c 1324 393b
00000320: 47ad 0cbc 1c6e 2fbb 4693 dcba a732 b63b
00000330: 7aa5 07bb 8997 cf3b 6add 92bb f63c ecbb
00000340: 10ce 72bd ae02 843d 2f3e fabd 7778 793c
00000350: cc9d f03d f1ff 873d e2c3 d63d 5afd 7c3b
00000360: 5809 163a 9f3a f13b 17b3 a4bc 235c 213b
00000370: 7b57 463d 9031 a3bc 1f99 38bd 8b6a 0ebd
00000380: 88c9 d8bc c5ec c6bb f3ab 45bc 3eb4 b23c
00000390: 144a 0e3a c56f e639 0c3e d1bc 752d 04bd
000003a0: 2ed0 a23b b67e cbbd 9eba 8a3d 5905 fb3d
000003b0: 3d06 9d3c d023 7c3d 1dee 003c 01df d33c
000003c0: b1c2 e2bc 402e 43bc c4fb fe3b 3fa7 ed3c
000003d0: 75ff 42bc 21a8 b9bc 6b3d ebbc a089 a3bc
000003e0: 24ad 22bd a4a9 edbb e6d9 27bd 97ee 593c
000003f0: 757b e53c 7ec8 013e 23e6 463d 5d7a 63bd
-0.05142862 -0.024490805 0.0058291545 0.042415276 -0.039509773 -0.036329374 -0.051259976 -0.030076915
-0.00277499 -0.0024719343 0.0010062967 0.0023118604 -0.0008705952 0.0019438396 -0.0019280144 -0.0037689598
-0.031470142 -0.018801156 -0.0065301573 0.025296347 -0.009078498 0.013575991 -0.026084559 -0.03985339
-0.0249768 -0.023017135 -0.005807223 0.03882949 -0.015892504 0.0379737 -0.032585185 -0.011660195
0.00045160862 0.0006916149 -0.00880406 -0.00044779308 0.01684471 -0.012655447 -0.014062323 -0.012532024
0.044022117 -0.08708748 -0.1608718 -0.04156272 0.062212545 0.09223272 -0.03395757 0.08273722
-0.0061910157 -0.0013552847 -0.011716343 0.0018097823 0.014910387 -0.009820815 -0.020118458 -0.016674142
0.038215064 -0.0673008 0.07234885 0.06602292 0.07242187 -0.017494377 0.04331716 -0.008685282
0.00948097 -0.22301438 -0.068220764 -0.08204346 -0.08690791 0.029443702 -0.0054017804 -0.06712167
-0.0788831 0.002403784 0.046472535 -0.09867145 0.098657005 -0.031688318 -0.060757566 0.018757697
0.0031675787 -0.10559697 -0.07129582 -0.04901883 -0.0028861223 0.0044438187 -0.019128168 -0.026219068
-0.001959745 0.00094075635 -0.014067005 -0.007005676 0.028854916 -0.02542487 -0.024470912 -0.019328907
-0.0065958407 -0.0032197686 0.00014630536 0.0065785237 -3.9080376e-05 0.0036034014 -0.008015577 -0.009905725
-0.030661877 -0.028384646 0.0069951736 0.030270718 -0.017752644 0.019403283 -0.0144736115 -0.04278934
0.01432665 -0.07981779 -0.09915816 -0.07341109 0.018620359 0.06772493 0.06178771 -0.010743613
0.012173214 -0.011500475 -0.046123162 0.04827746 0.029557554 0.03606828 -0.099735856 0.0745931
-0.024803115 -0.010536271 0.0059715076 0.02313942 -0.0073066265 0.025926333 -0.025860634 -0.03530543
-0.0040727714 0.010674688 -0.026735023 -0.010633118 0.043680623 0.07728817 0.03296179 -0.026291907
-0.08039451 -0.008416561 0.05576116 -0.07601221 0.055214103 -0.009469966 -0.029601956 0.03686674
0.040131 -0.01549505 0.037393656 -0.026056394 0.009568118 0.043607824 -0.056803882 -0.051342014
-0.14789666 0.009278442 -0.0473111 0.11319885 -0.031342078 -0.0016663601 0.037373926 0.0064182384
-0.19675814 0.019413298 -0.022936478 -0.025400084 0.09503082 -0.08582265 -0.022035168 0.034260057
-0.091312736 0.024330622 -0.066911526 0.06379408 0.020932378 -0.05558231 0.04575109 0.030214483
0.004318294 -0.004453694 -0.02424642 0.063221626 -0.0037747624 0.08153507 -0.09652321 0.1026476
-0.1079593 0.017058063 -0.06436998 0.08145623 0.008445149 -0.039300296 0.025324838 0.0028250262
-0.008586234 -0.002676851 -0.0016828559 0.0055602374 -0.0020697997 0.006335203 -0.004481961 -0.0072094155
-0.059278548 0.064458236 -0.12218892 0.015226475 0.11748847 0.06640614 0.104865804 0.0038603158
0.0005723438 0.0073617245 -0.020104928 0.0024621568 0.04842327 -0.019921094 -0.045067903 -0.034769576
-0.026463285 -0.0060707056 -0.012064922 0.021814462 0.00054279086 0.00043952293 -0.025542282 -0.032269914
0.0049686646 -0.099362776 0.06773876 0.12256879 0.019168014 0.06155759 0.007869271 0.025863172
-0.027680727 -0.011912882 0.0077814776 0.029010413 -0.011901726 -0.022663178 -0.02871581 -0.019963086
-0.0397159 -0.0072528888 -0.04097929 0.013301513 0.02801297 0.12674138 0.04855932 -0.055536617

item_factors f4 [2500, 8]
00000000: 79fb 41bd 93a0 73bc fb2f a43b 5b0a bd3c
00000010: 5f22 183d 9850 203d 4189 d2bc 0a2f 2abd
00000020: 24da 38bd 8b33 19bb caf1 463c 5822 c83c
00000030: eb23 ad3c d1a8 6b3d dfd4 18bd 8afc 2cbd
00000040: 14c1 92be 6915 0fbe 795e 923d 3cff 633e
00000050: c95f 983e 6835 4b3e 7c21 7abe 507f a3be
00000060: 61be 1fbd afe3 3dbd 080f 0a3c 8a89 0c3d
00000070: a1ee 1f3d ec58 353d 375f 8ebc 4cc7 a3bc
00000080: 4c7c acbd 4c81 47bd 00c9 e9bc 37ec 623d
00000090: cc32 f03c 8cad 8e3d a095 19bd 1dff 74bd
000000a0: 2e88 5dbd 4ef0 d0bc 5b0d 153c 0c15 463d
000000b0: cf08 2d3d 2621 7a3d 413a 18bd 6f15 54bd
000000c0: 0d1a 55bd 7a29 02bd e1b7 a33c 66f6 253d
000000d0: 1f01 b83c 2714 b43d 665f b9bd ce62 72bd
000000e0: 1edb 51bd bff3 42bc 2072 d93c 0417 5f3d
000000f0: d617 083d 0b31 fe3d 9fa0 02be 7775 b2bd
00000100: a29b 22bd c95f 18bd 3ec0 23bc 7007 cc3c
00000110: 6b1b 8e3c d8d0 d43c 62e5 f4bc 123d 80bc
00000120: e37b 65bd 8468 f2bc adcf d43b c3d4 993b
00000130: e486 873c 32dd fe3c 64ad 2ebd a21a dbbc
00000140: 02d3 e6bd a616 b1bc 360b db3c 36cd 723d
00000150: 250f c33d 5acb 393e 7d36 adbd fe23 a0bd
00000160: 21d5 3fbd 42c3 8ebc caaa 113b ca45 b53c
00000170: 07a9 a33c 07d0 033d c663 68bc 8be7 0dbd
00000180: 82b7 25be a48d 6ebd 5a06 ebbc 0924 d83c
00000190: 53bb a03c d95f a53d cd85 95bd 7e9c 79bd
000001a0: 91f2 b2bd de41 bebc b285 4dbc 756a 393d
000001b0: e16f c83c faec 623d fd9f afbc b80c 40bd
000001c0: bd3c eabd a147 e5bb 724c 283d 1a59 893d
000001d0: 6a94 003d e6ea 843d 88b7 58bd a883 81bd
000001e0: c868 42bd c7ed 82bb 63ac f6bc 3717 ef3c
000001f0: 2802 143d 9a47 f73c baef 6ebb 2e09 13bd
00000200: 1d79 64bd 2bb0 55bd fab0 1dbc 0a0a 213d
00000210: 75a1 4c3c 4309 4a3d 8d94 bbbc 122e 34bd
00000220: 86f3 7bbd b016 9bbd 5cf4 913d 1a15 a53d
00000230: 21c3 133e d567 d33d 96ea 7dbd 8ebd dcbd
00000240: 6eb2 c9be caad e4bd d25d f9bd 1c19 783e
00000250: 95f6 9ebd c763 363e b10a 42bd 10c8 56be
00000260: 1bc0 b2bd 30d2 51bd e89e 813c e6dc a23d
00000270: dd6f 973b 2165 853d 6c1f 17bd f701 a2bd
00000280: 7377 a1be 29cc 72be a705 f13c 52f9 1a3e
00000290: 52de 9d3b 8975 3f3e 9337 09be a08d a6be
000002a0: 7877 edbd 320c 5cbd 91e3 e7bc 5468 913d
000002b0: 2167 093d b821 903d deab 63bd 9c58 9bbd
000002c0: 76af b9be 4a76 b8be 3196 55be 7478 bb3c
000002d0: e0f6 453f 2c71 bfbe b270 85be ebfa d7bd
000002e0: 2500 eabe 50f4 91be fef0 ecbd 93d2 473e
000002f0: 5816 053e 8b60 003e eafc 55be e887 a6be
00000300: 56f6 c3bd 3f39 8ebd 89fc b53a 4270 543d
00000310: 15a9 9e3b bdbd 243d 3487 febc a314 50bd
00000320: 06c0 9bbe d0ff 5abe 5e80 f0bd 1681 a73d
00000330: 4b4b 903d 7fac 6e3d ca4c 2abe ef9e 47be
00000340: c3b0 b2be 464a 84be 4b6e c8bd 0ed0 893e
00000350: 7c06 28be a69b 493e 6291 d8bd 26d1 4bbe
00000360: f482 40bb d6ec e9ba 4527 bcba 3f81 063b
00000370: 20b8 a93a bcce 463a aa7f edba 4295 0fbb
00000380: de13 8bbd e9e9 31bd e2d2 eabb 35ba 0f3d
00000390: 06f4 70ba 9789 203d e33c 1ebd b067 42bd
000003a0: 8ee0 eebc 91a4 83bc 208a 89ba 9844 393c
000003b0: f5f9 8539 2d79 6c3c fbb2 40bc 9b3d bebc
000003c0: ff76 f4bd 0bd5 4abd 6f67 443c e7c4 ba3d
000003d0: c5d3 373d f081 cd3d 93c8 fbbd 6497 a7bd
000003e0: 5c89 6dbe c14f 4cbe ef5a 2ebd 2d69 293e
000003f0: 8589 833d dfc0 533d e141 adbd d74a 1ebe
-0.047358964 -0.014869827 0.0050106025 0.023076227 0.037142154 0.03913936 -0.025700213 -0.041548766
-0.04512991 -0.002337667 0.012142608 0.024430439 0.021135291 0.057534043 -0.037312385 -0.042233028
-0.28662932 -0.13973011 0.071469255 0.22265333 0.29760578 0.19844592 -0.24426836 -0.3193307
-0.03899992 -0.046359714 0.008426435 0.034310855 0.039045934 0.044274256 -0.017379386 -0.019992493
-0.08422145 -0.04870729 -0.028538227 0.055401053 0.029321097 0.06966695 -0.03749621 -0.059813607
-0.05408495 -0.025505211 0.0090974225 0.048359916 0.04224473 0.06106677 -0.03716493 -0.051778253
-0.052026797 -0.031777836 0.019985141 0.040518187 0.022461472 0.08792906 -0.09051399 -0.05917626
-0.051234357 -0.011898934 0.026543677 0.05446531 0.033225857 0.12411698 -0.12756585 -0.08713811
-0.039699204 -0.037200723 -0.009994565 0.02490589 0.017347058 0.02597849 -0.029894534 -0.01565412
-0.05602635 -0.029590853 0.0064944834 0.0046945526 0.016543813 0.031111334 -0.042645827 -0.026746098
-0.11270715 -0.021617245 0.026738744 0.059277736 0.09524373 0.18143979 -0.084576584 -0.07819365
-0.046834115 -0.01742709 0.0022227042 0.022128005 0.01997806 0.032180812 -0.014183944 -0.034644645
-0.16183284 -0.058240548 -0.028689552 0.02638437 0.019620573 0.08074922 -0.07300911 -0.06094026
-0.08737672 -0.023224767 -0.0125440825 0.04526754 0.02446741 0.05540178 -0.021438593 -0.04688713
-0.11437366 -0.006997064 0.04108853 0.06706448 0.03139154 0.06490116 -0.052909404 -0.063239396
-0.04746321 -0.0039956304 -0.030111497 0.029185874 0.03613487 0.03018551 -0.0036458806 -0.035897426
-0.055779565 -0.05216996 -0.009624714 0.039316215 0.012489666 0.04932524 -0.022897983 -0.04398925
-0.06151154 -0.07572687 0.07126686 0.080606654 0.14429905 0.10322539 -0.061991297 -0.10778342
-0.39393944 -0.1116596 -0.12176098 0.24228328 -0.077618755 0.178115 -0.047373477 -0.20974755
-0.087280475 -0.05122584 0.015822843 0.07952289 0.0046214894 0.065134294 -0.0368952 -0.07910531
-0.31536445 -0.23710693 0.02942164 0.1513417 0.0048177624 0.1869718 -0.13400106 -0.32529926
-0.115950525 -0.053722568 -0.028306754 0.07099977 0.033545617 0.07037681 -0.055583827 -0.0758526
-0.3626668 -0.36027747 -0.20858075 0.022884585 0.77329826 -0.3739103 -0.26062542 -0.10545906
-0.45703235 -0.28506708 -0.11569403 0.19513921 0.12996805 0.12536828 -0.2089726 -0.32525563
-0.09568469 -0.069445126 0.0013884465 0.05186487 0.0048419335 0.04022001 -0.03107033 -0.05080093
-0.3041994 -0.21386647 -0.11743234 0.08178918 0.07045611 0.058269974 -0.16630855 -0.19494222
-0.34900483 -0.25837916 -0.09786662 0.26916546 -0.16408724 0.19688281 -0.105746046 -0.19904003
-0.002937493 -0.0017847072 -0.0014354965 0.0020523814 0.001294855 0.00075839064 -0.0018119712 -0.0021909033
-0.06790899 -0.043435965 -0.0071662525 0.03508969 -0.0009191636 0.039193716 -0.038632285 -0.047462165
-0.02915981 -0.016069682 -0.0010493435 0.011307858 0.0002555397 0.014433187 -0.011761422 -0.023222735
-0.11936759 -0.04951958 0.011987551 0.091195874 0.044879694 0.10034549 -0.12294116 -0.08183172
-0.2319693 -0.19952299 -0.04256719 0.16544028 0.06422714 0.051697608 -0.08459831 -0.15458237

regularization f8 []
00000000: 7b14 ae47 e17a 843f
0.01
