models/model_lastfm_ground_truth.npz (npz, 565307 bytes, 3 tensors)

user_factors f4 [1892, 32]
000000 a4 ad a7 3e 6e 68 92 be e8 97 d2 be 19 e0 cf bd
       0.32749665 -0.285953 -0.4113152 -0.10150165
000010 23 9f 1d be 7f 35 ca 3d e1 fe 35 bd d1 59 2e 3e
       -0.15392737 0.09873485 -0.044432525 0.1702645
000020 14 ea be 3d a4 06 26 be 31 99 ed bd 41 60 11 3e
       0.093219906 -0.1621347 -0.116014846 0.14196874
000030 34 2c 47 be fd e8 32 be b3 c2 30 3e 7e e6 a7 3e
       -0.19450456 -0.1747169 0.17261772 0.3279304
000040 b0 8a 93 be 55 89 7f 3e ab 88 27 bd e8 a6 2d bd
       -0.28816748 0.24954732 -0.04090182 -0.042395502
000050 da 36 ad 3e 26 b9 ba bd ab 76 da 3d 67 ae 08 be
       0.3383091 -0.091173455 0.10667165 -0.13347779
000060 ef 1b 7c be 69 e0 2d 3e 45 46 40 be 6d b5 dd bc
       -0.24620031 0.16980137 -0.18776806 -0.02706405
000070 3d f3 6b 3e 8f bb 2e 3e 7e 40 96 3e 5f 58 50 be
       0.23042007 0.17063735 0.2934608 -0.20346211
000080 e4 6f bf bb 41 f3 46 bc 33 8f 6b bd b7 74 3a 3c
       -0.005842196 -0.012142957 -0.057509612 0.011380366
000090 7b 26 21 bc f4 6b 8e 3c f5 c6 9a bb 28 17 49 bc
       -0.009835835 0.01738546 -0.0047234246 -0.012273587
0000a0 50 2c 49 3c 66 f4 2d 3c 0b 97 bc bb 0a a2 fd b8
       0.012278631 0.010617351 -0.0057553104 -0.00012094162
0000b0 84 f5 26 3d 14 16 bc bb aa 03 65 bc 0c 4d 9c bb
       0.040761486 -0.0057399366 -0.013977924 -0.004769927
0000c0 44 a6 16 bd 34 d4 b1 bc 4a 2a 20 bd 8f ff d0 bc
       -0.036779657 -0.021707632 -0.03910283 -0.025512485
0000d0 a7 80 d5 bc d4 79 25 bd 6b d6 73 bb 96 b6 f4 3b
       -0.026062323 -0.040399387 -0.003720666 0.007468055
0000e0 ca 3e f8 3c 0a b7 26 bd 5c f9 ce 3c 4f b3 8c b8
       0.030303378 -0.040701903 0.025265388 -6.709119e-05
0000f0 a8 7c a1 3c 1b 7a 06 3c c8 2a b7 3c bb 38 de 3b
       0.019712761 0.008207823 0.022359267 0.006781665
000100 aa 58 b1 3d 73 d6 1d be 04 f1 d2 bd ad 68 dc 3b
       0.086594895 -0.15413837 -0.10299876 0.0067263455
000110 73 82 02 bd c4 ec b8 3c f9 d5 00 3d 16 54 c9 bd
       -0.031862687 0.022573836 0.03145406 -0.09830491
000120 79 87 8b 3d 26 28 9f bc c8 b4 fa 3d b6 38 34 3e
       0.06812949 -0.019428324 0.122415125 0.17599759
000130 3e 08 81 bd 2b cf 9a bd c6 c8 3c 3e ae 82 ef 3b
       -0.063004 -0.075590454 0.18435964 0.0073092794
000140 2b c3 2d bd 64 ad 15 be bd 50 ce bd d7 40 2a 3e
       -0.042422455 -0.14616925 -0.10073993 0.16626297
000150 41 30 a9 3d d5 64 bb be 41 c4 53 3e fe c6 39 3e
       0.08261157 -0.36600366 0.20680334 0.18142316
000160 dc 14 04 be 99 55 df 3d 28 67 96 bd 69 2d 0a be
       -0.12898582 0.10904998 -0.07343894 -0.13493885
000170 38 64 98 3c 8e e1 2e be 3f 59 fd 3d a0 29 e8 be
       0.018602476 -0.1707823 0.12370538 -0.45344257
000180 03 f9 35 3e 9e 91 1c bd 62 f2 d8 3d 41 3c f4 bd
       0.17770772 -0.03822481 0.10593106 -0.11925555
000190 ff 27 c3 bd 12 83 84 bd 32 42 77 be 1f 96 09 bd
       -0.09529113 -0.06470312 -0.24146345 -0.033590432
0001a0 cc 9a 73 3c 6d ce 83 bd bc 2f 18 3e c6 a5 16 3e
       0.014868449 -0.06435857 0.14861959 0.14711675
0001b0 f3 79 b5 3e c8 2d 04 3e 2d a4 a7 3d e7 ab 55 bd
       0.35444602 0.12908089 0.08185611 -0.052165892
0001c0 03 ed 9e 3d 01 11 34 be 6a 0e eb bd f6 e1 7b be
       0.0776005 -0.17584611 -0.11477359 -0.24597916
0001d0 f7 a3 6c 3e 6f bc 12 be be d3 3f be e5 76 f0 bd
       0.23109423 -0.14329694 -0.18733117 -0.11741427
0001e0 bb cf 22 3e 1a 52 50 be dc 3c df 3d 47 33 85 3e
       0.15899555 -0.2034382 0.1090028 0.26015684
0001f0 ac a2 76 bd db bb a2 3c 4a 62 d6 3c d7 13 bf bd
       -0.06021373 0.019864967 0.026169915 -0.09329956
000200 f6 bd c7 bd 84 70 55 bd d8 7c 8f bd 14 d4 a3 bd
       -0.09753029 -0.052109256 -0.07006234 -0.07999435
000210 ae dc c0 3d 63 e7 07 3d 1c 30 b1 bd 86 06 fa bd
       0.09417091 0.033179652 -0.08651754 -0.122082755
000220 bc 6f cc 3d 7a 30 52 bc 11 81 f0 bc d2 d5 5a 3c
       0.09982249 -0.0128289405 -0.029358419 0.013356643
000230 ff 9c 9d 3d ce b8 05 be 93 d5 f3 3d 5f 13 81 3b
       0.0769596 -0.13058779 0.119059704 0.003939077
000240 6a 6d 1a 3d 34 d7 20 3c 4a 34 b6 bd 74 ad 46 bc
       0.037702 0.009816933 -0.08896692 -0.012126315
000250 36 d4 3b 3d e5 df ef 3d e7 60 3d 3d 23 ac cb 3d
       0.045856677 0.11712626 0.04623499 0.09944942
000260 b9 62 81 3d 39 fa 27 3d b1 29 07 3e 49 45 a6 bd
       0.06317658 0.041010115 0.13199498 -0.08118684
000270 72 f8 fe 3d be 72 3b bc 79 19 b7 bd 1f d9 98 3d
       0.12449731 -0.011440931 -0.089404054 0.074632876
000280 7f d9 89 be 84 0b 2a be 88 76 2a bd e6 7c af 3d
       -0.2692375 -0.16605955 -0.041616946 0.08568744
000290 0a 90 5f bd 2d 3e 31 3e 2c 5f 18 3c 41 7e cc bd
       -0.054580726 0.17308874 0.0093000345 -0.099850185
0002a0 28 7e 3a bb 13 ea 92 3c 47 56 b0 3d 17 cc fa 3d
       -0.0028456543 0.01793388 0.08610206 0.12245958
0002b0 26 89 af bd 42 a5 28 be 7e 88 1a 3e 2f 6a 22 be
       -0.08571081 -0.16469291 0.1509113 -0.15860818
0002c0 f0 97 00 bc 34 b7 35 3e 05 b3 30 3d 61 7c e8 be
       -0.007848725 0.17745668 0.043139476 -0.45407394
0002d0 bb 42 d9 3c 7f 66 08 3e 27 24 c1 3d 00 bc 50 3e
       0.026521077 0.13320349 0.09430724 0.20384216
0002e0 1c d3 1f be a3 80 7f bd f5 2f fe bc 7d 05 3a bd
       -0.15607876 -0.062378537 -0.031028727 -0.04541539
0002f0 d7 dc 6d bd c1 35 63 3d b3 e0 3c be d9 00 2d bd
       -0.058071937 0.055471186 -0.18445091 -0.042237137
000300 7c 7b 39 3b 31 a8 38 bd 9b 43 0e 3e 10 17 1b bd
       0.0028302362 -0.045082275 0.13892977 -0.03786379
000310 bc 83 17 3e 97 1b 19 3d c8 14 0a be 4a 88 19 bd
       0.14796346 0.037379827 -0.1348449 -0.03748349
000320 17 b6 9a 3e 77 0b a7 3d 22 ec 23 3e 79 e5 37 bd
       0.3021705 0.081564836 0.16008046 -0.044896577
000330 cf 38 e9 3d 83 b1 24 be 58 6b 7c 3d 42 54 70 bd
       0.113877885 -0.1608334 0.06162581 -0.058674105
000340 9f 14 bf 3b 48 ad 96 3e 0b e0 96 3d a1 39 bf bd
       0.0058313156 0.29429078 0.073669516 -0.09337164
000350 43 1b 4e bc 17 0d 8e 3e c2 f9 41 3e 0c 49 f7 3d
       -0.012579742 0.27744362 0.18942931 0.120744795
000360 d7 2e 10 be 83 82 16 bc cf 17 33 3d 8d 0e d8 bd
       -0.14080368 -0.00918639 0.043723878 -0.1054965
000370 b2 e0 96 3e 31 47 2f bd eb f9 f8 bd 7c a5 93 bc
       0.29468304 -0.042792503 -0.12157043 -0.018023245
000380 d8 aa 2e 3d 80 dd fb bd f1 c9 d5 3d ed 46 96 bd
       0.042643398 -0.12298107 0.10438908 -0.07337747
000390 6e 4d 1e 3e 60 ae 92 be 35 b4 3d bd 17 78 51 3e
       0.15459225 -0.28648663 -0.046314437 0.20455967
0003a0 4d 57 04 3e ed b8 47 3e 8e 79 06 bd bd 47 57 bd
       0.12923928 0.19504137 -0.032830767 -0.05255865
0003b0 18 6d a9 bd a6 39 3b bd 29 1f 67 3e 70 67 a2 3d
       -0.08272761 -0.045709275 0.2257048 0.079298854
0003c0 e1 5a bd bd 95 9c ed bd 32 82 43 3c 5a 10 6d 3e
       -0.092458494 -0.11602131 0.011932896 0.23150769
0003d0 aa 35 82 bd 93 35 12 3d e7 67 0a 3e 42 11 44 3d
       -0.06357892 0.035695624 0.13516198 0.04786802
0003e0 a8 73 bf bd 5a 5c 74 be 80 62 39 3b 52 a5 d9 bc
       -0.093482316 -0.23863354 0.002828747 -0.026568089
0003f0 a1 49 97 be 7f 5a 02 bc 93 58 07 3d b4 99 09 3e
       -0.29548362 -0.007956146 0.033043455 0.1343754

item_factors f4 [2500, 32]
000000 b6 56 3d 3e 63 e2 98 3c bc 2c 1f bd a8 74 1d 3d
       0.18490109 0.018662637 -0.03886102 0.03844133
000010 c8 f4 3a be 04 1e be 3d 10 e6 0e be a5 40 b9 bc
       -0.18257439 0.09283069 -0.1395495 -0.022613833
000020 3b a7 67 3d b4 d4 e2 3c b9 f0 2b 3e 7f 8a 20 be
       0.056555968 0.027689315 0.16791047 -0.15677832
000030 7d 67 9e bc a1 90 9c bd 71 75 1e 3e 04 4c f4 bd
       -0.019336456 -0.07644773 0.15474488 -0.11928561
000040 a9 ca aa bd c1 f8 58 bd 15 87 b8 3c 87 d6 77 3d
       -0.083394356 -0.052971605 0.02252535 0.060507324
000050 18 2e a0 3d 2e 33 83 3d 6a 21 c2 bd 54 aa 53 3d
       0.07821292 0.06406246 -0.094790295 0.05167611
000060 ea 2e 04 3e 29 23 bc 3d e6 13 64 3d 1f 12 71 3c
       0.12908521 0.09186394 0.05568304 0.014713793
000070 6d 98 59 bd 86 dc fb bc 49 fa 2a bc 25 58 8e bd
       -0.05312388 -0.030744802 -0.010435649 -0.06950406
000080 ae 5e 17 bd 24 1b 0d bd 93 86 c8 3c a5 e4 7b 3d
       -0.036955528 -0.03444971 0.024478232 0.06149735
000090 da 01 eb bd 51 72 2a bc 24 30 d9 bb 9d 5f 0d 3e
       -0.114749625 -0.010403232 -0.0066280533 0.13806005
0000a0 73 ce 68 3c 43 ab 38 bd e7 37 b9 3d da 15 92 bd
       0.014209378 -0.045085203 0.09043866 -0.07133074
0000b0 06 87 80 3d 2f e7 00 be 87 6d b7 39 46 dc 85 3c
       0.06275754 -0.1258819 0.00034986084 0.016340386
0000c0 84 16 f1 3c 20 fa f0 bd 73 21 b2 3d e1 78 1e bd
       0.029429682 -0.117664576 0.08697786 -0.038689498
0000d0 e9 11 15 3e f7 8f 77 3d e8 f3 b3 bc a5 44 36 3d
       0.14557613 0.06044003 -0.02196689 0.04449906
0000e0 fb 5b b2 3d 0b 0d 7d bc 80 3c c1 bd 98 39 c2 bc
       0.0870895 -0.015445004 -0.094353676 -0.023709103
0000f0 78 1d 10 3d 5b ff de 3c 0c e4 19 bd e7 79 15 3c
       0.035184354 0.027221372 -0.037570998 0.009123302
000100 de 7b 9c 3d d4 7f 9e 3e 04 bb 32 bd ef bb 48 3e
       0.07640813 0.309569 -0.043635383 0.19602941
000110 31 41 e4 be 2f 49 68 3e cb d1 17 bf 0b 95 bd 3d
       -0.44580987 0.22684167 -0.59304494 0.09256943
000120 5f 54 d6 3d ec c6 30 bc 01 8e a5 be e2 3e db be
       0.10465311 -0.010789614 -0.32334903 -0.42821413
000130 d7 7b be 3e d8 24 6a bc e3 ee 0b 3f 30 8a 8e be
       0.37203857 -0.014291011 0.5466139 -0.27839804
000140 04 d8 81 3e 21 1f 14 bd 80 98 fa 3e b4 2d 81 be
       0.2536012 -0.0361625 0.48944473 -0.2523018
000150 54 a7 14 3f 44 e9 8c be f0 15 9b bd 74 6f 23 3e
       0.5806782 -0.27521718 -0.075725436 0.15960485
000160 fe 46 af 3d 9b bd e6 be 93 c0 90 bb 9b 7b 11 bd
       0.085584626 -0.45066532 -0.004417488 -0.03551827
000170 dd 3d 45 be 26 6a d8 be f4 4c 58 be af 63 07 3e
       -0.1926188 -0.42268485 -0.21123105 0.1322162
000180 0a 0a 05 3c d4 8a 53 bd 90 e3 bf bc 6d 8f d0 3c
       0.008120069 -0.05164607 -0.02342394 0.025459016
000190 1e a0 a8 3c 83 2e de bd 7a e1 6f bd a6 fc d7 38
       0.020584162 -0.10848715 -0.05856464 0.00010299058
0001a0 cc 52 f3 3d b5 0e 9f 3d f6 2a d3 bd 70 f7 94 3c
       0.118810266 0.07766477 -0.103109285 0.018184394
0001b0 c1 25 5b 3d f7 48 0b bb e8 db ac 3d ee 4b c3 3c
       0.0535028 -0.0021253207 0.08440381 0.023839917
0001c0 aa 1a 31 bd 11 0c 3d bc 2b f6 24 bd 88 44 35 3e
       -0.04323832 -0.011538521 -0.040273827 0.17701924
0001d0 4f be 9c 3d 1b 91 3d 3d 79 21 14 3c 68 14 9d bd
       0.07653486 0.04628096 0.009041184 -0.07669908
0001e0 fe 0f 0d 3d 9e eb c0 bd ac cf 9f 3d 67 52 40 3a
       0.03443908 -0.094199404 0.07803282 0.00073364977
0001f0 f9 e0 9a bd 96 e9 03 be 67 78 ed ba bf ba 72 3d
       -0.075624414 -0.12882075 -0.0018117548 0.059260126
000200 64 e3 23 3e a9 4b 6f bc 78 be 72 bc 97 b1 a0 3b
       0.16004711 -0.014605441 -0.014815919 0.004903983
000210 0a b1 7c be 45 08 4c 3d 04 a3 04 be c7 ba ee 3c
       -0.2467691 0.049812574 -0.1295281 0.029141797
000220 52 45 2f 3d 45 b8 8b bd 98 06 68 3d 32 0b 3f be
       0.04279072 -0.06822256 0.056646913 -0.18656614
000230 e0 2f 9e bc 86 a8 6b be ca ba f0 3d b4 9d e4 bd
       -0.019309938 -0.23013505 0.11754377 -0.11162892
000240 ff df 35 bd c5 3d 3a bc 76 35 a6 3d b8 a2 b9 3b
       -0.044403072 -0.011367266 0.081156656 0.0056651495
000250 3a 31 80 3d b9 cd 78 3d a5 5a 36 be a4 b6 d7 3b
       0.06259389 0.060743067 -0.17808016 0.0065830518
000260 2d 78 65 3e bf 48 ba 3d fe 81 1d 3d 1c 94 36 3d
       0.22409125 0.090959065 0.03845405 0.04457484
000270 70 75 34 bd b4 e1 9d bd 53 74 f8 bb 86 69 d7 bd
       -0.04405731 -0.07709065 -0.0075822263 -0.10518174
000280 d0 23 f3 3d 77 7c b2 3c 55 b4 25 bc 5d 89 da 3d
       0.11872065 0.021787865 -0.010113795 0.10670731
000290 e4 9e 04 be fc ad 14 3d 3f 53 a0 bd b4 ca 42 3d
       -0.12951237 0.036298737 -0.07828378 0.047556594
0002a0 d0 48 f9 3c f8 59 bb bc 66 42 2d 3e cc fc 12 be
       0.030430228 -0.022870049 0.1691986 -0.14354247
0002b0 d8 03 c1 bd 98 ac 12 be ff 07 24 3d 8c 8d 85 bd
       -0.09424561 -0.14323652 0.04004669 -0.065211385
0002c0 0d 16 74 bd 7a 8a 95 bd e6 dd f5 bc ea c7 fb 3c
       -0.05959134 -0.07301803 -0.030013036 0.030734975
0002d0 0c a2 36 3c ec 93 3a 3d 59 db 29 be 01 8b ee 3c
       0.011147033 0.045551226 -0.1658758 0.029119017
0002e0 90 0d ba 3d 7a 0d 50 3d 7b b2 17 3d 53 42 3a 3d
       0.09084618 0.050794102 0.037035447 0.045473408
0002f0 c5 8b ce 3c 8e 47 0b be 10 34 54 bd 3f 0b da bd
       0.025213132 -0.13601515 -0.051807463 -0.10646676
000300 24 a0 a4 bc a2 4b 37 bd 99 91 1e 3e 91 57 41 3e
       -0.020095892 -0.044749863 0.15485229 0.1888106
000310 3b 9f 8b bc cc 6d 8a 3d 43 b4 f4 3d de b9 49 3e
       -0.0170437 0.06759223 0.11948445 0.19699809
000320 f1 f0 ac bc c4 22 01 3b c3 b5 b1 3d 6d ee 19 3b
       -0.021110984 0.001970456 0.086772464 0.002348806
000330 d2 dc 58 bd aa d4 2a be 2a c3 d9 bd d5 cf 98 3d
       -0.052944966 -0.16682687 -0.10632928 0.07461516
000340 8f 86 9a 3c 29 e7 43 be 2d dd 98 3d e0 15 92 bd
       0.01886299 -0.1913115 0.07464061 -0.071330786
000350 45 57 44 3e 2a be 75 3d c8 86 57 bc 9f 03 49 3d
       0.19173916 0.059995808 -0.013154693 0.04907572
000360 bd ea e1 3d ce a9 02 be 0d a9 00 be a0 96 c7 bd
       0.11031101 -0.12760088 -0.12564488 -0.09745526
000370 79 07 2a 3e 8c ee aa 3c 0f cb d0 bd a2 41 ad bc
       0.16604413 0.020865701 -0.1019498 -0.02114946
000380 9b f4 4a bd 4c 4a a7 bd 44 19 fb 3d c1 ee 61 3e
       -0.04954968 -0.08168468 0.122606784 0.22063734
000390 21 b8 af bc 3e bb 8d bd d6 a8 84 3d 26 de 33 3e
       -0.021450104 -0.06920479 0.064775154 0.17565212
0003a0 82 69 96 3c e6 98 0d be 7a 3b 19 3e c7 ec cb bd
       0.018360857 -0.13827857 0.14964095 -0.09957271
0003b0 75 42 36 3d ee 66 73 be 1e 0b db bd 1a aa a9 3c
       0.044496972 -0.23769733 -0.1069548 0.020710994
0003c0 ba 8e 53 3d 0c 26 4a be 93 28 2c 3d ae c8 28 bd
       0.051649787 -0.19741076 0.042030882 -0.041207008
0003d0 b0 fe fc 3d 06 90 56 3c 6c 27 20 be b7 c8 ec 3c
       0.12353265 0.013095861 -0.15640038 0.028904302
0003e0 26 ff ce 3d 60 01 5e bd db d0 8a bd 6a 57 a9 bd
       0.101072595 -0.05420053 -0.06778117 -0.08268626
0003f0 f2 48 2b 3e 00 ed 3f be a9 17 4c 3b bf fb 9f bd
       0.16727045 -0.18742752 0.0031142032 -0.07811689

alpha f8 []
000000 9a 99 99 99 99 99 b9 3f
       0.1
