models/model_lastfm.npz (npz, 563771 bytes, 2 tensors)

user_factors f4 [1880, 32]
00000000: 04cf 753d 261d 0bbc 720c 9cbc ed87 abbd
00000010: 365a 7ebd 78d4 af3d a31a a33d a691 c3bd
00000020: b5d8 b8bc 3085 c4bb 224f 75bd ebfa 353c
00000030: bf9d ac3c e79b cabd 0cab 553d c42f 153e
00000040: 3765 ab3c 324a 1ebd f37c 863c 906a 0ebd
00000050: 0b80 3ebd e551 f2bc 831e a5bb 3840 993d
00000060: a7b9 c7bd 21ff d7bd 9f7d dc3c 7abd 4cbc
00000070: f6b4 8e3d a47e 01bc b8a8 01bd 2c3c 833c
00000080: cae5 6c3b e0e6 ad3a 52dc ee3b 22bc 8abb
00000090: 670d 983b 5b8f 66bb bfef f7ba 0a3d c5ba
000000a0: f5d0 1fbb 89db 13bb 6c67 feba b1e3 5e3a
000000b0: 3772 10bb d94d 63ba 49aa ddb9 e74c ee3b
000000c0: 3e8a 93bb 6499 4b3b 331c d73a 0ac0 78b9
000000d0: c389 8abb 90b1 69bb 8807 c03a 2c89 5c3b
000000e0: db80 c3b9 9e00 b6ba 1aa5 d43b 1014 ac3b
000000f0: 8c62 03ba 091a cfbb fd10 c83b e1b0 153c
00000100: 51ee 0c3d 2f40 b3bd 95c3 013c 2135 85bd
00000110: f770 90bc c2f7 3d3d 5e2f 1c3e 8102 5abc
00000120: 77f3 dbbd 938d 5bbd 69dc c0bd cc7d 503d
00000130: ec1b ecbc 2e8b edbd 9f8d d13d a668 003d
00000140: 49e9 d93b 4032 1f3d da6c 48bd d221 583b
00000150: 2432 453d 646b 54bd a4a8 023d c2a4 d83c
00000160: 9e59 f3bd 47f7 1dbe 20d5 a73d 0ced 2bbc
00000170: e28a 353d a487 9b3d 4fed b43d 78cd e53a
00000180: 262c e83d 85c8 89bc 4820 773c e3d4 073e
00000190: 208f debd e232 b33d 9007 14bd 5420 81bd
000001a0: 8260 d5bd e346 a83d abc0 963b 7bac 09be
000001b0: c767 4c3c 5e11 cabd d2a6 36be 51b8 ba3d
000001c0: ab41 833c a9a2 07bd 7825 efbd be83 393c
000001d0: 72fc 8d3d a4ac afbd 3d3c adbc 246d f1bc
000001e0: 2a29 833d ad05 a2bc 91b1 143d dfbf 55bd
000001f0: 723b 94bd 14c1 fabc 218e 84bc cbc5 883e
00000200: 1b5a 7b3c b1aa f43c d64f ca39 6fb6 6bbc
00000210: 78ff c83c 0fa9 523c 9204 903c 754f 283d
00000220: 04c9 be3c 3ecc 49bb c83f 31bd acab 0abd
00000230: 8928 0abc 5fb4 dbbc 6477 c13c a540 063c
00000240: 10e4 ed3c 1782 e0bc f92d 3ebc bb34 97bc
00000250: 5e51 6cbc 4779 8539 0905 aabc b731 2dbc
00000260: 9d43 36bc 004f fd3c 301d e83c 4725 f0bc
00000270: 873a 8bbc a2d9 88bb 005f c2bb 8bec 953b
00000280: bae0 0a3d 01af 323c f34a 82bd eca1 8f3d
00000290: 310a 59be 3e6b 60be 8cfe c13d 9cf4 cebc
000002a0: 6d6c 01be d3a3 f93d 68bf c43d 3599 94bd
000002b0: e034 f5bd 4c2d ab3b 35f7 1abb cec0 d0bc
000002c0: 9512 f33d 0454 5d3d 37f9 40bd 72dc bb3d
000002d0: 9237 f6bd c864 303d 3136 1dbe 8991 ac3c
000002e0: 372f bd3c a170 3a3a e85d bd3d ade6 99bd
000002f0: 4ed4 10bd ac81 453c 983e 20be 8552 273e
00000300: 5c52 993d 7b34 83bd bfb8 8dbd 70ee 49bd
00000310: e974 34bd c330 d23d 026c 5f3b 11ee ce3b
00000320: d9f7 91bd 59b4 06be 32b2 7bbd 7272 6d3c
00000330: ca40 29be b587 adbd e672 443d 5d60 87bc
00000340: 274f b2bd cc30 e43d 6557 0a3d cece 1d3d
00000350: 786e 553c b2f3 99bd 86d8 5bbc 76b6 f03b
00000360: 3280 bf3d a341 a53c c97c ac3d 1294 923d
00000370: ab5a 1ebe a3da 373d 82b0 6dbd 6b4f efbd
00000380: 733b 913d 7847 be3b 08b4 63bd 1b16 e4bd
00000390: 6a33 813c 703c 1abd 4b8a 5abc 4949 7f3d
000003a0: 7ef7 c4bd 5b67 dfbc fd86 cbbc 8e65 cabd
000003b0: 3483 2d3e 3736 a2bc af36 94bd 5632 a4bd
000003c0: 40bb e03c af3c 5c3d cd44 7ebd e16d 643d
000003d0: 9286 2d3c 9a9f 0cbe b3ec bfbb c042 44bb
000003e0: 72b2 8c3d 1842 a6bc 4c80 dbbd fb7a 81b9
000003f0: b5c8 8f3d e4a6 51bc e661 a13c 2255 c33b
0.06001188 -0.008490836 -0.019048903 -0.08375535 -0.06209775 0.08585447 0.07964065 -0.095492646
-0.022564271 -0.0059973225 -0.05988992 0.011107187 0.021071313 -0.09893017 0.052165076 0.14569002
0.020922286 -0.038644977 0.016417002 -0.034769595 -0.04650883 -0.029580066 -0.0050390377 0.07482952
-0.09752207 -0.10546709 0.02691537 -0.012496347 0.06968109 -0.007903729 -0.031655043 0.016019903
0.0036147707 0.0013267659 0.007289448 -0.004233853 0.0046402696 -0.0035180661 -0.0018916054 -0.0015048098
-0.0024386023 -0.0022561273 -0.0019409484 0.00085025566 -0.0022040734 -0.0008670963 -0.00042279277 0.007272351
-0.0045025637 0.003106677 0.0016411602 -0.00023722663 -0.0042278483 -0.0035658814 0.0014650682 0.0033651097
-0.00037289303 -0.0013885682 0.006489408 0.005251415 -0.0005011938 -0.0063202423 0.006105541 0.0091364095
0.034406964 -0.087524764 0.007920166 -0.06504274 -0.01763199 0.04637886 0.15252444 -0.013306261
-0.107397966 -0.053601813 -0.0941704 0.05090122 -0.028821908 -0.11598812 0.1023209 0.0313498
0.006650124 0.03886628 -0.048931934 0.0032979143 0.04814352 -0.05186023 0.03189911 0.02644575
-0.118823275 -0.1542636 0.08194947 -0.010493528 0.044321902 0.07594231 0.088343255 0.0017532548
0.11336546 -0.016819248 0.01508338 0.13264804 -0.10867143 0.087499395 -0.036140025 -0.06304994
-0.10418798 0.082166456 0.0046006045 -0.13444702 0.012475914 -0.09866594 -0.17837074 0.09117187
0.016022524 -0.03311411 -0.116770685 0.011322914 0.06932916 -0.085778505 -0.021146888 -0.029470988
0.06404336 -0.019778097 0.036302153 -0.052184936 -0.07237901 -0.030609645 -0.016181054 0.26713404
0.015341307 0.029866548 0.00038587925 -0.014386757 0.02453588 0.0128576895 0.017580304 0.0410914
0.023289211 -0.0030791904 -0.043273717 -0.033855125 -0.008432516 -0.026819406 0.0236165 0.008194123
0.029039413 -0.027405782 -0.01160764 -0.018457761 -0.014423696 0.00025458095 -0.020754354 -0.010570935
-0.011124519 0.03092146 0.02833423 -0.02931465 -0.016995681 -0.0041763345 -0.005931735 0.0045753173
0.033905722 0.010905982 -0.06361952 0.07013306 -0.21195294 -0.2191591 0.09472379 -0.025263123
-0.12639017 0.1218945 0.0960682 -0.072557844 -0.11972976 0.0052239057 -0.0023645882 -0.025482561
0.118687786 0.0540352 -0.04711267 0.09172906 -0.12022318 0.043064862 -0.15352704 0.02106549
0.023093803 0.000711212 0.09246427 -0.07514701 -0.03535872 0.012054842 -0.15648878 0.16340072
0.07486412 -0.06406494 -0.06920003 -0.049299657 -0.044056807 0.10263207 0.0034091477 0.006315001
-0.07127351 -0.13154735 -0.061449237 0.014492618 -0.16528621 -0.0847315 0.04796114 -0.016525442
-0.08706503 0.1114212 0.033774752 0.038527302 0.013026826 -0.07517184 -0.013418322 0.00734597
0.09350623 0.0201729 0.084222384 0.071571484 -0.15464275 0.044886243 -0.05802966 -0.1168507
0.07091417 0.0058068596 -0.055591613 -0.11137029 0.015771586 -0.037655294 -0.013338636 0.06232575
-0.09617518 -0.027270963 -0.02484464 -0.09882651 0.16944581 -0.019801242 -0.072369926 -0.08017413
0.027433038 0.05376881 -0.062077332 0.05576885 0.010591166 -0.13732758 -0.005857074 -0.0029947013
0.06869973 -0.020295188 -0.1071783 -0.00024696425 0.07020704 -0.0127961375 0.019700002 0.0059610764

item_factors f4 [2500, 32]
00000000: 83cd c2bb 4f51 7a3c e6c6 28b9 e7a1 95bc
00000010: ca06 b33b 55e0 bd3c c30e 923c 6992 b63b
00000020: bf98 4dba 1b87 27ba 1c55 8c3b d354 a3bc
00000030: a8ed ec3a ccb6 38bc 1fb0 28bc fd90 c33b
00000040: e8aa e63a 433e 2e3c b39d 10bb 8639 903c
00000050: 19c8 15bc be5f 4fbc bf5d 973b fd42 af3b
00000060: 7566 3bba e406 32bc fe95 9d3b dce3 1b3c
00000070: a872 233a 2eea 883b 6c46 213c a0f1 793c
00000080: 2361 c93b b897 4b3c d58d 1fbb 06f9 0cbc
00000090: 82aa 103c e3ea 683c fd1e 4a3c f9e6 d43b
000000a0: aba5 36bb fa18 ea3b a648 833b 160d 99ba
000000b0: 43fd 05bb 1533 14bc b09e aeba ae2d 173c
000000c0: ae6f cf39 10e2 513b cc81 073c f625 ba3c
000000d0: 5915 b23b 657c ab3a 0017 a03b 9853 133c
000000e0: 5fe7 30bb 4972 81bc 05c0 60bb 015a 813b
000000f0: 3278 c53b a28a ad3b 48d1 d139 bb68 a23b
00000100: 1d22 7dbd 9e61 233e fc62 08be d991 a4bd
00000110: 5f78 143e bb00 d83c ca47 a83d 83bb 643d
00000120: e3ef 913d cbee 00be 6ceb 0cbd 33cd 28bc
00000130: 322a 29bd a0f5 15be 37f6 9ebd f685 3cbd
00000140: 67f4 47bd e39c 323e a5fc a63c 37d5 f53d
00000150: 01ae 94bd e2d7 5dbd 0409 b63c dd37 b53d
00000160: fecd 283d 296f 20bc 78dc e53d d1d5 eb3c
00000170: 43f7 cd3d fd59 93bd 74af d13d f45c 173e
00000180: b7f6 6739 10c7 8d3c 4147 abbb fbdd e7ba
00000190: d033 5b3c e4c1 303c 8f1a a53b 236d 7f3b
000001a0: 8dab 3ebc cdca 8ebb 0ee0 62bb 38dc 4cbc
000001b0: 2d9a 013c f6bb c7bc 61df b03b dbf2 b6bb
000001c0: 18e7 c3bb cfcf be3c ab70 293b 751c 833c
000001d0: 73b4 55bc 9353 c2bb 7e7a 1d3b 6a46 ec3b
000001e0: c989 cb3b b161 58bc a912 c3bb bcfb 23bc
000001f0: 8cb0 983c 070e 493b 1685 c73b 715e 853c
00000200: d181 123d 5dcb 86bb be30 4ebc 69ba 703b
00000210: c3a6 fdba 3cc4 d43c 59c5 2f3c d4d9 923b
00000220: d8d8 3abb 15c7 a13b d8f9 a13c f533 94bb
00000230: 850b 383b 90c5 08bd 7631 88bb 5b75 233d
00000240: 637e 053c 3e12 2c3d 80a2 b4ba 8526 963c
00000250: 05aa b1bb c73f 82bc bb7c babc 29cb 5d3b
00000260: b10a 86bc 0d41 8f3a abcc 343a 4078 313c
00000270: 4d4f 613c ce9d 8cbc fc4c 5d3c fb22 c63c
00000280: 099b 853b ed3e 0b3b 50e4 9fbc 4a60 1fbc
00000290: 9348 d23a 16cd b33b db73 623a 0e15 833c
000002a0: 7459 a3bc f5bc 3fbb 4c0b 4a3b dd22 853a
000002b0: 1b05 51bc af70 3fbc 019a 91b9 36d4 953c
000002c0: 2291 0a3c 4152 973c 6d8a 0f3c 7472 e13c
000002d0: b350 19bb ef1f 5dbc 484c f83a d4d2 343c
000002e0: 774b 68bc 266d 37bc 474f b0ba 2800 aa39
000002f0: bac7 8c3b 7173 0fbc d123 073a 32d2 f73c
00000300: f5bb 6dbb 182b a13c 2e7e 0cbd b542 cbb9
00000310: 772a a33c 75f3 643c 9b51 593c 5e79 523c
00000320: d4d0 063a 5126 3b3b 4225 1e3c 8393 823c
00000330: 7aa3 4cbc a272 c1bc ccb3 3e3c 8875 cf3c
00000340: e328 ba3b 2a1b c03c 4fef 3f3c 3d23 233d
00000350: 709e 9f3b 0527 27bc 05fa b43c e624 813c
00000360: d72f c4bc 00a8 53bc 7b97 50bc eacf 37bc
00000370: 3cdb a13c a7ca acbb 359f 063c c175 dd3b
00000380: 9b28 743c 4b54 883c 821d e1bc 4c26 e3bb
00000390: 2982 b73c 911d 013d efed 30bc 3888 443d
000003a0: e59f 03bc e87e db3b b991 8d3c 861e 153a
000003b0: 9546 82bc 786c 1dbd 7072 8f3b b1ac f63c
000003c0: b34f 4e3c 45f0 df3c 028a bc3c 6a48 413d
000003d0: 98b0 343c d5e0 5e3b bac4 063d 64c5 573c
000003e0: de12 b9bc 4568 97bc dbbd ccbc 121c eb3b
000003f0: ca7e 273b af17 493b 801b f6bc a714 04bb
-0.005944909 0.015278175 -0.00016095824 -0.018265678 0.005463456 0.023178259 0.017829305 0.0055716527
-0.00078428903 -0.0006390677 0.0042826068 -0.019937908 0.0018076198 -0.011274051 -0.010295897 0.0059682117
0.0017598541 0.010634962 -0.0022066652 0.017605554 -0.009141945 -0.012657104 0.0046193297 0.005348562
-0.0007148751 -0.010865901 0.00480914 0.009514775 0.00062350417 0.004178307 0.00984345 0.015255362
0.006145613 0.012426309 -0.0024346013 -0.008604294 0.008829715 0.014216158 0.01233649 0.0064972606
-0.0027869742 0.0071440907 0.004006463 -0.0011676874 -0.0020445145 -0.009045382 -0.0013322439 0.0092271995
0.00039565325 0.0032025613 0.008270692 0.02272318 0.0054346737 0.0013083337 0.0048855543 0.008992098
-0.0026993377 -0.015801566 -0.003429414 0.003947497 0.0060262913 0.0052960673 0.00040019513 0.0049563325
-0.06180011 0.15955207 -0.1331901 -0.08035631 0.14499043 0.026367536 0.08216818 0.055842888
0.07125833 -0.12591092 -0.034404203 -0.01030283 -0.041300006 -0.1464448 -0.077618055 -0.046026193
-0.048817065 0.1744266 0.020384142 0.12003558 -0.07259751 -0.05416096 0.022221096 0.08848546
0.041212074 -0.009792128 0.11223692 0.028788479 0.10056927 -0.07194898 0.10238543 0.14781553
0.00022121785 0.017306834 -0.005227 -0.0017690057 0.013379052 0.010788415 0.0050385664 0.0038974963
-0.011637581 -0.004357672 -0.003461841 -0.012503676 0.0079102935 -0.024381619 0.0053977226 -0.00558315
-0.0059784763 0.02329245 0.002585451 0.01600478 -0.013043511 -0.005930373 0.002402931 0.0072105424
0.0062114936 -0.013206885 -0.005953152 -0.010008749 0.018638872 0.0030678527 0.006088863 0.016280385
0.035768334 -0.0041135983 -0.012584863 0.0036732203 -0.0019352067 0.025972478 0.010728204 0.0044815335
-0.0028510597 0.0049370625 0.019772455 -0.0045227953 0.0028083038 -0.033391535 -0.004156287 0.03990684
0.008147809 0.042009585 -0.0013781339 0.018328914 -0.0054218792 -0.015899552 -0.022764554 0.0033843017
-0.01636252 0.0010929421 0.0006896953 0.0108318925 0.013751817 -0.01716509 0.013507124 0.024186602
0.0040773195 0.0021247223 -0.019518048 -0.009727547 0.0016043357 0.0054870946 0.00086384796 0.01600125
-0.019940116 -0.0029256914 0.0030829487 0.0010157485 -0.012757565 -0.011684581 -0.00027771297 0.018289667
0.008457454 0.018471839 0.008761031 0.027520396 -0.0023394048 -0.013496383 0.0018943632 0.0110365935
-0.0141781485 -0.011195457 -0.0013451361 0.00032425043 0.00429627 -0.008755551 0.00051551784 0.030251596
-0.0036275361 0.019673869 -0.03430002 -0.00038768878 0.01991771 0.01397406 0.013264085 0.012846319
0.0005142812 0.0028556774 0.009652438 0.01593948 -0.012490148 -0.023614231 0.011639547 0.025324598
0.0056811436 0.023450453 0.01171477 0.039828528 0.004871182 -0.010202174 0.022091875 0.015764665
-0.023948593 -0.012918472 -0.012731428 -0.011219004 0.01975786 -0.0052731815 0.008216669 0.006758422
0.014902259 0.016641757 -0.02747989 -0.0069320556 0.022400932 0.031522337 -0.010798915 0.04798147
-0.008033727 0.006698478 0.0172814 0.0005688447 -0.015902797 -0.038433522 0.0043776557 0.030111643
0.012592244 0.02733625 0.023015026 0.0471882 0.011028431 0.0034008522 0.032902457 0.01316962
-0.022592004 -0.018482337 -0.024992874 0.007174977 0.002555775 0.0030684283 -0.03004241 -0.0020153911
