models/model_lastfm_ground_truth.npz (npz, 563771 bytes, 2 tensors)

user_factors f4 [1880, 32]
0.08130917 0.39845526 -0.18492042 -0.09850566 -0.11582567 0.12438363 0.36372563 -0.18573275
0.1736437 -0.027743243 0.20481648 -0.06033137 0.039397404 0.11042353 0.13910104 -0.34552598
0.30460358 0.03745546 -0.24163562 0.39661044 -0.09435587 0.09191566 -0.096363686 -0.14238557
-0.047997396 0.2346756 0.14681068 -0.13824064 -0.4481094 -0.15375313 0.08062636 0.18161675
-0.018171009 0.0378491 -0.012336643 0.02475802 -0.04762921 0.019014684 -0.022947313 0.0023682378
0.0142633775 0.032296978 0.022396613 -0.033262957 0.012348808 0.0145900445 -0.012433886 -0.021381188
-0.014297988 0.0015884074 -0.019215044 0.033231147 -0.009665277 -0.029545888 0.010658708 0.006460421
-0.036265485 -0.039849386 0.020272985 0.0016429988 0.0022353246 -0.00013181518 0.038017843 0.030256145
0.29554442 0.040408447 -0.28351852 -0.16612649 -0.14868826 0.2148849 0.11826496 -0.012487732
-0.3026238 -0.01750284 0.013329418 -0.051115293 -0.040517054 0.041658882 -0.15307735 -0.28551182
0.14226124 -0.045022383 -0.08503373 0.07551151 0.033393543 -0.13685602 0.18978055 0.0316976
0.22705719 -0.019582838 -0.108338 0.07905383 -0.038822014 -0.0012503176 -0.21145369 0.25623205
-0.14407669 0.030841677 0.1555472 -0.08296322 0.08617722 -0.10877505 -0.07615174 0.3163911
-0.06914194 0.043713927 0.22662134 -0.23237336 -0.034268193 0.12929894 -0.074753866 -0.14626966
-0.11332056 -0.04446541 -0.29208848 -0.119740136 -0.005242454 0.045654025 -0.08841788 -0.05744288
0.19433899 0.0002154922 0.1300488 -0.24264279 0.17635603 0.15596165 0.050961252 0.22044815
-0.09211451 0.02685197 0.03636812 0.086827286 -0.17007515 -0.1492343 -0.019434188 0.0022487796
-0.08851909 0.049254376 -0.03597806 0.021852763 -0.03729204 -0.052737623 0.07184171 -0.1480733
-0.07216765 -0.09322245 0.045280658 0.093233794 0.07026776 0.08312392 0.1922745 0.012497553
-0.013345235 0.056615725 0.049197342 0.058672987 -0.012895612 -0.03679308 0.07893071 -0.022058472
0.007400389 -0.09365247 0.049898718 0.009686365 -0.1939082 -0.113553464 -0.009093828 -0.15389176
-0.14334613 -0.20718981 -0.16507794 -0.18608989 -0.047595587 0.31021568 0.09327008 -0.10032957
0.053100117 -0.19715299 0.14762346 0.15033472 0.24570811 0.17701878 -0.12587032 0.1177228
-0.056350905 -0.008372143 -0.09850231 0.011583896 0.019555613 0.07602045 0.18001856 -0.1179571
0.10509223 0.08742475 0.031818017 -0.066246375 -0.09845913 -0.21637212 -0.08325146 -0.038247168
-0.190091 -0.16162589 -0.07484975 -0.12483486 -0.015616595 -0.23687847 -0.022733886 -0.28431705
-0.009229894 -0.196614 0.18341917 0.13644016 -0.09290163 0.21999268 0.027215606 -0.0027725084
0.012155585 0.004000874 0.014209575 0.029118873 0.04223923 -0.12976497 0.18574908 -0.27546215
0.13156314 -0.2806307 -0.08335677 0.009321912 0.025968377 0.04914039 0.049476195 -0.076312155
-0.14066853 -0.22008559 -0.09005102 0.15356271 -0.078527905 -0.25862032 0.094902 -0.023659343
-0.2416912 -0.18350926 -0.24285425 -0.04003071 -0.03735944 -0.22122848 -0.06485913 -0.04285153
-0.08568359 -0.097180665 0.25566646 -0.12322917 -0.014219472 -0.019838028 -0.0032861342 0.10328444
00000000: 6c85 a63d 5402 cc3e c75b 3dbe 56bd c9bd
00000010: 0236 edbd d8bc fe3d 3f3a ba3e ba30 3ebe
00000020: a7cf 313e cc45 e3bc 69bb 513e 071e 77bd
00000030: 2c5f 213d bb25 e23d 8170 0e3e c8e8 b0be
00000040: 00f5 9b3e e56a 193d 546f 77be 8610 cb3e
00000050: a63d c1bd 473e bc3d 535a c5bd 86cd 11be
00000060: eb98 44bd cd4e 703e 8a55 163e f48e 0dbe
00000070: 986e e5be 7671 1dbe 6f1f a53d bef9 393e
00000080: 5edb 94bc a807 1b3d a21f 4abc 55d1 ca3c
00000090: d916 43bd afc4 9b3c 01fc bbbc 7034 1b3b
000000a0: f1b0 693c d649 043d 1a79 b73c bd3e 08bd
000000b0: a852 4a3c 150b 6f3c 7fb7 4bbc 9a27 afbc
000000c0: 1c42 6abc 1c32 d03a de68 9dbc 621d 083d
000000d0: 1c5b 1ebc 380a f2bc dda1 2e3c f0b1 d33b
000000e0: 1e8b 14bd 1c39 23bd 8813 a63c e459 d73a
000000f0: 867e 123b de37 0ab9 99b8 1b3d bcdb f73c
00000100: 9951 973e 5483 253d 5729 91be 101d 2abe
00000110: bc41 18be ca0a 5c3e e634 f23d 5899 4cbc
00000120: 82f1 9abe 1e62 8fbc a263 5a3c 455e 51bd
00000130: 36f5 25bd 81a2 2a3d 4fc0 1cbe 9b2e 92be
00000140: eeac 113e 6469 38bd 2a26 aebd c7a5 9a3d
00000150: abc7 083d fc23 0cbe d555 423e 58d5 013d
00000160: ae81 683e 306c a0bc 50e0 ddbd f9e6 a13d
00000170: d503 1fbd b2e1 a3ba 5187 58be d930 833e
00000180: d788 13be afa7 fc3c c447 1f3e 9fe8 a9bd
00000190: af7d b03d 74c5 debd 72f5 9bbd 04fe a13e
000001a0: 4a9a 8dbd 600d 333d 6d0f 683e 48f3 6dbe
000001b0: ce5c 0cbd f166 043e 8e18 99bd b7c7 15be
000001c0: 9c14 e8bd 5d21 36bd 9f8c 95be 513a f5bd
000001d0: e4c8 abbb b7ff 3a3d 6f14 b5bd 3a49 6bbd
000001e0: cd00 473e bff5 6139 832b 053e 5a77 78be
000001f0: ad96 343e 69b4 1f3e bfbc 503d 29bd 613e
00000200: 88a6 bcbd aaf8 db3c bdf6 143d 81d2 b13d
00000210: 2e28 2ebe e0d0 18be 7234 9fbc 4360 133b
00000220: 7f49 b5bd f5be 493d bb5d 13bd 9104 b33c
00000230: 8abf 18bd 6803 58bd bf21 933d 87a0 17be
00000240: a2cc 93bd 69eb bebd 3678 393d 5cf1 be3d
00000250: 8be8 8f3d e03c aa3d 9be3 443e 89c2 4c3c
00000260: f9a5 5abc e4e5 673d 2783 493d 1653 703d
00000270: 1e48 53bc 57b4 16bd 6da6 a13d f8b3 b4bc
00000280: f67e f23b decc bfbd 9962 4c3d 8fb3 1e3c
00000290: df8f 46be b88e e8bd 47fe 14bc cd95 1dbe
000002a0: 54c9 12be 9129 54be 310a 29be 598e 3ebe
000002b0: 97f3 42bd 97d4 9e3e 6204 bf3d 9779 cdbd
000002c0: 827f 593d 79e2 49be 9b2a 173e 58f1 193e
000002d0: e89a 7b3e 6944 353e 26e4 00be a718 f13d
000002e0: 35d0 66bd 502b 09bc 94bb c9bd 62ca 3d3c
000002f0: 1833 a03c 9cb0 9b3d c956 383e 7e93 f1bd
00000300: 983a d73d bf0b b33d 9c53 023d 2eac 87bd
00000310: f1a4 c9bd a790 5dbe be7f aabd 10a9 1cbd
00000320: 37a7 42be 4281 25be d34a 99bd 6ba9 ffbd
00000330: bfdc 7fbc 4590 72be 6a3c babc 0192 91be
00000340: fb38 17bc 2e55 49be 3cd2 3b3e f8b6 0b3e
00000350: 3643 bebd c345 613e 43f3 de3c f9b2 35bb
00000360: 3828 473c c319 833b 47cf 683c b48a ee3c
00000370: 0b03 2d3d 1ce1 04be 0235 3e3e 6009 8dbe
00000380: 7db8 063e d4ae 8fbe f4b6 aabd efba 183c
00000390: a2bb d43c 6f47 493d 8da7 4a3d 8c49 9cbd
000003a0: 690b 10be 1e5e 61be ab6c b8bd 8b3f 1d3e
000003b0: 3dd3 a0bd e269 84be fb5b c23d 3dd1 c1bc
000003c0: e67d 77be dae9 3bbe c9ae 78be 3ef7 23bd
000003d0: 3606 19bd b889 62be ddd4 84bd 1685 2fbd
000003e0: e17a afbd a806 c7bd b7e6 823e 935f fcbd
000003f0: caf8 68bc 5c83 a2bc 2f5c 57bb cb86 d33d

item_factors f4 [2500, 32]
0.05989703 -0.053590342 -0.11195183 -0.022278365 -0.06661959 0.00017813103 -0.12866083 0.053618487
-0.07023187 -0.048645318 -0.025085457 -0.16949038 0.066922314 -0.063538015 -0.10816913 -0.041698996
-0.042790797 0.16046269 -0.087860376 0.19713973 0.053277884 0.06616631 -0.02339332 -0.055832718
0.05150204 0.065926 0.08409132 0.11385528 -0.012077205 0.06644676 -0.22976866 -0.15230265
0.032769628 -0.053897258 0.0043557137 -0.07553783 0.03426703 -0.099949114 0.050280686 0.08773269
-0.07344541 0.041272346 -0.1091676 -0.14412706 0.07197851 -0.045162328 0.08003202 0.09118612
-0.021565543 0.018920586 -0.04452459 0.066413194 0.09729098 0.017920388 -0.04069966 -0.054187015
-0.10237968 0.012610545 -0.04912342 -0.04614775 -0.015248178 -0.049310863 -0.043244813 0.029602129
-0.04278202 -0.07210915 -0.12058155 0.0775464 0.43288627 -0.05470114 -0.13950802 0.4075583
0.11202307 -0.14592858 0.07956429 -0.16236562 0.13487408 -0.07278086 0.07558003 -0.27988523
-0.21492426 -0.13988797 -0.2760876 0.15479405 1.0446426 0.10401194 -0.050827198 -0.429819
0.3184282 -0.31500965 -0.11819592 -0.28702128 0.40302613 -0.20999764 -0.44427627 -0.379783
-0.062435575 -0.08709432 0.028740251 0.048542555 0.071134485 0.09393733 0.015242045 -0.049012784
-0.065290146 -0.06281376 -0.037172426 0.03287711 0.00057167496 -0.14048557 0.046747975 -0.08243348
-0.15010871 -0.12947911 -0.09101957 0.039358675 0.031247217 -0.10143258 0.1315514 -0.078180395
-0.024569703 0.031818446 0.073479325 0.0041920724 0.021189723 0.016883997 -0.14542075 0.0072481288
-0.0122219585 -0.044597827 -0.09933867 -0.09950461 -0.033473983 -0.051913373 -0.10226138 0.15711126
-0.029355904 -0.101877466 -0.027270919 -0.13919836 0.11526854 -0.07863564 -0.0991289 0.007579152
-0.036966354 0.17963403 -0.0661616 0.23548487 0.17060025 0.09518093 -0.021068538 -0.04207922
-0.010346691 0.007868273 0.07821253 0.13529705 -0.13438812 0.11715172 -0.1876518 -0.093805134
0.07283778 -0.0634663 -0.06850635 -0.092764035 -0.0037501003 0.058542073 -0.09969017 0.14863853
-0.06889128 -0.05245263 -0.06994712 -0.16582184 -0.0033109002 -0.051200233 -0.06597854 -0.007300962
-0.08721257 0.123502366 0.043283686 0.16480756 0.031567544 0.026641833 -0.013715257 -0.0156011535
-0.017087646 -0.03540898 -0.017469512 0.14506286 -0.093441084 0.032604396 -0.20314218 -0.100336164
0.14908691 0.005744727 0.049814586 -0.1094125 0.210017 -0.1231148 0.04471286 0.18025962
-0.06797922 0.09449023 -0.19547744 -0.11502701 0.025843179 -0.0037443433 0.11837159 0.1817904
-0.049690146 -0.22948128 0.082694605 0.04442431 0.054006442 0.051000275 -0.07131499 -0.04194277
-0.09409656 -0.0699097 -0.1134464 -0.040960733 -0.11852822 -0.06013295 -0.0504143 0.17812613
0.13298874 -0.02482137 -0.0037259671 -0.19778794 0.1689932 -0.10458755 0.07744837 0.31290638
-0.13564555 0.038461197 -0.21486557 -0.16185142 0.038887918 -0.010056364 0.09582477 0.08264375
-0.06584713 -0.061621316 0.03099442 0.044478383 0.022858808 -0.039719965 0.032866433 -0.023797104
-0.11238506 -0.19543386 -0.15139227 0.09751638 -0.14790569 -0.08321014 -0.044972192 0.098152906
00000000: 9756 753d 8c81 5bbd 0047 e5bd 1e81 b6bc
00000010: da6f 88bd afc8 3a39 aabf 03be 0f9f 5b3d
00000020: bad5 8fbd 5040 47bd 0480 cdbc e38e 2dbe
00000030: 910e 893d 3820 82bd c787 ddbd 91cc 2abd
00000040: 6745 2fbd 5550 243e 24f0 b3bd ffde 493e
00000050: e939 5a3d 3482 873d 59a3 bfbc d9b0 64bd
00000060: cef3 523d 3604 873d 1238 ac3d f52c e93d
00000070: 78df 45bc 3d15 883d 7a48 6bbe 3af5 1bbe
00000080: 7239 063d 5fc3 5cbd 60ba 8e3b 94b3 9abd
00000090: 965b 0c3d 1fb2 ccbd 1ff3 4d3d 32ad b33d
000000a0: 8c6a 96bd 310d 293d 4393 dfbd 0b96 13be
000000b0: 7869 933d 22fc 38bd d4e7 a33d cabf ba3d
000000c0: 39aa b0bc 58ff 9a3c 6b5f 36bd a403 883d
000000d0: 7e40 c73d c7cd 923c b0b4 26bd 34f3 5dbd
000000e0: 70ac d1bd 769c 4e3c a435 49bd 6c05 3dbd
000000f0: 7ed3 79bc 30fa 49bd 7921 31bd 2a80 f23c
00000100: 333c 2fbd f6ad 93bd 76f3 f6bd a6d0 9e3d
00000110: 45a3 dd3e 4d0e 60bd 31db 0ebe 7bab d03e
00000120: 5a6c e53d 4d6e 15be 9af2 a23d 2c43 26be
00000130: 6e1c 0a3e 220e 95bd b4c9 9a3d 1e4d 8fbe
00000140: 1b15 5cbe cb3e 0fbe 5b5b 8dbe 5582 1e3e
00000150: d9b6 853f 3604 d53d 2e30 50bd 3c11 dcbe
00000160: 0509 a33e f248 a1be b410 f2bd 74f4 92be
00000170: 7159 ce3e 9f09 57be 2e78 e3be eb72 c2be
00000180: 72bc 7fbd 825e b2bd ad70 eb3c 8fd4 463d
00000190: f5ae 913d 3762 c03d c5b9 793c a1c1 48bd
000001a0: d7b6 85bd 80a4 80bd 1d42 18bd 26aa 063d
000001b0: 75dc 153a 73db 0fbe ce7a 3f3d e2d2 a8bd
000001c0: 19b6 19be 2c96 04be 7868 babd 9036 213d
000001d0: 2afa ff3c e2bb cfbd 69b5 063e 0b1d a0bd
000001e0: 6746 c9bc 0f54 023d 547c 963d a75d 893b
000001f0: 1296 ad3c 4f50 8a3c 2de9 14be b681 ed3b
00000200: 9c3e 48bc 36ac 36bd 1372 cbbd 13c9 cbbd
00000210: 041c 09bd 1ea3 54bd 6a6e d1bd c6e1 203e
00000220: cb7b f0bc 22a5 d0bd 4367 dfbc 048a 0ebe
00000230: ea11 ec3d b90b a1bd 1804 cbbd 895a f83b
00000240: 086a 17bd fcf1 373e bc7f 87bd f222 713e
00000250: d5b1 2e3e 38ee c23d ed97 acbc 435b 2cbd
00000260: 2b85 29bc eee9 003c e42d a03d 4f8b 0a3e
00000270: 0a9d 09be 3eed ef3d cb27 40be e81c c0bd
00000280: f92b 953d 9ffa 81bd 0f4d 8cbd 12fb bdbd
00000290: 3ec4 75bb d0c9 6f3d 5c2a ccbd b334 183e
000002a0: df16 8dbd 92d8 56bd 7040 8fbd 33cd 29be
000002b0: b0fb 58bb 56b7 51bd c21f 87bd e93c efbb
000002c0: 819c b2bd cfee fc3d 3c4a 313d 50c3 283e
000002d0: f84c 013d f93f da3c f5b5 60bc fb9b 7fbc
000002e0: 64fb 8bbc 0209 11bd 391c 8fbc 5c8b 143e
000002f0: 0a5e bfbd 308c 053d 8104 50be 0c7d cdbd
00000300: 3daa 183e 433e bc3b 610a 4c3d a913 e0bd
00000310: b20e 573e 9d23 fcbd d524 373d fa95 383e
00000320: b038 8bbd 1884 c13d 3d2b 48be 4893 ebbd
00000330: 13b5 d33c a863 75bb ce6c f23d 4327 3a3e
00000340: e587 4bbd 24fd 6abe ca5b a93d 44f6 353d
00000350: dc35 5d3d aae5 503d 980d 92bd 2fcc 2bbd
00000360: b2b5 c0bd d12c 8fbd 9656 e8bd 71c6 27bd
00000370: ecbe f2bd f84d 76bd 3a7f 4ebd b266 363e
00000380: 332e 083e 3056 cbbc 5b2f 74bb ec88 4abe
00000390: 8e0c 2d3e ff31 d6bd 409d 9e3d 4435 a03e
000003a0: abe6 0abe 7d89 1d3d b805 5cbe 61bc 25be
000003b0: f048 1f3d 73c3 24bc c73f c43d 2041 a93d
000003c0: dcda 86bd a266 7cbd 03e8 fd3c f72e 363d
000003d0: 6542 bb3c 67b1 22bd f49e 063d 25f2 c2bc
000003e0: 232a e6bd d01f 48be 9306 1bbe abb6 c73d
000003f0: 9774 17be 146a aabd c334 38bd 6404 c93d
